hole_recognition/weights.pt (torch_old, 616726 bytes, 4 tensors)

fc1.weight f4 [128, 1200]
-0.024113273 0.0046653673 0.021715345 -0.026557682 0.015258383 -0.012298927 -0.058988005 -0.026238883
0.011809443 -0.0447313 -0.03301977 -0.0034291002 -0.030479087 -0.023546174 -0.023583889 -0.030549493
-0.035424735 0.013268601 -0.008437159 0.017221697 -0.017387273 -0.01051308 -0.019615538 -0.011466963
-0.020186957 -0.0002674048 -0.0208686 -0.0044899406 -0.009753356 0.022920664 -0.021407828 0.0277816
0.028676989 -0.028476372 0.00080296583 0.02609255 -0.059764184 -0.008557043 -0.01679309 -0.04401664
-0.019209987 0.0013156977 -0.020971306 -0.007100029 0.008625763 -0.014415566 0.010768742 0.01873748
-0.043540817 -0.0017607401 0.0024213388 -0.057760112 0.01736796 0.010988226 -0.027594285 -0.01532189
0.016051058 -0.04674705 0.018058782 0.03233024 -0.012438972 0.016976085 0.03465278 -0.019523272
-0.00933792 -0.01762641 -0.036193933 0.02033012 -0.016768308 -0.037405815 0.027688636 -0.010365853
0.007385373 0.02918994 0.007951968 -0.006870122 -0.0276198 -0.017873485 -0.012485979 0.023488566
-0.018567363 -0.01423787 -0.016878517 0.029818557 0.010715284 -0.012295107 0.035161663 0.010982963
-0.00833298 0.0008647423 -0.01362724 -0.0032910816 -0.0055241594 0.013641601 -0.024134496 0.03392887
-0.030173907 -0.0068830093 0.0053710747 -0.0026599101 -0.012034899 -0.00049725594 0.01624234 0.0041941134
-0.008820536 -0.00489794 0.001077168 0.023375243 -0.04499538 0.014216385 0.038798347 -0.0045421543
0.0067815953 0.00047440277 -0.010342261 0.023720855 0.037894856 -0.035374295 0.00953447 0.00016723324
0.009989573 -0.0019014832 0.011175976 0.011892692 -0.010952738 -0.0021304272 -0.015337367 -0.016977966
0.0059406417 0.02367477 0.006718416 0.022582991 0.00076020986 -0.009919418 -0.027647736 -0.0036559582
-0.007844798 -0.021260228 -0.021144092 -0.020439107 -0.030912597 -0.021919046 0.02189252 -0.018683778
-0.022876924 -0.0080780275 -0.010822032 0.007990684 0.00015225737 0.00033336724 -0.026999079 0.002745527
-0.020786742 -0.023958592 0.023398232 -0.010945168 0.018301915 -0.007833393 0.016513368 0.0027508761
0.02541646 -0.020849299 -0.027376562 -0.008174086 -0.013704745 -0.03990991 -0.019797971 0.03192394
-0.0017793779 0.02072787 0.0012750219 -0.0372353 0.029078918 0.03462734 -0.0005850536 0.030028498
0.035713118 -0.021389483 -0.003978362 0.0017836248 0.023412269 0.02263373 0.021756478 0.00058202527
-0.009114269 -0.020894393 0.0032489477 0.028379416 -0.021101644 0.032997087 0.016637377 -0.013755586
0.00053418725 -0.019703016 -0.0011835855 -0.015610928 0.0010584607 0.0065549132 0.0026518349 0.025052331
-0.0028102605 -0.012458129 0.010307606 -0.028613294 0.031275 -0.0022188092 0.018005945 -0.004455333
-0.007734772 0.014647076 0.008410516 0.019597972 -0.003550963 0.009210388 0.0064311055 0.00072600634
-0.031747315 0.02460195 0.011359076 -0.00399672 0.022488272 -0.019348538 0.016093427 -0.017865865
0.0011809389 -0.027689693 -0.01878128 -0.009520173 0.0019366846 -0.0010286768 -0.0054957173 -0.009125064
-0.0073148157 -0.011118388 -0.045748815 0.03098807 0.007182724 -0.01973775 0.0028576034 0.036684524
-0.003403162 0.017420257 0.03069309 0.011470074 0.01563286 0.009219001 0.031083671 0.0318835
-0.015195569 0.0073036365 0.016344678 0.016570805 0.011772058 0.019284917 0.014451036 0.043978658
00000000: 3389 c5bc f0df 983b 61e4 b13c 7f8f d9bc
00000010: 4cfe 793c 7081 49bc 689d 71bd edf2 d6bc
00000020: 657c 413c 2b38 37bd bd3f 07bd c1ba 60bb
00000030: 47af f9bc e8e3 c0bc 0033 c1bc ee42 fabc
00000040: 8719 11bd 8c64 593c 023c 0abc 8414 8d3c
00000050: c16f 8ebc 0e3f 2cbc c4b0 a0bc eedf 3bbc
00000060: 1e5f a5bc 7732 8cb9 a0f4 aabc 5a20 93bb
00000070: 8acc 1fbc 1ec4 bb3c 785f afbc 3d96 e33c
00000080: 01ec ea3c 4847 e9bc 207e 523a 0bc0 d53c
00000090: 4acb 74bd d732 0cbc aa91 89bc cb4a 34bd
000000a0: 435e 9dbc 7d73 ac3a 04cc abbc 5ca7 e8bb
000000b0: 1253 0d3c 442f 6cbc 616f 303c 587f 993c
000000c0: db57 32bd a2c8 e6ba 53af 1e3b de95 6cbd
000000d0: 4147 8e3c f607 343c 690d e2bc aa08 7bbc
000000e0: 827d 833c d679 3fbd 03f0 933c b76c 043d
000000f0: d4cc 4bbc 6e11 8b3c 13f0 0d3d 45ef 9fbc
00000100: 13fe 18bc 4365 90bc 1740 14bd 5a8b a63c
00000110: b15d 89bc d736 19bd 47d3 e23c 8ad5 29bc
00000120: 0001 f23b be1f ef3c f948 023c c31e e1bb
00000130: eb42 e2bc 6a6b 92bc fe91 4cbc 186b c03c
00000140: 951a 98bc f545 69bc d144 8abc 0c46 f43c
00000150: 298f 2f3c 6b71 49bc ad05 103d e3f1 333c
00000160: 0d87 08bc e0af 623a ca44 5fbc 30af 57bb
00000170: 0204 b5bb 0681 5f3c b5b5 c5bc 00f9 0a3d
00000180: 452f f7bc de8a e1bb d7ff af3b e351 2ebb
00000190: 062e 45bc 485a 02ba a80e 853c c66e 893b
000001a0: 0284 10bc e67e a0bb c32f 8d3a 707d bf3c
000001b0: 134d 38bd d7eb 683c 04eb 1e3d 5ad6 94bb
000001c0: 2538 de3b 43b9 f839 9672 29bc 3d52 c23c
000001d0: a337 1b3d a3e4 10bd 7736 1c3c 555b 2f39
000001e0: 4eab 233c 303b f9ba 711b 373c 91d9 423c
000001f0: 1d73 33bc a39e 0bbb 9449 7bbc 6015 8bbc
00000200: b7a9 c23b 97f1 c13c 2926 dc3b f7ff b83c
00000210: d248 473a 0e85 22bc 817d e2bc cd98 6fbb
00000220: 7887 00bc ee29 aebc 6036 adbc ea6f a7bc
00000230: 6a3c fdbc 928f b3bc f157 b33c b90e 99bc
00000240: 6368 bbbc b459 04bc e44e 31bc 5ceb 023c
00000250: 47a7 1f39 cbc7 ae39 2c2d ddbc 4dee 333b
00000260: f548 aabc cf44 c4bc a6ad bf3c 5d53 33bc
00000270: e6ed 953c a257 00bc 0b47 873c 0b48 343b
00000280: 2e36 d03c 26cc aabc d044 e0bc 9aec 05bc
00000290: de89 60bc 9378 23bd 5b2f a2bc adc2 023d
000002a0: 043a e9ba 7ecd a93c a31e a73a 0b84 18bd
000002b0: e936 ee3c 66d5 0d3d 485e 19ba 53fe f53c
000002c0: eb47 123d ff38 afbc eb5c 82bb 84c8 e93a
000002d0: 16cb bf3c 5f6a b93c a43a b23c 0e93 183a
000002e0: 0454 15bc b82a abbc 4cec 543b f37b e83c
000002f0: 5bdd acbc f427 073d 1c4b 883c 1c5f 61bc
00000300: b308 0c3a 3868 a1bc 8a22 9bba fac4 7fbc
00000310: 0cbc 8a3a 99ca d63b 68ca 2d3b 8c3a cd3c
00000320: 592c 38bb 2e1d 4cbc 3ce1 283c 6d66 eabc
00000330: 371a 003d 7169 11bb 3481 933c 0bfe 91bb
00000340: f873 fdbb 4afa 6f3c 43cc 093c ed8b a03c
00000350: 46b7 68bb 2be7 163c 06bc d23b 7651 3e3a
00000360: 7909 02bd 078a c93c 6b1b 3a3c ebf6 82bb
00000370: 5339 b83c d380 9ebc 5dd6 833c 6f5b 92bc
00000380: bcc9 9a3a 7fd5 e2bc 33db 99bc 80fa 1bbc
00000390: 5ad8 fd3a aad4 86ba 6b15 b4bb 4b81 15bc
000003a0: 1fb1 efbb e629 36bc 1c63 3bbd b1da fd3c
000003b0: 0e5d eb3b 10b1 a1bc a146 3b3b 8342 163d
000003c0: 9507 5fbb edb4 8e3c 1370 fb3c faec 3b3c
000003d0: 7c10 803c 4b0b 173c 2fa3 fe3c 4698 023d
000003e0: d6f6 78bc 5853 ef3b 46e5 853c 7fbf 873c
000003f0: 97df 403c 67fb 9d3c 0ac4 6c3c f722 343d

fc1.bias f4 [128]
-0.0041257227 -0.2275318 -0.04107852 -0.04477902 -0.24571839 -0.08878397 -0.024531737 -0.026841123
-0.0004907397 0.004484925 -0.07949748 0.016202444 0.032560326 0.006330998 0.0015620327 -0.032614034
-0.0038055223 -0.0070009646 -0.00045532407 -0.0020000564 0.0018804899 -0.004453347 0.00477372 0.02523275
0.0029166648 -0.0028475644 -0.019577622 0.024034126 -0.05440681 -0.02909878 -0.017950434 0.0049438057
-0.18234503 0.022076068 -0.015803035 -0.025747824 -0.02057597 -0.017843623 -0.004101396 0.0071111913
-0.011841525 -0.025752427 -0.021771923 -0.017568005 0.035894047 -0.018923955 -0.0015421973 -0.061151955
-0.00041555887 -0.06914185 -0.003555193 -0.007346661 -0.03160525 0.008887251 -0.00026558802 -0.15209761
-0.01322433 -0.024064975 -0.0049281316 0.02934739 -0.027678844 0.26659676 -0.00039910307 -0.027792286
0.023056794 -0.21129836 -0.047289193 -0.011170364 -0.020002542 -0.11294027 -0.019810453 -0.01495807
-0.06334665 0.04467386 0.002261584 -0.12256526 -0.004370072 -0.006916957 -0.014442987 -0.052441165
-0.048214745 -0.01899189 0.006179228 -0.03484655 -0.032170173 -0.03331442 -0.003339745 0.030901527
-0.000973025 -0.050983947 0.56806475 -0.0026780546 -0.0048476593 -0.15485917 -0.07366491 0.013845939
-0.012561602 -0.010993685 -0.04904683 -0.015655426 -0.00095671916 -0.076002754 -0.024874944 0.0008578885
0.47141063 -0.051292133 -0.09950922 0.0041879895 -0.0021424517 -0.0013835633 -0.0169484 -0.063935444
0.024168402 -0.0011487588 -0.02415305 -0.023301212 -0.016862322 -0.03183429 -0.08595487 -0.033749565
0.00021854907 -0.01397886 -0.017080024 -0.016981317 -0.03343873 -0.13408706 -0.022867437 0.040477104
00000000: 1231 87bb 19fe 68be f341 28bd 356a 37bd
00000010: 9a9d 7bbe 5fd4 b5bd c8f6 c8bc eae1 dbbc
00000020: fca4 00ba 47f6 923b 93cf a2bd fdba 843c
00000030: fa5d 053d 4374 cf3b 1fbd cc3a 4b96 05bd
00000040: 1266 79bb 5968 e5bb 90b8 eeb9 6113 03bb
00000050: c57a f63a 62ed 91bb de6c 9c3b eab4 ce3c
00000060: 8425 3f3b 349e 3abb 4061 a0bc 37e3 c43c
00000070: add9 5ebd 9160 eebc ca0c 93bc a6ff a13b
00000080: a8b8 3abe dfd8 b43c 5e75 81bc 1aed d2bc
00000090: f08e a8bc ca2c 92bc 0165 86bb ff04 e93b
000000a0: f502 42bc c1f6 d2bc 085b b2bc c7ea 8fbc
000000b0: a305 133d 6906 9bbc 8e23 caba 797a 7abd
000000c0: 5edf d9b9 3e9a 8dbd 3efe 68bb 42bc f0bb
000000d0: 8274 01bd d59b 113c 9f3e 8bb9 7abf 1bbe
000000e0: dcaa 58bc e923 c5bc 2a7c a1bb f069 f03c
000000f0: bebe e2bc 5f7f 883e b53e d1b9 a6ac e3bc
00000100: 9ae1 bc3c 995e 58be 50b2 41bd e703 37bc
00000110: 5fdc a3bc 3a4d e7bd 8849 a2bc b112 75bc
00000120: e3bb 81bd f0fb 363d 1537 143b 7f03 fbbd
00000130: d232 8fbb a4a7 e2bb 47a2 6cbc 8ccc 56bd
00000140: d37c 45bd e194 9bbc 1f7b ca3b 42bb 0ebd
00000150: dfc4 03bd b474 08bd a0df 5abb 3325 fd3c
00000160: 9a12 7fba 8bd4 50bd b16c 113f 4d82 2fbb
00000170: 1dd9 9ebb 6793 1ebe a1dd 96bd 14da 623c
00000180: 2dcf 4dbc db1e 34bc 54e5 48bd cf3f 80bc
00000190: 56cc 7aba 55a7 9bbd 8ac6 cbbc ece3 603a
000001a0: bc5c f13e b317 52bd 7dcb cbbd 673b 893b
000001b0: 6068 0cbb ae58 b5ba 5fd7 8abc 96f0 82bd
000001c0: d0fc c53c f391 96ba 9edc c5bc 2fe2 bebc
000001d0: da22 8abc ac64 02bd 1b09 b0bd fc3c 0abd
000001e0: 522a 6539 9707 65bc 68eb 8bbc 671c 8bbc
000001f0: 0df7 08bd 1e4e 09be 7e54 bbbc 52cb 253d

fc2.weight f4 [2, 128]
0.04183066 0.24839522 0.08825884 0.12006663 0.16505048 0.1751121 -0.019571818 -0.065767735
0.03119175 -0.07939502 0.07084879 -0.049439266 0.29628065 0.0659501 0.14497542 -0.04695065
-0.049566075 0.10942311 -0.06841637 -0.016452277 -0.0012541249 -0.109231934 0.020561408 0.07936579
-0.05218938 -0.114081584 0.037226174 -0.096830994 0.06532226 -0.02590117 -0.0012945763 -0.035316724
0.22925682 -0.03544972 -0.01889145 0.0034133955 0.047973838 0.033162948 0.023751216 0.12310886
-0.14830376 -0.15140335 -0.030032948 0.060461547 -0.11868354 -0.047720607 0.029167213 0.1232779
-0.02276382 0.25579587 -0.14570262 -0.16579098 0.08868445 0.062193345 0.020145603 0.16133012
-0.036272515 0.07936979 -0.03440274 -0.11559769 -0.20241114 -0.026784014 -0.022972383 0.10830918
0.08673912 0.16374594 0.13470772 -0.015151949 0.032273505 0.07205169 0.1370414 -0.061473724
0.037636068 0.15280987 -0.014069959 0.12876779 -0.120643094 0.0005958816 -0.13492721 0.14701986
0.106341936 0.09517903 -0.09395667 0.054543197 -0.04745399 -0.012676855 -0.0094317645 0.12822755
0.022822592 0.08226839 0.5921909 -0.09557582 -0.023538962 0.095206805 0.1372836 0.11720529
-0.06362116 0.067852266 0.106475115 -0.058768153 -0.025124539 0.12402146 0.011949127 -0.04218039
0.4436628 0.11006003 0.21607734 -0.1290115 0.06166225 -0.068327494 0.04994339 0.08621951
-0.104293525 -0.042487856 0.021650197 -0.06957124 0.035427548 -0.05635965 0.009540577 -0.016418928
-0.026238022 -0.060676392 0.05551041 -0.03207964 0.18321402 0.13775337 0.043345254 0.0712042
-0.08112749 -0.15927966 -0.048758373 -0.07557666 -0.32214534 -0.20970024 -0.015612796 0.07266021
0.050705284 0.13858745 -0.10817563 0.04683076 -0.20109008 0.07299344 -0.14796527 0.06839091
0.06552882 -0.08356208 0.07419499 0.07089174 0.11399339 0.044158183 0.07862478 -0.055326488
-0.012395328 0.13520615 -0.057489257 0.057225794 -0.090154566 0.04302741 0.036799334 0.07496914
-0.08410015 -0.04258909 0.063398875 -0.14184882 0.0083635375 -0.1304992 -0.123426236 -0.06102583
0.055481344 0.03318355 -0.04872922 -0.06382553 0.035697807 0.015021938 0.06477874 -0.07885348
0.041503232 -0.19674562 0.12219134 0.051592592 -0.038458828 0.077997066 0.032896116 -0.22055776
-0.07346463 -0.12380213 0.041806176 0.12043305 0.1324316 -0.05652591 0.067663975 -0.115326725
-0.08384384 -0.19238076 -0.1353895 0.13266137 0.049449325 -0.23099637 -0.11981074 0.1153777
-0.115096636 -0.13358091 0.06016817 -0.13522778 0.20536438 0.070139274 0.022381203 -0.050603434
-0.08832805 -0.026118413 0.02485649 0.04315822 0.21007401 -0.08814126 0.12997596 -0.05491391
0.060949143 -0.030891525 -0.5649389 0.1415429 0.034994453 -0.1931443 -0.061706595 -0.11389716
-0.0054619326 0.07634293 -0.12371586 0.02928025 0.036203098 -0.04478233 0.028116742 -0.037242536
-0.43011194 -0.07724755 -0.109577365 0.111145854 -0.01330623 0.019719051 -0.17607795 -0.15530072
0.08157698 -0.040418427 0.045546774 0.08044812 0.03526697 0.0054122154 -0.11512025 0.08017929
0.024158446 -0.06024518 -0.10252215 0.07212561 -0.10771787 -0.22221218 0.04752295 -0.10350493
00000000: a056 2b3d 515b 7e3e 0dc1 b43d 7ee5 f53d
00000010: fe02 293e 9650 333e 1455 a0bc 3cb1 86bd
00000020: d785 ff3c db99 a2bd 2c19 913d d480 4abd
00000030: 19b2 973e d910 873d 7074 143e 534f 40bd
00000040: cc05 4bbd 3919 e03d e21d 8cbd edc6 86bc
00000050: 7361 a4ba feb4 dfbd 6670 a83c 888a a23d
00000060: 88c4 55bd 9ba3 e9bd 797a 183d 544f c6bd
00000070: adc7 853d b12e d4bc c6ae a9ba 45a8 10bd
00000080: 4dc2 6a3e ba33 11bd 3ec2 9abc 46b3 5f3b
00000090: 3780 443d dfd5 073d e991 c23c 7f20 fc3d
000000a0: f1dc 17be 7b09 1bbe a807 f6bc 87a6 773d
000000b0: 5b10 f3bd af76 43bd 14f0 ee3c 2079 fc3d
000000c0: 317b babc adf7 823e 1133 15be 1cc5 29be
000000d0: 31a0 b53d 73be 7e3d 6408 a53c b933 253e
000000e0: 7d92 14bd a18c a23d e3e9 0cbd 7bbe ecbd
000000f0: de44 4fbe 266a dbbc 9430 bcbc 34d1 dd3d
00000100: 48a4 b13d 04ad 273e d2f0 093e e13f 78bc
00000110: 3931 043d d68f 933d 9554 0c3e dfcb 7bbd
00000120: 4728 1a3d 317a 1c3e af85 66bc b4db 033e
00000130: ba13 f7bd f034 1c3a 5c2a 0abe 608c 163e
00000140: cdc9 d93d 39ed c23d 5b6c c0bd b068 5f3d
00000150: 1d5f 42bd 95b2 4fbc b087 1abc 154e 033e
00000160: 72f6 ba3c 547c a83d d399 173f 41bd c3bd
00000170: c8d4 c0bc c9fb c23d 1294 0c3e 5409 f03d
00000180: d04b 82bd 21f6 8a3d a00f da3d e0b6 70bd
00000190: fad1 cdbc f7fe fd3d 45c6 433c 58c5 2cbd
000001a0: c527 e33e 2767 e13d 6143 5d3e 971b 04be
000001b0: 8e91 7c3d 49ef 8bbd 7191 4c3d db93 b03d
000001c0: d897 d5bd bf07 2ebd c15b b13c 5e7b 8ebd
000001d0: 7a1c 113d 60d9 66bd 1550 1c3c fd80 86bc
000001e0: 1ff1 d6bc cf87 78bd e25e 633d f165 03bd
000001f0: 759c 3b3e 380f 0d3e cb8a 313d 82d3 913d
00000200: 2b26 a6bd 351a 23be dcb6 47bd f0c7 9abd
00000210: 3cf0 a4be a9bb 56be d0cc 7fbc e0ce 943d
00000220: 58b0 4f3d dee9 0d3e 2f8b ddbd 9cd1 3f3d
00000230: 8fea 4dbe 967d 953d 3584 17be 8910 8c3d
00000240: f933 863d 9922 abbd 8bf3 973d b02f 913d
00000250: 5e75 e93d 36df 343d 0706 a13d 079e 62bd
00000260: c615 4bbc 7b73 0a3e db79 6bbd 9865 6a3d
00000270: f5a2 b8bd 823d 303d e6ba 163d 6c89 993d
00000280: b33c acbd e671 2ebd 45d7 813d d140 11be
00000290: 3807 093c 95a1 05be e5c6 fcbd 39f6 79bd
000002a0: 6840 633d 79eb 073d 4a98 47bd f6b6 82bd
000002b0: dd37 123d 931e 763c b7aa 843d ef7d a1bd
000002c0: 4bff 293d af77 49be 743f fa3d c152 533d
000002d0: 0187 1dbd edbc 9f3d 14be 063d e5d9 61be
000002e0: a074 96bd f98b fdbd f43c 2b3d 9aa5 f63d
000002f0: 269c 073e b687 67bd 6993 8a3d 6b30 ecbd
00000300: 52b6 abbd 76ff 44be 8ca3 0abe 62d8 073e
00000310: 608b 4a3d 508a 6cbe 555f f5bd 254b ec3d
00000320: c9b7 ebbd 6fc9 08be e672 763d 2779 0abe
00000330: 0a4b 523e 2ea5 8f3d c958 b73c 8c45 4fbd
00000340: 56e5 b4bd 48f6 d5bc d69f cb3c acc6 303d
00000350: a41d 573e 6883 b4bd 6b18 053e 68ed 60bd
00000360: cfa5 793d 3910 fdbc d69f 10bf 9ff0 103e
00000370: 5856 0f3d 9fc7 45be 0ec0 7cbd ea42 e9bd
00000380: 03fa b2bb af59 9c3d be5e fdbd 23dd ef3c
00000390: b349 143d ad6d 37bd 1555 e63c a18b 18bd
000003a0: a237 dcbe f733 9ebd 196a e0bd 70a0 e33d
000003b0: 6002 5abc d989 a13c c74d 34be 2707 1fbe
000003c0: d511 a73d cb8d 25bd 418f 3a3d fcc1 a43d
000003d0: 1974 103d f458 b13b 2ac4 ebbd 0a35 a43d
000003e0: efe7 c53c a6c3 76bd 22f7 d1bd 98b6 933d
000003f0: 309b dcbd 978b 63be 6da7 423d 65fa d3bd

fc2.bias f4 [2]
0.08293693 -0.030342164
00000000: d6da a93d 2190 f8bc
