ball_detection/candidate_classifier/weights.pt (torch_old, 47101 bytes, 10 tensors)

conv1.weight f4 [16, 3, 3, 3]
-0.05864581 -0.079263784 -0.062174447 -0.08164727 -0.10567055 -0.08236342 -0.094339766 -0.11853436
-0.09794783 -0.03489183 -0.049017716 -0.03416236 -0.04251947 -0.059574928 -0.038614802 -0.036020566
-0.0535309 -0.033973176 0.2062862 0.2176648 0.22118594 0.19057925 0.20193706 0.2131111
0.16188186 0.17371659 0.1866245 -0.07328662 -0.08650721 -0.07741828 -0.11192134 -0.12512968
-0.10987189 -0.14996836 -0.1761916 -0.15580066 0.026293393 0.03683427 0.0390488 0.023273388
0.033796176 0.0425547 0.0106091015 0.007958285 0.022792714 0.28609738 0.32847068 0.3219135
0.2567656 0.3005713 0.30413312 0.20174427 0.233453 0.24709925 -9.835558e-10 -3.5722722e-10
1.9431536e-09 -1.6303172e-09 -1.4533872e-09 6.2063144e-10 -3.036968e-10 3.0227168e-11 1.6442585e-09 -5.680532e-09
-5.705755e-09 -4.282924e-09 -6.7940418e-09 -7.279301e-09 -6.168669e-09 -6.0845142e-09 -6.3000876e-09 -5.5159166e-09
-1.34060985e-08 -1.4150943e-08 -1.2820626e-08 -1.711555e-08 -1.8258605e-08 -1.7400595e-08 -1.77975e-08 -1.8711006e-08
-1.8292914e-08 0.00049368775 -0.0036431677 0.010354015 -0.014293922 -0.0321106 -0.012586055 -0.04198854
-0.07503175 -0.056986503 -0.044921827 -0.05018418 -0.03456885 -0.054579794 -0.075524405 -0.052915405
-0.07282537 -0.10839088 -0.08935314 0.08202068 0.09229401 0.09574192 0.07752205 0.07608538
0.086855456 0.050931092 0.032229707 0.042334847 -0.014783331 -0.014888698 -0.014450756 -0.01831253
-0.01976638 -0.01826642 -0.016874371 -0.01881518 -0.01807024 -0.0039975145 -0.004271715 -0.005250015
-0.0077428 -0.009630888 -0.009442512 -0.0048561217 -0.0072926697 -0.007841712 0.020063624 0.022875661
0.021210065 0.018050414 0.020025367 0.019199092 0.018676016 0.019901477 0.018698605 -0.09818004
-0.0899125 -0.097767256 -0.12007375 -0.11255774 -0.11686461 -0.10860072 -0.10423401 -0.10832525
-0.016697787 -0.009918498 -0.031540155 -0.04420544 -0.03877282 -0.05596864 -0.0279604 -0.02642233
-0.042618286 0.11478893 0.14243656 0.11242646 0.10313762 0.12963614 0.10484441 0.11069881
0.13126114 0.11007654 -0.033675194 -0.034279503 -0.034900773 -0.04220477 -0.044005215 -0.043182485
-0.0380124 -0.040518753 -0.04083177 -0.0075023593 -0.00938152 -0.01427474 -0.017139588 -0.020708265
-0.023757884 -0.010858755 -0.015191869 -0.019240355 0.04804759 0.05296016 0.044814005 0.04312241
0.047775317 0.041046053 0.04560433 0.049001876 0.042095967 0.0570975 0.055685513 0.053633083
-0.0038241767 -0.0337383 0.003015602 -0.018702237 -0.07082539 -0.027412212 0.030446509 0.022951901
0.02249759 -0.02719637 -0.06509355 -0.020413013 -0.042217135 -0.09623443 -0.048965152 0.055611473
0.051168945 0.058720324 -0.019579 -0.055021547 -9.603247e-05 -0.049905628 -0.10871627 -0.044389945
-0.06477395 -0.061315633 -0.06378116 -0.084415495 -0.08395207 -0.08209032 -0.07632385 -0.076623544
-0.07778867 -0.01887875 -0.018266808 -0.030284954 -0.040954955 -0.044390712 -0.0513198 -0.028821543
-0.033587825 -0.042748194 0.09655685 0.11146098 0.09119057 0.08473245 0.0977747 0.082726195
0.09024698 0.100736305 0.08569474 0.21753153 0.24485835 0.22934328 0.1915819 0.20901789
0.20175812 0.13967986 0.14292869 0.13534647 0.20424096 0.22756557 0.19794634 0.21298243
00000000: 9736 70bd 0d55 a2bd a2aa 7ebd af36 a7bd
00000010: cd69 d8bd 27ae a8bd 3535 c1bd 24c2 f2bd
00000020: df98 c8bd bcea 0ebd cdc6 48bd d5ed 0bbd
00000030: e528 2ebd d704 74bd 8e2a 1ebd 4d8a 13bd
00000040: 3843 5bbd 7527 0bbd b13c 533e 85e3 5e3e
00000050: 917e 623e 3527 433e 97c8 4e3e cc39 5a3e
00000060: 5cc4 253e c3e2 313e 7e1a 3f3e 4c17 96bd
00000070: b12a b1bd 7a8d 9ebd 0437 e5bd ff21 00be
00000080: 8304 e1bd 4e91 19be 926b 34be 358a 1fbe
00000090: 3e65 d73c 88df 163d a2f1 1f3d d5a7 be3c
000000a0: dc6d 0a3d d64d 2e3d ccd1 2d3c 7763 023c
000000b0: c9b7 ba3c 5b7b 923e 4f2d a83e d9d1 a43e
000000c0: c876 833e 7be4 993e 56b7 9b3e 0d96 4e3e
000000d0: 4e0e 6f3e 9607 7d3e cb2d 87b0 4363 c4af
000000e0: 5288 0531 b011 e0b0 84c0 c7b0 0e99 2a30
000000f0: 86f5 a6af c4f0 042e 34fc e130 7d2e c3b1
00000100: 5a0c c4b1 ff28 93b1 0671 e9b1 691d fab1
00000110: 30f4 d3b1 f40f d1b1 2878 d8b1 8486 bdb1
00000120: a550 66b2 811c 73b2 b641 5cb2 7e05 93b2
00000130: 19d7 9cb2 5078 95b2 1ee1 98b2 f0b9 a0b2
00000140: 8b22 9db2 d36a 013a 36c2 6ebb e3a3 293c
00000150: 0e31 6abc 6886 03bd be35 4ebc 2dfc 2bbd
00000160: 3faa 99bd ae6a 69bd f3ff 37bd ed8d 4dbd
00000170: 1198 0dbd 108f 5fbd 8aac 9abd d3bd 58bd
00000180: 7825 95bd 0afc ddbd c7fe b6bd 75fa a73d
00000190: a404 bd3d 5714 c43d e1c3 9e3d a7d2 9b3d
000001a0: 46e1 b13d 1f9d 503d 4c03 043d 4e67 2d3d
000001b0: c935 72bc baef 73bc ddc2 6cbc 2904 96bc
000001c0: 1aed a1bc 76a3 95bc 1f3c 8abc 4b22 9abc
000001d0: 0a08 94bc 95fd 82bb bef9 8bbb 5108 acbb
000001e0: 50b7 fdbb dfca 1dbc c4b4 1abc 1a20 9fbb
000001f0: 59f7 eebb 867a 00bc 785c a43c bd65 bb3c
00000200: bbc0 ad3c 76de 933c 3d0c a43c 6a47 9d3c
00000210: 72fe 983c 6c08 a33c d12d 993c 9e12 c9bd
00000220: 0b24 b8bd 333a c8bd 3ae9 f5bd ac84 e6bd
00000230: b656 efbd 0e6a debd a478 d5bd a1d9 ddbd
00000240: ccc9 88bc 3281 22bc 4030 01bd c310 35bd
00000250: 40d0 1ebd 5f3f 65bd 350d e5bc a473 d8bc
00000260: 8390 2ebd 7516 eb3d e4da 113e d83f e63d
00000270: d139 d33d 56bf 043e abb8 d63d 0fb6 e23d
00000280: 5269 063e cf6f e13d 00ef 09bd aa68 0cbd
00000290: 1df4 0ebd e9de 2cbd d03e 34bd 1ee0 30bd
000002a0: e4b2 1bbd fef6 25bd 373f 27bd 5ad6 f5bb
000002b0: f2b4 19bc 99e0 69bc 5268 8cbc 61a4 a9bc
000002c0: e59f c2bc ebe8 31bc 51e7 78bc f39d 9dbc
000002d0: 8dcd 443d c1ec 583d e48e 373d 20a1 303d
000002e0: 0db0 433d e81f 283d 9bcb 3a3d 31b6 483d
000002f0: d26c 2c3d 11df 693d 7e16 643d 5dae 5b3d
00000300: 0a9f 7abb 2c31 0abd 68a1 453b 6f35 99bc
00000310: e70c 91bd 938f e0bc f56a f93c a005 bc3c
00000320: de4c b83c ecca debc c44f 85bd 3139 a7bc
00000330: e0eb 2cbd 8f16 c5bd af8f 48bd dbc8 633d
00000340: 8796 513d b984 703d 2464 a0bc 465e 61bd
00000350: 0a65 c9b8 d869 4cbd a3a6 debd 3bd2 35bd
00000360: 34a8 84bd 1a26 7bbd b29f 82bd 08e2 acbd
00000370: 10ef abbd f81e a8bd ae4f 9cbd ceec 9cbd
00000380: ab4f 9fbd 9ca7 9abc 46a4 95bc 2718 f8bc
00000390: 62c0 27bd 09d3 35bd b634 52bd 281b ecbc
000003a0: 6393 09bd bb18 2fbd 99bf c53d a745 e43d
000003b0: 1fc2 ba3d 3588 ad3d 1a3e c83d 5a6c a93d
000003c0: 69d3 b83d d64e ce3d b980 af3d 96c0 5e3e
000003d0: 26bc 7a3e f7d8 6a3e 0c2e 443e c908 563e
000003e0: ae99 4e3e 3d08 0f3e e65b 123e 4498 0a3e
000003f0: 8b24 513e f306 693e 72b2 4a3e 1118 5a3e

conv1.bias f4 [16]
0.07634308 0.013523156 -1.5469771e-08 0.13274765 0.03185049 0.19535057 0.074418284 0.26408032
0.15732233 -0.1725753 -2.7793526e-11 -5.356744e-05 -0.0028004486 0.258702 0.43156588 0.36967725
00000000: c359 9c3d 3a90 5d3c 63e2 84b2 00ef 073e
00000010: a975 023d fb09 483e 9d68 983d 8935 873e
00000020: 1b19 213e 94b7 30be 7579 f4ad 9aad 60b8
00000030: bb87 37bb 9774 843e 34f6 dc3e 5646 bd3e

conv2.weight f4 [16, 16, 3, 3]
-0.10201014 -0.14180058 -0.14067657 -0.115830205 -0.16253072 -0.15609345 -0.08943469 -0.1205217
-0.120521195 -0.10963467 -0.18030728 -0.1917419 -0.11931263 -0.20245625 -0.20688288 -0.10623679
-0.16439132 -0.16917343 1.1128357e-08 5.036287e-09 4.8669597e-09 8.821613e-09 1.4301337e-09 2.07094e-09
7.190071e-09 1.193411e-09 2.2296687e-09 -0.010535061 -0.01787682 -0.014422162 -0.02337201 -0.030373123
-0.026579138 -0.010105908 -0.014870964 -0.01113608 0.00038277253 -0.0011778313 -0.0005086376 -0.0014648939
-0.002906411 -0.0021766832 -0.0016498062 -0.0026762334 -0.0017767118 -0.010953786 -0.0218809 -0.019414235
-0.022865059 -0.03367559 -0.029501958 -0.021076841 -0.027812596 -0.022513032 -0.0011798183 -0.0053689457
-0.004259149 -0.0053649945 -0.009218621 -0.007836728 -0.0052688834 -0.008065926 -0.0063130013 0.014897385
0.014600041 0.026247192 0.011247699 0.014297874 0.018353757 0.0416588 0.04181408 0.050037917
-0.0134021295 -0.023781225 -0.022433672 -0.02396626 -0.03449291 -0.030716514 -0.02010115 -0.0269207
-0.023281585 0.16340359 0.14131448 0.15307683 0.13645682 0.096453585 0.11279979 0.07822333
0.0376719 0.061553087 1.8882194e-11 1.7325873e-11 1.8243398e-11 1.774893e-11 1.5657803e-11 1.6467133e-11
1.7764118e-11 1.5783616e-11 1.6423456e-11 -3.2063454e-07 -1.089923e-05 -1.7102888e-05 -1.728074e-06 -1.5017424e-05
-1.9865995e-05 -4.4300714e-06 -1.6131511e-05 -2.0338557e-05 0.0006754739 0.00037753998 9.642824e-06 0.0005578485
0.0001642588 -0.0001496908 0.00054809725 0.00020311747 -0.00013289471 -0.019162172 -0.025758531 -0.016964626
-0.0162489 -0.020493092 -0.01210689 -0.0070816944 -0.0098887 -0.0017631635 0.022037303 0.017935364
0.041340515 0.009172788 0.010560358 0.01872356 0.06909799 0.06737964 0.08172263 0.00852805
0.0012610289 0.018981269 -0.0051577566 -0.010536359 -0.0031078516 0.044191934 0.03838049 0.048505057
0.00037237193 0.00034208197 0.00042943037 0.00013657626 8.480199e-05 9.7002136e-05 0.00031542865 0.00022172701
0.00022630235 0.00058630103 0.0003986913 0.00069141947 -0.00017520062 -0.00039243718 -7.9923055e-05 0.00023797153
8.4333e-05 0.00014638377 -8.3598024e-11 -9.862318e-11 -3.2756006e-11 -8.624715e-11 -7.487206e-11 -1.5535892e-11
-5.6002083e-13 2.298233e-11 5.0368654e-11 0.00027957003 0.00022849787 0.00015141422 0.00021268852 0.00014109469
3.5604502e-05 0.00029571677 0.0002247055 0.00013164585 9.117223e-05 7.683811e-05 6.2902385e-05 7.6469245e-05
6.52786e-05 4.063622e-05 7.7790464e-05 6.914665e-05 4.2742213e-05 0.0009277588 0.0010364361 0.0008102052
0.00086829154 0.0008671093 0.0006277224 0.0006870741 0.0006073651 0.00040512948 0.00022921083 0.00019306244
0.00016265747 0.00019310521 0.00016859143 0.0001085055 0.00018119042 0.00015786882 9.786708e-05 6.307508e-05
1.2180239e-05 -5.1159368e-05 -3.6812093e-05 -0.00012398731 -0.00018947464 8.908397e-05 0.00012355129 0.00012351562
0.00044399884 0.00037777048 0.00032088085 0.00037024563 0.00032118283 0.00020061474 0.00035404047 0.00028053593
0.000166942 -0.0020935682 -0.0027176812 -0.001807478 -0.0020243875 -0.002388558 -0.0011358003 -0.00013447946
0.00028119909 0.0009171266 -2.0895817e-14 -4.8430583e-14 -1.3947143e-14 -2.6755692e-14 -4.3312383e-14 -1.1260605e-14
3.6804696e-14 3.2024246e-14 6.282829e-14 -3.316692e-07 -3.8117787e-07 -2.618071e-07 -2.817245e-07 -2.6478563e-07
-1.5672727e-07 -5.4417555e-08 -3.3388223e-10 5.5583353e-08 -2.1166727e-05 -2.0136888e-05 -1.9609379e-05 -2.0157933e-05
00000000: b1ea d0bd 2c34 11be 850d 10be 6338 edbd
00000010: 746e 26be f6d6 1fbe 8929 b7bd 15d4 f6bd
00000020: d1d3 f6bd 2488 e0bd 79a2 38be fd57 44be
00000030: 2e5a f4bd b150 4fbe 1bd9 53be ad92 d9bd
00000040: 3356 28be cd3b 2dbe 082f 3f32 a60b ad31
00000050: 3b3a a731 dd8d 1732 5b8e c430 5d50 0e31
00000060: 890c f731 6b05 a430 bf38 1931 409b 2cbc
00000070: 6972 92bc ef4a 6cbc a876 bfbc 0ed1 f8bc
00000080: 7ebc d9bc 4093 25bc 58a5 73bc 1b74 36bc
00000090: dcae c839 7661 9aba 1756 05ba af01 c0ba
000000a0: 7c79 3ebb afa6 0ebb 4f3e d8ba bf63 2fbb
000000b0: 8ee0 e8ba 8277 33bc 933f b3bc 9a0a 9fbc
000000c0: 814f bbbc 6aef 09bd 17ae f1bc 57a9 acbc
000000d0: 3ed7 e3bc 406d b8bc 22a4 9aba fbed afbb
000000e0: 5590 8bbb d6cc afbb b309 17bc 9f65 00bc
000000f0: 99a6 acbb f226 04bc 4bdd cebb 2914 743c
00000100: 0335 6f3c 5a04 d73c 4548 383c a141 6a3c
00000110: 9e5a 963c 6ba2 2a3d 3e45 2b3d 8ff4 4c3d
00000120: 9b94 5bbc d8d0 c2bc d2c6 b7bc e454 c4bc
00000130: 7048 0dbd 33a1 fbbc 2bab a4bc cd88 dcbc
00000140: 06b9 bebc 4553 273e beb4 103e 2cc0 1c3e
00000150: 56bb 0b3e 7589 c53d 9403 e73d 8e33 a03d
00000160: da4d 1a3d 171f 7c3d ec16 a62d 6666 982d
00000170: 7b78 a02d 0a1f 9c2d 3dba 892d b0d8 902d
00000180: 3d41 9c2d 8bd5 8a2d 5676 902d ad23 acb4
00000190: d6db 36b7 2c78 8fb7 2cf0 e7b5 58f3 7bb7
000001a0: e6a5 a6b7 06a6 94b6 2852 87b7 b89c aab7
000001b0: 4912 313a 8ff0 c539 9dc7 2137 943c 123a
000001c0: e33c 2c39 51f6 1cb9 2fae 0f3a eefb 5439
000001d0: a759 0bb9 fdf9 9cbc 8e03 d3bc 66f9 8abc
000001e0: 6a1c 85bc 21e1 a7bc fa5b 46bc 8f0d e8bb
000001f0: 3704 22bc f319 e7ba 9387 b43c 2fed 923c
00000200: ac54 293d 7649 163c 5a05 2d3c 2762 993c
00000210: 3f83 8d3d 56fe 893d 325e a73d 3cb9 0b3c
00000220: 1c49 a53a 9b7e 9b3c 6602 a9bb b1a0 2cbc
00000230: 19ad 4bbb 9a02 353d dc34 1d3d 3dad 463d
00000240: ea3a c339 7759 b339 2b25 e139 e935 0f39
00000250: b9d7 b138 a06d cb38 1e60 a539 647f 6839
00000260: 934b 6d39 ffb1 193a 7107 d139 6040 353a
00000270: 0fb6 37b9 07c0 cdb9 5d9c a7b8 ff87 7939
00000280: efdb b038 987e 1939 81d5 b7ae eadf d8ae
00000290: fc0f 10ae d4a8 bdae 39a5 a4ae b8a7 88ad
000002a0: c1a1 1dab 9b27 ca2d 1086 5d2e 4193 9239
000002b0: ee98 6f39 f2c4 1e39 2405 5f39 d1f2 1339
000002c0: 0b56 1538 6f0a 9b39 ec9e 6b39 6a0a 0a39
000002d0: b833 bf38 2524 a138 76ea 8338 1d5e a038
000002e0: 2ee6 8838 cf70 2a38 7023 a338 d302 9138
000002f0: 1a46 3338 d734 733a 06d9 873a f363 543a
00000300: 0f9e 633a b84e 633a bd8d 243a c31c 343a
00000310: 9537 1f3a 8f67 d439 5058 7039 ce70 4a39
00000320: 088f 2a39 497c 4a39 ebc7 3039 728d e338
00000330: effd 3d39 9789 2539 fd3d cd38 2d47 8438
00000340: ba59 4c37 f493 56b8 af66 1ab8 9702 02b9
00000350: b6ad 46b9 98d2 ba38 8c8d 0139 f983 0139
00000360: 84c8 e839 7f0f c639 e63b a839 871d c239
00000370: 6e64 a839 1c5c 5239 829e b939 e514 9339
00000380: 270d 2f39 3f34 09bb 201b 32bb e6e8 ecba
00000390: 96ab 04bb 5a89 1cbb 22df 94ba 0e03 0db9
000003a0: e76d 9339 536b 703a 7936 bca8 a91c 5aa9
000003b0: d83f 7ba8 6dfe f0a8 c70f 43a9 60da 4aa8
000003c0: edc0 2529 7139 1029 0b7a 8d29 4510 b2b4
000003d0: b0a4 ccb4 7e8e 8cb4 ec3f 97b4 dc27 8eb4
000003e0: dd48 28b4 bcb8 69b3 bf8d b7af 8bba 6e33
000003f0: 338f b1b7 a3eb a8b7 d27e a4b7 d518 a9b7

conv2.bias f4 [16]
0.14141402 -0.0018145335 2.9717183e-08 0.15764725 -0.00019761597 0.29108363 -0.019402562 -0.05427536
-0.0068262103 -0.10099695 0.00038629238 0.120563924 -0.05487394 -0.03978955 0.08429181 0.22195582
00000000: d6ce 103e a4d5 edba c744 ff32 486e 213e
00000010: 2237 4fb9 ea08 953e 1ff2 9ebc d74f 5ebd
00000020: 67ae dfbb 7dd7 cebd 4987 ca39 38ea f63d
00000030: 7fc3 60bd 5efa 22bd 2fa1 ac3d 6348 633e

conv3.weight f4 [14, 16, 3, 3]
0.0009930391 0.00051437836 0.00091768167 0.0006565653 0.0004903106 0.0005452782 0.0009951671 0.000710823
0.00077000656 -8.1538055e-05 -8.195549e-05 -6.8861584e-05 -0.000102167316 -0.000106289815 -0.00010081448 -9.296554e-05
-9.905768e-05 -9.247825e-05 2.0390146e-08 2.8892282e-08 2.7571174e-08 1.4888619e-08 2.4430586e-09 1.8916896e-08
-1.2225861e-08 1.0394016e-09 -8.48253e-09 -0.0005977326 -0.00073441735 -0.0005110767 -0.0006031895 -0.0006703805
-0.0005515742 -0.00020889282 -0.000287731 -0.0002398979 -0.00020384474 0.00025848902 0.00011171065 0.00011684842
-0.00025059655 9.9852405e-06 0.00012717504 8.685396e-05 -8.808707e-05 0.00020691006 0.00061850215 0.00028582444
0.000603652 0.0007860638 0.00068513484 0.00054259214 0.0006277371 0.00058865245 0.00040695397 0.0005217826
0.00050497043 0.0007419778 0.000636142 0.00071341894 0.0007852838 0.0007784768 0.0007894428 -0.0009184888
-0.0007312046 -0.00071326294 -0.00087705615 -0.0008558679 -0.0004856493 -0.0006937007 -0.0006971084 -0.0005499939
-0.0006078823 -0.0005106582 -0.00063187635 -0.00049319625 -5.164095e-05 -0.00046783575 -0.00047777194 -0.00016815764
-0.00053454225 0.00033511512 -5.5596624e-06 9.127357e-05 0.00013534908 0.00011241368 3.8117614e-06 0.00026080883
0.0002010383 0.0002015174 5.670953e-06 -0.0001868271 -9.9807155e-05 -0.00015617807 -9.903665e-05 -0.00022187052
9.4764095e-05 -0.00015180142 5.628531e-05 7.9721946e-07 -9.551017e-05 0.000116960204 -0.00014621881 -0.00027841397
-0.0001121496 0.00035083538 0.00025839102 0.0004042791 0.0008897658 0.00040570623 0.00068469654 0.00040289137
0.00011476877 0.0003233257 0.00058384065 0.00033939406 0.0005299028 0.0005615057 0.0007921745 0.0005811753
0.00043461352 0.00061402615 0.0003307976 2.9384351e-05 0.00025246388 -6.987596e-05 -0.00038948443 -0.0005982874
-0.000297998 -0.0003992567 -0.0005426994 -0.0003531943 0.00021851137 4.7494973e-06 0.000258995 0.0008258456
0.0008491502 0.0009416869 0.00073017494 0.00047434997 0.00086565124 0.0005541575 0.00042871234 0.0006518823
-0.074710995 -0.06646648 -0.02375462 -0.10519409 -0.11543374 -0.0668463 -0.08330148 -0.10471448
-0.09186084 -0.0010193253 -0.00222025 0.00014011047 -0.0009995808 -0.0010330708 -0.0006288986 0.0014577844
7.703365e-06 -0.0007110855 1.24356e-07 6.8663555e-09 1.17836e-07 6.414465e-08 1.1296316e-08 5.6316e-08
1.7705258e-08 4.142706e-09 -3.7714035e-08 0.20184693 0.0731702 -0.078056015 0.1921761 0.109947175
0.008099961 0.14126071 0.12360612 0.01815436 0.0016879572 0.0010406774 0.0010179548 0.0018982133
0.0014736836 0.0007891241 0.0019653968 0.0019551376 0.0009706051 0.00010251271 0.0040395153 -0.022779068
0.009082513 0.025708754 -0.0030568044 -0.000537347 0.008504866 -0.033012897 -0.011522461 -0.01735836
0.012919929 -0.0051941373 -0.0059490646 -0.01153121 0.018377498 0.007109662 -0.003516019 0.03215562
-0.011936521 0.050359283 0.031507276 -0.00964801 -0.019318594 0.038305808 0.008674619 -0.04400343
-0.0076288967 -0.019438433 0.0077194697 -0.0049188402 -0.0069408445 -0.0057032537 0.01162424 -0.00061185076
-0.0029330188 -0.02631162 -0.011018193 0.025901746 -0.014116935 -0.017788181 -0.00071484875 0.026774695
0.013943805 -0.0045596687 6.8431036e-05 -0.00024755785 -0.00019064307 3.4120334e-05 -7.75751e-05 -0.00020699509
0.00019294604 5.333356e-05 -0.00023618952 0.15215667 0.048270542 -0.06317182 0.1402477 0.07637529
-0.00018333721 0.10085482 0.09140194 0.007765462 -0.015580269 -0.016099168 0.0436452 0.0023828642
00000000: dd28 823a 59d7 063a 9390 703a 5a1d 2c3a
00000010: 3088 003a 00f1 0e3a 4470 823a 8656 3a3a
00000020: 44da 493a 69ff aab8 85df abb8 c869 90b8
00000030: a942 d6b8 e9e7 deb8 5d6c d3b8 7ff6 c2b8
00000040: 30bd cfb8 e2f0 c1b8 6826 af32 cd2e f832
00000050: a7d5 ec32 d7c8 7f32 bee2 2731 b27e a232
00000060: e809 52b2 b1da 8e30 90ba 11b2 28b1 1cba
00000070: ea85 40ba c7f9 05ba 5d1f 1eba 79bc 2fba
00000080: 8597 10ba 3d0a 5bb9 9ada 96b9 1a8d 7bb9
00000090: 28bf 55b9 cf85 8739 3346 ea38 850c f538
000000a0: 8062 83b9 4886 2737 4a5a 0539 5d25 b638
000000b0: 63bb b8b8 fff5 5839 fa22 223a b5da 9539
000000c0: 663e 1e3a d90f 4e3a 9f9a 333a be3c 0e3a
000000d0: b98e 243a cc4f 1a3a 705c d539 3dc8 083a
000000e0: fe5f 043a 4a81 423a c4c2 263a bc04 3b3a
000000f0: 81db 4d3a b212 4c3a 9cf2 4e3a bdc6 70ba
00000100: 4fae 3fba 44fa 3aba 3eea 65ba 535c 60ba
00000110: bf9e feb9 77d9 35ba 27be 36ba 772d 10ba
00000120: 4a5a 1fba b1dd 05ba 81a4 25ba d749 01ba
00000130: 0c99 58b8 da47 f5b9 777d fab9 7953 30b9
00000140: 8620 0cba 64b2 af39 238d bab6 206a bf38
00000150: 7eec 0d39 a3bf eb38 90cd 7f36 2bbd 8839
00000160: cfcd 5239 6a4e 5339 1e49 be36 05e7 43b9
00000170: 8f4f d1b8 bbc3 23b9 e6b1 cfb8 eaa5 68b9
00000180: 16bc c638 e22c 1fb9 e413 6c38 8100 5635
00000190: a24c c8b8 8848 f538 5052 19b9 17f8 91b9
000001a0: dc31 ebb8 54f0 b739 a878 8739 6cf5 d339
000001b0: 2c3f 693a f8b4 d439 357d 333a 2a3b d339
000001c0: 04b0 f038 0a84 a939 e20c 193a b3f0 b139
000001d0: 2de9 0a3a 0232 133a eea9 4f3a 045a 183a
000001e0: d7dc e339 99f6 203a e76e ad39 6a7e f637
000001f0: 215d 8439 5f8a 92b8 b733 ccb9 63d6 1cba
00000200: 9d3c 9cb9 5453 d1b9 f143 0eba f02c b9b9
00000210: 3320 6539 df5d 9f36 b8c9 8739 8f7d 583a
00000220: 8199 5e3a 8adb 763a 3669 3f3a 2db2 f839
00000230: dfec 623a e144 113a ccc4 e039 15e3 2a3a
00000240: 1402 99bd 941f 88bd 0d99 c2bc 0070 d7bd
00000250: 8668 ecbd b7e6 88bd f799 aabd 8c74 d6bd
00000260: 8921 bcbd e29a 85ba 9d81 11bb 9eea 1239
00000270: 5e04 83ba 1b68 87ba acdc 24ba 2113 bf3a
00000280: b33d 0137 2468 3aba b886 0534 1aed eb31
00000290: 070d fd33 e5bf 8933 b911 4232 19e0 7133
000002a0: 4616 9832 a157 8e31 05fb 21b3 f6b0 4e3e
000002b0: 42da 953d d5db 9fbd d0c9 443e fc2b e13d
000002c0: b3b5 043c a6a6 103e 3525 fd3d 74b8 943c
000002d0: 723e dd3a 5767 883a e56c 853a 78cd f83a
000002e0: 9e28 c13a 39dd 4e3a e3cd 003b c421 003b
000002f0: 3570 7e3a 18fc d638 e95d 843b 2b9b babc
00000300: d2ce 143c 2a9b d23c ab54 48bb bfdc 0cba
00000310: fe57 0b3c 8838 07bd b4c8 3cbc 1f33 8ebc
00000320: 1cae 533c 9533 aabb 5ff0 c2bb 66ed 3cbc
00000330: 688c 963c 2bf8 e83b 036d 66bb 9db5 033d
00000340: 6691 43bc 8945 4e3d c60d 013d b012 1ebc
00000350: 0742 9ebc 8de6 1c3d fd1f 0e3c f13c 34bd
00000360: d3fb f9bb 593d 9fbc 9bf3 fc3b 392e a1bb
00000370: 0670 e3bb 5ce2 babb 9973 3e3c 9c64 20ba
00000380: e437 40bb 778b d7bc a785 34bc e62f d43c
00000390: b84a 67bc 85b8 91bc b064 3bba 9b56 db3c
000003a0: 8f74 643c 4669 95bb a282 8f38 a7ca 81b9
000003b0: 5ce7 47b9 6e1c 0f38 d1af a2b8 d20c 59b9
000003c0: 8f51 4a39 79b2 5f38 a4a9 77b9 f5ce 1b3e
000003d0: 55b7 453d 3a60 81bd 189d 0f3e a66a 9c3d
000003e0: 353e 40b9 f98c ce3d f130 bb3d 6b75 fe3b
000003f0: 6244 7fbc 67e2 83bc 4fc5 323d d429 1c3b

conv3.bias f4 [14]
-1.0860662e-05 0.02144828 -0.0012204084 0.10096458 3.1252976e-09 0.058478013 -0.031962737 0.021606507
-0.012116481 -0.032289755 -4.391745e-10 -3.1668162e-07 0.03182214 0.00093393173
00000000: 3036 36b7 4eb4 af3c 1cf6 9fba 85c6 ce3d
00000010: d1c4 5631 a486 6f3d 5ceb 02bd 2100 b13c
00000020: 3484 46bc 4342 04bd 5170 f1af 6404 aab4
00000030: ef57 023d 19d3 743a

fc1.weight f4 [28, 224]
-6.8851186e-06 0.00019533414 0.0001838625 0.00011122074 0.00023450055 -0.00016503887 -0.00019572092 0.00016696454
0.000149757 -0.00022209177 -0.00019984129 0.0002013274 -0.00014517835 0.00020350853 0.00018519076 -9.310202e-05
0.006037799 0.0043076864 0.0038932774 0.008017731 0.005917864 0.006126155 0.016336689 0.0034248687
0.012926728 0.012859516 0.016286569 0.011349735 0.008527599 0.007309223 0.0070462152 0.012195158
1.8673598e-05 1.8754035e-05 1.8399347e-05 1.8197581e-05 1.6376496e-05 9.306283e-06 7.484834e-06 1.513123e-05
1.4814715e-05 1.2331586e-05 1.2284732e-05 1.5819547e-05 4.4063203e-05 3.4765606e-05 2.2125116e-05 3.9064886e-05
0.012918211 0.009761796 0.004733785 0.019292887 0.01543694 0.0024419476 0.0020095485 0.021672642
0.014562249 0.0017059812 0.0040475912 0.016987352 0.020450605 0.01579451 0.015215665 0.022999907
4.059277e-09 3.993874e-09 5.0988738e-09 5.770301e-09 4.755035e-09 4.352039e-09 5.4949187e-09 6.227883e-09
6.2979226e-09 6.198974e-09 7.141626e-09 6.2523946e-09 6.4465198e-09 7.3538584e-09 6.7071535e-09 6.0425407e-09
0.011742883 0.0030456397 0.0035026532 0.012036074 0.013457186 -0.00047774173 -0.004890441 0.012887878
0.00813487 -0.00043823215 -0.0012961228 0.013411026 0.016630702 -0.0037923777 -0.0070099174 0.017627541
0.016701186 0.015908504 0.018660383 0.008199986 0.011501139 0.0025084103 0.008097873 0.009375833
0.016845869 0.010558484 0.0035615715 0.019395262 0.016140234 0.016128568 0.015086735 0.019541714
0.0076062228 0.004343144 0.0034182405 0.014257636 0.0027674658 -0.0017793297 0.011203661 0.0064167143
0.0066286437 0.004460861 0.0043564183 0.0045607844 0.019232288 0.013057705 0.010943692 0.01805562
-0.0027417336 -0.0035225637 -0.0044648717 -0.00012037077 -0.0060793203 -0.009153721 -0.011459746 -0.0052762604
-0.006443347 -0.008216006 -0.008250639 -0.004150441 -0.0025604956 -0.0021791093 -0.002432181 0.00061083084
-0.0027147382 -0.0026519436 -0.00084738724 0.007916703 -0.0028207195 -0.0043505197 -0.0064491215 -0.0015971437
-0.00021485136 -0.0065387925 -0.0032024765 -0.00020395673 0.00044208288 -0.0009029138 0.001943315 0.0025746003
-3.5006192e-11 -6.265829e-11 -6.402005e-11 -3.7843076e-11 -6.758022e-11 -1.0358042e-10 -1.05192084e-10 -7.19261e-11
-6.168545e-11 -9.2052754e-11 -9.088699e-11 -6.2523334e-11 -3.8580937e-11 -5.971577e-11 -5.7831216e-11 -3.813537e-11
-1.530732e-08 1.147096e-09 3.479178e-09 -8.581604e-09 -5.1077795e-09 -2.0767237e-09 -1.2914877e-09 -1.8168768e-10
-2.5541976e-08 1.060688e-09 5.965077e-09 -1.6760135e-08 2.4347889e-08 2.798069e-08 3.6421557e-08 3.2939006e-08
0.0050124773 0.00608873 0.0012071681 0.0112035945 0.0044802437 0.008940187 0.00044643652 0.011054141
0.009851787 0.010666171 0.0017683704 0.0144793345 0.02090603 0.018141903 0.017860001 0.024247678
-9.1862144e-05 -1.7981842e-05 -7.366281e-05 -0.00012235853 4.2203187e-06 0.0002656352 0.00029728853 6.677054e-05
-0.00029976774 -0.00045776213 -0.00021645811 -5.945733e-05 -0.00035827552 -0.0010064172 -0.00074275484 -0.00012065208
5.0384413e-05 -0.0005204517 -0.0005735231 -5.8628808e-05 -0.0006322149 -0.00016545989 -0.00011631838 -0.0007208747
-0.00060432457 -0.00017558192 -0.00023877811 -0.0007428163 -8.6729815e-05 -0.0006928744 -0.00068931736 -0.00021995079
-0.03108115 0.037827495 0.0739525 -0.036372956 -0.05441287 0.061395835 -0.049801115 0.032527395
-0.10351623 0.050738756 -0.04725966 -0.07048203 0.0048420695 0.110818096 0.030583054 -0.037895147
00000000: b806 e7b6 9cd2 4c39 37cb 4039 2e3f e938
00000010: 43e4 7539 490e 2db9 6f3a 4db9 3413 2f39
00000020: 1708 1d39 4ee1 68b9 7d8c 51b9 6a1b 5339
00000030: 043b 18b9 e864 5539 c42f 4239 c43f c3b8
00000040: bbd8 c53b 7e27 8d3b 5b26 7f3b cd5c 033c
00000050: a4ea c13b eabd c83b 85d4 853c c373 603b
00000060: a1ca 533c b8b0 523c 696b 853c 3df4 393c
00000070: 58b7 0b3c 3582 ef3b f0e3 e63b 33ce 473c
00000080: 3fa5 9c37 fc51 9d37 4c58 9a37 02a7 9837
00000090: 4260 8937 2e22 1c37 3c26 fb36 23dc 7d37
000000a0: b78c 7837 c2e3 4e37 861a 4e37 38b4 8437
000000b0: 81d0 3838 49d1 1138 5399 b937 9ad9 2338
000000c0: e7a6 533c f1ef 1f3c de1d 9b3b 1e0c 9e3c
000000d0: 38eb 7c3c 1509 203b a1b2 033b d38a b13c
000000e0: 8096 6e3c 3b9b df3a a8a1 843b 0f29 8b3c
000000f0: 0788 a73c 7d63 813c 204b 793c 4d6a bc3c
00000100: c779 8b31 7d3a 8931 2b32 af31 1b44 c631
00000110: bb61 a331 f188 9531 d1cd bc31 0afd d531
00000120: 1d65 d831 c0fe d431 6862 f531 a5d4 d631
00000130: 3080 dd31 39ad fc31 bf74 e631 c09e cf31
00000140: 3965 403c 5b99 473b c58c 653b f432 453c
00000150: 877b 5c3c 6979 fab9 fe3f a0bb ae27 533c
00000160: 1e48 053c 86c2 e5b9 aae2 a9ba ecb9 5b3c
00000170: 1c3d 883c 8a89 78bb 73b3 e5bb a267 903c
00000180: edd0 883c 8d52 823c a9dd 983c 3c59 063c
00000190: 466f 3c3c 2464 243b f1ac 043c 189d 193c
000001a0: 5900 8a3c 7efd 2c3c 4169 693b d0e2 9e3c
000001b0: 8638 843c 0f20 843c 5a2e 773c f215 a03c
000001c0: 9f3d f93b ef50 8e3b 8f04 603b dc98 693c
000001d0: 5f5e 353b 6638 e9ba 8f8f 373c 4d43 d23b
000001e0: 1835 d93b 6a2c 923b 49c0 8e3b a272 953b
000001f0: 088d 9d3c fcef 553c 2c4d 333c 61e9 933c
00000200: a8ae 33bb d0da 66bb 0f4e 92bb 916f fcb8
00000210: 0935 c7bb 7df9 15bc a9c1 3bbc 7be4 acbb
00000220: b622 d3bb 6d9c 06bc b02d 07bc 6c00 88bb
00000230: fdcd 27bb 63cf 0ebb 3a65 1fbb 2a20 203a
00000240: c0e9 31bb 3bcc 2dbb 3223 5eba 0fb5 013c
00000250: d2db 38bb ce8e 8ebb 2753 d3bb 4057 d1ba
00000260: b949 61b9 5e43 d6bb a4e0 51bb 38dd 55b9
00000270: 5cc7 e739 85b1 6cba d5b6 fe3a a0ba 283b
00000280: 78f5 19ae 7bc9 89ae 16c8 8cae 846f 26ae
00000290: 489c 94ae 98c6 e3ae e151 e7ae cb2a 9eae
000002a0: d2a5 87ae 186d caae d4dc c7ae 827d 89ae
000002b0: 46ae 29ae fd50 83ae 2958 7eae 9cb8 27ae
000002c0: 277d 83b2 daa7 9d30 5916 6f31 4b6e 13b2
000002d0: 8180 afb1 1cb6 0eb1 2f80 b1b0 89c4 47af
000002e0: 6667 dbb2 a4c7 9130 5ff5 cc31 edf7 8fb2
000002f0: 9325 d132 305a f032 ed6d 1c33 d278 0d33
00000300: b53f a43b f883 c73b d739 9e3a 488f 373c
00000310: 02cf 923b dd79 123c b20f ea39 6e1c 353c
00000320: 6469 213c 2ac1 2e3c aac8 e73a bb3a 6d3c
00000330: 1f43 ab3c 549e 943c 234f 923c 11a3 c63c
00000340: 1da6 c0b8 b6d7 96b7 6c7b 9ab8 5e4d 00b9
00000350: 439c 8d36 f444 8b39 64dd 9b39 2907 8c38
00000360: 252a 9db9 cbff efb9 08f9 62b9 d261 79b8
00000370: edd6 bbb9 c2e9 83ba 6fb5 42ba 9806 fdb8
00000380: da53 5338 ec6e 08ba 7c58 16ba 34e8 75b8
00000390: 39bb 25ba 4d7f 2db9 f4ef f3b8 15f9 3cba
000003a0: 896b 1eba 6a1c 38b9 8360 7ab9 8fb9 42ba
000003b0: b7e2 b5b8 04a2 35ba 4eb3 34ba 97a2 66b9
000003c0: e59d febc 01f1 1a3d 6974 973d cffb 14bd
000003d0: 08e0 5ebd 337a 7b3d 41fc 4bbd 723b 053d
000003e0: 5100 d4bd 71d3 4f3d 5893 41bd e258 90bd
000003f0: 39aa 9e3b 99f4 e23d 5089 fa3c f137 1bbd

fc1.bias f4 [28]
0.010576862 0.015599582 -0.054844532 -0.0012407452 0.00999664 0.05202936 -0.001193264 0.011475355
0.012030012 6.4292035e-05 -0.011424894 0.007088734 0.017137464 -0.03906227 -0.001402972 0.014354127
0.025208961 0.04979611 -0.0007973858 -0.0007008949 0.011298292 0.010300704 0.0063701454 0.0057573835
0.00030837444 0.034011908 -0.04207611 0.014394701
00000000: 934a 2d3c 6495 7f3c a9a4 60bd 80a0 a2ba
00000010: f2c8 233c bd1c 553d 4c67 9cba 2103 3c3c
00000020: 8719 453c 86d4 8638 7b2f 3bbc 9c48 e83b
00000030: de63 8c3c c2ff 1fbd eee3 b7ba 932d 6b3c
00000040: 0683 ce3c 01f7 4b3d a807 51ba 43bc 37ba
00000050: 791c 393c 49c4 283c a7bc d03b 6fa8 bc3b
00000060: 51ad a139 1250 0b3d 0058 2cbd c1d7 6b3c

fc2.weight f4 [3, 28]
0.10471266 -0.45197508 0.066807695 0.019203514 -0.2522659 -0.3446865 0.018114857 0.112029664
0.13271514 0.0005158199 0.3365084 0.068561986 -0.21459468 0.02732282 0.021803016 0.17677855
0.4054695 0.52770424 0.0044429433 0.0021424086 0.11608454 -0.34322795 0.45087013 0.06578519
0.0036896153 0.44505727 0.13245946 0.15651454 0.07588191 0.36761713 0.4919443 0.015869336
0.21093905 0.27450332 0.013937131 0.08509398 0.058284044 0.00036434588 -0.3459984 0.050525535
0.19825922 -0.15762128 0.019094467 0.05586968 -0.06410344 -0.23509024 -0.0007209628 0.0019453542
0.07227874 0.3895367 -0.38107592 0.045438703 0.003481262 -0.032108936 0.27494633 0.07858852
0.037687514 0.3679114 -0.452784 0.0132085895 0.20801653 0.2957731 0.0104948925 0.047794446
-6.1201813e-06 0.0004621821 0.08160914 0.020697331 0.1476377 0.40938213 0.016941091 -0.0017951826
-0.19266807 -0.21842222 0.0081291795 0.0022892118 0.02655185 0.086807996 0.191804 0.027760405
0.0032940996 -0.29120138 -0.3967179 0.022337988
00000000: 9773 d63d 4769 e7be 79d2 883d b050 9d3c
00000010: ff28 81be c07a b0be 9c65 943c cf6f e53d
00000020: 7ae6 073e 1638 073a d44a ac3e 3a6a 8c3d
00000030: b5be 5bbe 1bd4 df3c 3d9c b23c 7005 353e
00000040: b399 cf3e a017 073f 1c96 913b a767 0c3b
00000050: bbbd ed3d 93bb afbe 73d8 e63e 63ba 863d
00000060: 79cd 713b 8cde e33e 74a3 073e 5945 203e
00000070: fa67 9b3d 5038 bc3e 20e0 fb3e 6900 823c
00000080: 6800 583e b38b 8c3e 9058 643c c145 ae3d
00000090: 40bb 6e3d ad05 bf39 b426 b1be ddf3 4e3d
000000a0: 7704 4b3e 7967 21be 006c 9c3c 9bd7 643d
000000b0: aa48 83bd 7fbb 70be fffe 3cba 41fb fe3a
000000c0: e006 943d 5b71 c73e 621c c3be ef1d 3a3d
000000d0: e225 643b a984 03bd c4c5 8c3e 05f3 a03d
000000e0: 395e 1a3d e25e bc3e 4ed3 e7be d768 583c
000000f0: 4902 553e 926f 973e c5f2 2b3c 1cc4 433d
00000100: f55b cdb6 0851 f239 b122 a73d 738d a93c
00000110: 562e 173e 899a d13e 0bc8 8a3c 554c ebba
00000120: c74a 45be 13aa 5fbe 4030 053c 9a06 163b
00000130: 4483 d93c 64c8 b13d 4568 443e ca69 e33c
00000140: d2e1 573b 5918 95be 9c1e cbbe 28fe b63c

fc2.bias f4 [3]
0.14282057 0.120707735 -0.052803546
00000000: 8e3f 123e 9e35 f73d 8848 58bd
