ball_detection/candidate_classifier/weights.pt (torch_old, 70095 bytes, 10 tensors)

conv1.weight f4 [20, 3, 3, 3]
000000 1f 69 67 be 51 8d 69 be b4 87 88 be 18 5f 80 be
       -0.22598694 -0.22807814 -0.26666033 -0.2507255
000010 04 7c 93 be 79 db 83 be ec d6 51 be 06 45 6f be
       -0.28805554 -0.25753382 -0.20492142 -0.23366174
000020 38 2b 6d be ca ca 9b 3c 63 11 09 bd 8c 0c 41 3d
       -0.23161018 0.019017596 -0.033463847 0.047131106
000030 63 1f 10 3d 68 30 81 3c 75 c7 57 3b 02 7f 87 3d
       0.035186183 0.015770152 0.0032925282 0.06616022
000040 77 af 04 bc 6e 59 c2 bc c8 23 5c 3e b0 87 77 3e
       -0.008098475 -0.023724284 0.21498024 0.24172854
000050 b0 c8 5c 3e ff cb 72 3e 63 e9 79 3e 7d 53 5f 3e
       0.21560931 0.23710631 0.24405436 0.21809192
000060 37 83 1a 3e 6a 6c 5f 3e b4 be 96 3e 13 b1 00 3d
       0.15089117 0.218187 0.2944237 0.03141887
000070 db 82 23 3d 1f 75 48 3d 83 52 b3 3c 32 57 3a 3d
       0.039919715 0.04893982 0.02188993 0.045493312
000080 a6 70 2b 3d c8 e1 a6 bc c0 1c 00 bc 26 a3 67 3a
       0.041855477 -0.020371333 -0.0078193545 0.00088362617
000090 a4 63 4c 3d d7 d4 96 3d 42 91 80 3d d4 96 b0 3c
       0.049899712 0.07364815 0.06277706 0.021556295
0000a0 35 1a 40 3d 93 1e 3c 3d 23 25 3d bb cc 1c a6 3c
       0.046899993 0.045927595 -0.0028861247 0.020277403
0000b0 f5 de 95 3c 37 1d 13 3e eb 31 23 3e b6 55 0c 3e
       0.01829479 0.14366613 0.15937011 0.13704571
0000c0 df 2d 03 3e 0e 86 14 3e 88 6d 0f 3e ab 56 b3 3d
       0.12810467 0.14504263 0.14006627 0.08756765
0000d0 38 d3 dc 3d 27 74 da 3d ca 22 03 be 76 49 94 3d
       0.10782474 0.106666856 -0.1280624 0.07240574
0000e0 9c b0 78 3e cf 58 27 be c0 74 e5 3c 44 21 3b 3e
       0.24286121 -0.16342472 0.028009772 0.18274409
0000f0 b5 9c 30 be 8d 0e 07 be 98 4e 1c 3c 9a fd 6e be
       -0.17247279 -0.13189144 0.009540223 -0.23338929
000100 99 cf 71 3d cb 74 50 3e e2 26 75 be cc 6c be bc
       0.05903587 0.20357053 -0.23940614 -0.023245238
000110 43 96 98 3d f2 88 89 be 80 ef 58 be f3 15 b2 3c
       0.07450535 -0.26862293 -0.21185112 0.021738982
000120 74 ca 94 3c 38 4c 7f 3e 39 ff a5 3e 05 ef 81 bd
       0.018162943 0.24931419 0.32421282 -0.063444175
000130 2e 1c 3d 3e 93 19 82 3e 11 89 d2 bd 28 c4 8f bb
       0.18467781 0.25410137 -0.102800496 -0.0043873973
000140 22 dd 12 3e d5 30 c7 bd 11 cb 9e bd 9b 76 78 bd
       0.14342168 -0.09726111 -0.077535756 -0.060659986
000150 13 40 f5 bd f5 93 c2 bd 8f 8b a9 bd 5b b4 69 bd
       -0.11975112 -0.09500877 -0.08278572 -0.057056766
000160 fb ab a2 bd 64 3b 2c bd cf 52 c9 bd 52 7c fb bc
       -0.07942959 -0.042048827 -0.098302476 -0.030698929
000170 90 29 65 bd 9b a3 f6 bd 44 e7 e6 bd bf c7 8e bd
       -0.05594784 -0.12042924 -0.11274579 -0.06971692
000180 b5 55 36 bd 99 55 7d bd 1d 56 51 bd 94 db e8 3d
       -0.04451533 -0.06184921 -0.051107515 0.11370006
000190 e2 fd 23 3e dc 53 e9 3d 21 86 dd 3d 98 22 d2 3d
       0.16014817 0.11392948 0.10816599 0.102605045
0001a0 2c 73 0c 3e e0 7a 29 3e 96 ef 4e 3e de b7 4a 3e
       0.1371581 0.1655078 0.20208582 0.19796702
0001b0 99 b1 18 3e 09 84 11 3e bf d2 10 3e f1 e0 03 3e
       0.14911498 0.14210524 0.14142893 0.12878777
0001c0 04 80 14 3e 87 da 10 3e 87 ec 13 3e 18 f4 1c 3e
       0.14501959 0.14145862 0.14445697 0.1532749
0001d0 72 a6 11 3e 8f 8f a0 bd 7d 30 d0 bd b9 8c dd bd
       0.1422365 -0.07839882 -0.101654984 -0.10817856
0001e0 87 f6 02 be fa 2a fb bd 6b ae 0c be 41 97 02 be
       -0.12789355 -0.122640565 -0.1373841 -0.12753011
0001f0 55 55 00 be 4b 28 e4 bd 1f ee 13 3d 77 3c c2 3c
       -0.12532552 -0.11140498 0.03611576 0.023710473
000200 7e a8 3a 3c b7 3b 2d bc 48 bd 40 bc f2 ff c9 bb
       0.011392711 -0.010573319 -0.011763878 -0.0061645443
000210 e1 80 8c bc f6 e0 aa bc 25 2a 56 bb e1 60 1f bc
       -0.017151298 -0.020859223 -0.0032678929 -0.009727688
000220 68 1f 4c bc 73 76 de bb a1 08 b8 bc ee 30 d2 bc
       -0.01245866 -0.0067890226 -0.022465052 -0.025658097
000230 e6 be 93 bc c2 8b 5b bc 3b 4b 7f bc 6b 9e 16 bc
       -0.018035363 -0.01340002 -0.015581901 -0.009193043
000240 c9 81 55 3c 0c cc 41 3c 8a 75 8b 3c 96 6f 64 3b
       0.0130314315 0.011828434 0.01702382 0.003485655
000250 b8 32 b1 3a 9a fd 09 3c c9 6f 19 3c a2 48 04 3c
       0.0013519144 0.00842228 0.009365031 0.008073958
000260 97 75 64 3c 0b 9c 88 bc d7 8e 94 bc 8b 53 82 bc
       0.013944051 -0.01667597 -0.018134518 -0.015908977
000270 97 bb c9 bc 8c b8 dd bc fa ca bd bc 5d af 95 bc
       -0.024625583 -0.027065538 -0.023168076 -0.018272096
000280 c4 71 ab bc b9 38 93 bc 1e 3b b2 bd 30 64 06 be
       -0.020928271 -0.017971383 -0.08702682 -0.13124156
000290 a3 69 bc bd fd 2d 11 bd de 0b 49 bd 2e 31 f3 bc
       -0.09199836 -0.03544425 -0.049083583 -0.029686537
0002a0 ff 4c b3 3d 2f f7 b2 3d df 6d da 3d 81 1e b5 bd
       0.0875492 0.08738553 0.106654875 -0.08843709
0002b0 30 53 01 be b4 23 b9 bd f0 9a 0f bd b9 79 65 bd
       -0.1262939 -0.09040013 -0.03505987 -0.056024287
0002c0 5e 72 a7 bc c2 d4 95 3d 67 90 ac 3d 18 03 cd 3d
       -0.020440277 0.07315971 0.0842598 0.10010356
0002d0 12 71 91 bd 69 a7 dc bd 7f 29 ae bd 00 cb 72 bc
       -0.071016446 -0.107741185 -0.085040085 -0.014818907
0002e0 8f 09 26 bd 5f 36 90 bc 85 f4 b4 3d 94 fe a0 3d
       -0.04053646 -0.017604051 0.08835701 0.07861057
0002f0 88 5b cf 3d 44 83 7e 3d ab 3a 8a 3d d8 73 04 3c
       0.1012488 0.062136903 0.06749471 0.00808426
000300 e4 35 31 3d 1e 00 42 3d f2 f1 d9 3b 71 22 4d bd
       0.043264285 0.047363393 0.0066511566 -0.050081674
000310 01 f8 16 bd 11 a0 00 bd 70 36 27 3e 67 8f 28 3e
       -0.03685761 -0.03140265 0.1632936 0.16460954
000320 97 c0 83 3d 90 d6 03 3e c6 a9 1a 3e 43 c3 8e 3d
       0.06433218 0.12874818 0.15103826 0.06970837
000330 c2 a3 45 3d 19 7c 63 3d 0d 03 42 3d 16 0d b4 3e
       0.048251875 0.05553827 0.04736619 0.35166234
000340 3f e1 ac 3e 33 d8 77 3e f3 70 a1 3e a3 e9 a9 3e
       0.337656 0.24203567 0.31531486 0.33186063
000350 1c b9 82 3e e2 43 6e 3e 75 a0 63 3e da 29 52 3e
       0.25531852 0.23268083 0.22229178 0.20523778
000360 7b 12 1b bc fd 36 5e bc 5e bd 31 bc a0 8b 24 ba
       -0.009464855 -0.013562915 -0.010848371 -0.0006276909
000370 c4 c1 06 bb 71 86 bc b9 b1 be 3e 3c 94 8b 4e 3c
       -0.002056227 -0.0003595832 0.011642144 0.01260652
000380 a2 fb 42 3c b5 45 87 bc 84 a7 a2 bc 1a 1e 89 bc
       0.011900814 -0.016512731 -0.019855268 -0.016737986
000390 4a fa dc bb 2e 60 f1 bb 11 a6 aa bb 49 17 b6 3b
       -0.006743704 -0.007366202 -0.005207785 0.005556975
0003a0 fa 17 ef 3b 48 31 e9 3b a6 56 25 bc 8f 7b 53 bc
       0.0072965594 0.0071164705 -0.010091459 -0.012907877
0003b0 85 38 3a bc e8 cc 98 3a 3f 96 ad 3a 94 54 d6 3a
       -0.011366014 0.0011657747 0.0013243629 0.001635211
0003c0 7f 62 64 3c c6 6b 89 3c 77 06 6d 3c 92 d2 d0 ba
       0.013939499 0.016775023 0.014466873 -0.0015931895
0003d0 4d ae b8 ba 04 39 a3 ba 4f 4e e6 ba b8 eb cd ba
       -0.0014090032 -0.0012452905 -0.0017570945 -0.0015710508
0003e0 e3 60 b4 ba bb bf ec ba 8c 17 d0 ba 5c ab bb ba
       -0.0013761785 -0.0018062511 -0.0015876158 -0.0014318037
0003f0 46 c7 8a ba b0 c7 7b ba 33 fc 61 ba 92 59 9f ba
       -0.0010587953 -0.0009604646 -0.00086206495 -0.0012157431

conv1.bias f4 [20]
000000 8f 5a d6 bc 6d 3d 60 be 13 e9 2c 3e e4 db 60 3e
       -0.026166229 -0.21898432 0.16885786 0.21958882
000010 a3 fe 9e bd 38 cf 17 3e b1 17 9f 3e 10 b4 8c be
       -0.07763412 0.14825141 0.31072763 -0.27481127
000020 3e 9d 87 3c 3d 2f 0e bb cb a4 c2 3d b9 4b 28 bb
       0.016554471 -0.0021695637 0.09504088 -0.00256799
000030 e7 7f a6 3e 25 92 15 3e 36 91 2f 3e ee be 2e 3e
       0.32519457 0.14606531 0.17145237 0.17065021
000040 cd 43 13 3e 09 f1 17 bb a5 74 45 be f2 ea 5a 3e
       0.14381333 -0.002318444 -0.19282778 0.21378687

conv2.weight f4 [20, 20, 3, 3]
000000 35 2f 36 bd 40 8c 32 bd 02 df 0c bd 19 01 64 bd
       -0.044478614 -0.043590784 -0.034392364 -0.05566511
000010 42 c5 6b bd 7f 27 5d bd 66 8a 67 bd e6 d9 7f bd
       -0.057561167 -0.053992745 -0.05652847 -0.062463664
000020 22 b6 70 bd 1e 78 36 bd f3 5d 3b bd dc 29 15 bd
       -0.058767445 -0.044548146 -0.045743894 -0.036416873
000030 21 6e 4a bd 5f f1 4f bd 15 50 2d bd 6a d4 46 bd
       -0.049421433 -0.0507673 -0.0423127 -0.048542418
000040 6f ad 51 bd 2d 8a 33 bd 7f b6 86 bd ff b5 a8 bd
       -0.05119079 -0.043832947 -0.06577777 -0.08237838
000050 16 d2 87 bd 47 6d 94 bd 5d 76 ba bd 2b 6b a7 bd
       -0.066318676 -0.072474055 -0.09104607 -0.081747375
000060 2d c7 74 bd 53 dc ae bd 10 ab a3 bd 57 35 d5 bc
       -0.05976026 -0.08538117 -0.07991612 -0.026026411
000070 78 ef cb bc aa 47 87 bc e1 ee 26 bd b5 84 2f bd
       -0.024894461 -0.016513664 -0.040755156 -0.04285117
000080 b4 a0 21 bd 08 1f 10 bd 68 11 31 bd 1a 9f 23 bd
       -0.0394599 -0.035185844 -0.04322949 -0.039946653
000090 d4 72 0d bc 47 ef 01 bc 90 ce 03 bc 7e 38 5d 3b
       -0.008633334 -0.007930583 -0.008044854 0.0033755596
0000a0 2f 3d c1 3b de 48 f2 3b 0e 78 06 3c 0a 20 6b 3c
       0.005897186 0.0073939404 0.008207334 0.0143509
0000b0 9a f8 6b 3c d8 13 85 3c 4f c6 7f 3c 78 12 8d 3c
       0.014402533 0.016244814 0.015611245 0.01722072
0000c0 90 04 80 3c b2 3f 60 3c dd 38 7d 3c 64 9c 87 3c
       0.015627176 0.013687061 0.015455452 0.016554065
0000d0 e8 8f 70 3c be fe 80 3c a9 4d ce 3c ed 5d bb 3c
       0.014682747 0.01574647 0.025183516 0.022871936
0000e0 a2 75 fe 3c b0 96 6f 3b f5 0c 83 39 c2 da d8 3b
       0.031061951 0.0036558323 0.0002499592 0.006617875
0000f0 a4 f2 60 3b 45 6e de bb 49 f2 24 3a 01 ee 97 bd
       0.0034324313 -0.0067880475 0.0006292207 -0.074184425
000100 a5 53 a8 bd 54 ec 74 bd 44 c9 b6 bd 9e fd c0 bd
       -0.08219079 -0.059795693 -0.08925107 -0.09423374
000110 ec 56 9d bd af b6 b1 bd 63 90 bc bd 17 02 9e bd
       -0.07682595 -0.08677422 -0.09207227 -0.07715242
000120 72 63 bc 38 a9 53 63 b9 ee ae 21 3a 96 f7 26 bb
       8.983062e-05 -0.00021679573 0.0006167729 -0.0025477163
000130 69 1a 47 bb a9 8b 24 bb 8f ca b7 ba 44 37 23 bb
       -0.0030380732 -0.0025107658 -0.0014022159 -0.0024904767
000140 59 fc e3 ba 1c 01 30 b9 12 23 43 b9 ac 5c b6 b8
       -0.0017393931 -0.00016785081 -0.00018609714 -8.695698e-05
000150 37 bf a5 b9 8d 09 ca b9 37 8a 8a b9 39 8f 9a b9
       -0.0003161372 -0.00038535558 -0.0002642439 -0.00029479878
000160 e8 13 93 b9 e8 df 71 b9 86 c5 ef 3d a2 92 f1 3d
       -0.00028052856 -0.00023066963 0.117075965 0.11795546
000170 4c ae e9 3d 68 44 07 3e 5f 69 10 3e 82 9d 0e 3e
       0.114101976 0.13209689 0.14102696 0.13927272
000180 bd f3 f6 3d 1b 83 07 3e cf c6 06 3e 1a 3d 55 ba
       0.12058208 0.13233607 0.13161777 -0.000813441
000190 96 41 56 ba e4 d6 32 ba 0a 65 8c ba a3 b1 93 ba
       -0.0008173225 -0.00068221823 -0.0010711264 -0.001126815
0001a0 b0 b1 7d ba f7 59 8e ba ca 74 93 ba b2 39 87 ba
       -0.00096776616 -0.0010860552 -0.0011250016 -0.0010316877
0001b0 72 1a 0e bd bf df 56 bd 9d a0 3d bd c0 7d ad bc
       -0.03469319 -0.052459475 -0.04629575 -0.021178126
0001c0 de 09 1a bd 16 8a 04 bd c2 43 b4 3a 49 32 04 bc
       -0.037607066 -0.03235825 0.0013753104 -0.00806863
0001d0 0f 4c c4 bb 9d f8 84 bc a4 f2 99 bc 5c 63 36 bc
       -0.005990512 -0.01623183 -0.018792458 -0.011132088
0001e0 89 31 19 bd 86 03 29 bd 9d 23 13 bd 2b 83 05 bd
       -0.037400756 -0.041263126 -0.035922635 -0.032595795
0001f0 d0 3d 2a bd b3 1b 1b bd 53 55 17 bc 76 74 44 bc
       -0.041562855 -0.037868213 -0.0092366515 -0.011990657
000200 3b 6b 8a bb ba 7d 12 bd 83 14 21 bd b3 d5 00 bd
       -0.0042242086 -0.035764433 -0.039326202 -0.0314538
000210 46 f5 01 bd b3 52 28 bd 81 0b 11 bd 2d 0f dc bc
       -0.03172805 -0.041094493 -0.03541136 -0.026862705
000220 c7 06 d2 bc 68 b6 b6 bc 8c 24 af bc 93 6e ac bc
       -0.025637997 -0.022303775 -0.021379732 -0.02104882
000230 d7 cc 8d bc 66 e8 f2 bb d5 8b cc bb 99 da 8f bb
       -0.01730959 -0.007412958 -0.006242255 -0.0043900725
000240 e1 0c 34 bc 9a 9a 5e bc 21 bf e7 bb c7 44 fc bc
       -0.010989399 -0.013586665 -0.007072345 -0.030794514
000250 a2 6c 0c bd 5c 9c eb bc 2e 0d db bc 65 a6 12 bd
       -0.034283288 -0.028761081 -0.026739683 -0.035803217
000260 2c 2c 06 bd c8 85 55 ba 4b a5 56 ba 79 a4 35 ba
       -0.03275697 -0.000814524 -0.0008188083 -0.00069291104
000270 3a 17 8b ba b8 24 92 ba 77 a2 7d ba 60 56 8c ba
       -0.001061178 -0.0011149859 -0.0009675393 -0.0010706894
000280 f7 4e 91 ba 13 5a 86 ba 62 4c 4f 3d d4 bd 5c 3d
       -0.0011086155 -0.0010250233 0.050609954 0.05389197
000290 89 1e 5f 3d cd e2 7a 3d fa dc 96 3d 4e da 9e 3d
       0.05447248 0.06125145 0.07366367 0.07756482
0002a0 8f 87 59 3d 61 9a 89 3d 81 d0 90 3d a3 66 c1 3c
       0.053107794 0.067188986 0.07071019 0.023608511
0002b0 e9 24 b9 3c 05 4e ce 3c bd 90 bb 3c a1 ae a4 3c
       0.022600608 0.025183687 0.022896165 0.0201028
0002c0 36 0c b9 3c 54 2c c3 3c e0 6e ad 3c 8e a9 b9 3c
       0.02258883 0.023824848 0.021171033 0.022663858
0002d0 1e dc 0d bd 5d 51 10 bd e2 c8 52 bd 29 67 32 bc
       -0.03463375 -0.035233844 -0.051461108 -0.010888853
0002e0 aa a7 8f bc 28 23 39 bd 77 c6 bb 3a 9c ca c5 ba
       -0.017536003 -0.045199543 0.0014326115 -0.001509029
0002f0 63 55 f8 bc 0a 9a 90 bd 4a 34 46 3c 51 14 78 3d
       -0.030314153 -0.070606306 0.012097428 0.06056625
000300 dd 84 be bd fe 2e 0f 39 a3 70 b2 3d 92 3b 87 bd
       -0.093026854 0.00013655049 0.0871289 -0.06603159
000310 f3 c2 33 bd d0 ab 0a 3d 36 cd e5 3d dd de 58 3e
       -0.04388709 0.03385526 0.112207815 0.21178766
000320 89 79 d0 3d 3e 5b 69 3d 0b a0 74 3e 32 2a 58 3e
       0.10179431 0.05697178 0.23889177 0.21109846
000330 bd 3f d0 3c 2e 01 fb 3d 8f db 39 3e 96 2c 88 3b
       0.025421018 0.122560844 0.18150161 0.0041557057
000340 aa b0 3c 3c 31 b3 11 bc f2 3a b5 3c 54 ad d4 3c
       0.011516729 -0.00889282 0.022122834 0.025961556
000350 f6 28 85 bb f1 be ba 3c e8 46 04 3d 5c c2 08 3c
       -0.004063721 0.022796126 0.032294184 0.00834712
000360 da 3a 82 3c 8d 4f 56 bc a2 21 5c bc d1 55 85 bb
       0.015897203 -0.01308049 -0.013435753 -0.004069068
000370 ee 4b fb bc 42 b4 96 bc 0c 84 80 bb e4 91 0b bd
       -0.030675855 -0.0183965 -0.003921991 -0.03407468
000380 ec 34 ab bc 63 9a 72 3c 15 55 72 3c 87 e2 a7 3b
       -0.020899259 0.0148073165 0.014790793 0.0051234397
000390 55 30 8f 3c 47 87 b0 3c 50 3f 2a 3c 95 d5 35 3c
       0.017479101 0.02154888 0.010391071 0.011098285
0003a0 ce 97 9a 3c e6 25 3f 3c 7f 72 d4 3b 98 ca be 3c
       0.018871214 0.011666751 0.0064833756 0.023289964
0003b0 73 e0 1d 3d 6f 48 15 3d 53 20 d0 3c 65 a6 90 3b
       0.03854413 0.03644603 0.025406038 0.004414367
0003c0 1d 37 0c 3d 32 9d 1a 3d 31 8e 1b 3c 58 c3 1e be
       0.034232248 0.03774757 0.00949435 -0.15504205
0003d0 d3 4c 41 3c 18 d4 1d 3e c5 a7 34 be b2 b7 e0 bc
       0.0117981015 0.15412939 -0.17642124 -0.027431343
0003e0 a1 a2 2d 3e 8f 4c ff bd 4d 7d c9 bd df 02 49 3d
       0.16956569 -0.12465774 -0.09838352 0.049075004
0003f0 f6 e0 cb ba 5f c5 7a 3a b4 3c 64 3b 4e 79 d2 3a
       -0.0015554714 0.0009566154 0.003482622 0.001605788

conv2.bias f4 [20]
000000 3c 37 0f 3e a6 17 f9 3d ac 69 ef bc 4b d3 cf 3d
       0.13985914 0.12162714 -0.029225193 0.10147723
000010 59 a7 2a bc f3 60 3c 3e 33 5a 9e bb 3b 7f 24 3d
       -0.010415875 0.18396358 -0.00483253 0.0401604
000020 99 d8 c2 bb fc fb 06 bb c5 c5 da bd 29 99 69 3d
       -0.0059462306 -0.0020596972 -0.10682253 0.05703083
000030 ed 4a a3 bc 83 4e 8f 3d 74 f5 17 bc 2a 4c dd bb
       -0.019933188 0.06997397 -0.009274829 -0.006753464
000040 62 0a 43 bc 9a cd 57 3e d7 0f a2 ba 1c 0b 35 be
       -0.011904331 0.21074525 -0.001236434 -0.17680019

conv3.weight f4 [20, 20, 3, 3]
000000 2f e7 48 bd 38 b5 61 bd 28 23 de 3c 3f 64 9d bd
       -0.0490486 -0.055104464 0.027116373 -0.07685136
000010 a0 52 91 bd 61 d5 e0 3c 70 9a b5 b8 e2 46 9a bc
       -0.070958376 0.027445497 -8.659519e-05 -0.018832628
000020 4d 4e 0b 3d 02 43 8e 3d ef 86 4c bd 22 23 a1 3c
       0.03401022 0.069463745 -0.04993337 0.019670073
000030 42 69 3b 3d 0d 5f aa bd 0e 31 61 bc cc 6b 7d 3d
       0.04575468 -0.08318911 -0.013744606 0.06187038
000040 f7 8c 12 bc 6f 40 4f 3d 4f b6 97 3d 07 a9 a9 3c
       -0.008944741 0.050598558 0.074078195 0.020710481
000050 9f 17 e9 bc 9c c6 4d 3c f5 56 51 bd 73 1a a5 bd
       -0.028453646 0.012559559 -0.05110832 -0.080616854
000060 19 f9 9d bd e6 00 81 bd 21 b6 bf bc 5d 1a 05 3d
       -0.07713527 -0.062989995 -0.023402276 0.032495845
000070 7a f1 db 3b d3 5c 13 3d f1 f4 b3 bd 89 9f 99 bd
       0.006712136 0.035977196 -0.08786953 -0.07501132
000080 19 bf af bb 71 e9 63 bd ed 5b ac bc 20 36 27 3c
       -0.005363357 -0.05564255 -0.021039927 0.0102057755
000090 8e 2c 8f 3c 89 40 df 3b 73 ec e2 3b 3c 4e 28 3d
       0.0174773 0.006813113 0.0069251596 0.041090235
0000a0 27 43 3b 3c 04 b0 2e bc dc d4 1d 3d a4 df de 3b
       0.011429585 -0.010662083 0.038533077 0.0068015624
0000b0 7f 63 1a bc 41 61 b4 bc 0e cf 39 bb fe cf e8 3c
       -0.009423136 -0.02201903 -0.0028352174 0.02841949
0000c0 56 c0 11 bd c2 51 2c bb cf 7b 0c 3c 6c 78 97 3d
       -0.035583816 -0.0026293849 0.00857444 0.073960155
0000d0 47 18 af 3d 56 ce 40 3d 8c a1 5a 39 e4 65 14 ba
       0.085495524 0.047071777 0.00020850281 -0.0005660935
0000e0 f0 0a bf ba 9c 8d 0b ba 8c f4 c3 ba 45 64 13 bb
       -0.0014575403 -0.00053235306 -0.00149502 -0.0022490185
0000f0 ff c3 d0 ba 36 8c 35 bb fd 30 37 bb 22 77 02 3e
       -0.0015927552 -0.002770198 -0.0027952783 0.12740758
000100 a6 ee c8 3b 6a 68 0f 3d 3f c7 85 3d d6 86 78 bd
       0.0061319647 0.035011686 0.06532144 -0.060675465
000110 b2 eb 48 bd dc cf 1c bc f4 3a 86 bd 03 bb 80 bc
       -0.0490529 -0.009571042 -0.06554213 -0.015714174
000120 53 d7 d8 bc 4a 8c 8b bc 47 89 de 3c 93 4e a8 bd
       -0.026469862 -0.017034668 0.027165068 -0.08218112
000130 de e2 6f bd ef 91 4b 3c dd a0 35 bd 8c 04 3f ba
       -0.058565967 0.01242493 -0.044342864 -0.00072867493
000140 cf 5c 9d 3d 4d b6 6c ba 13 9a 8e ba e3 51 4e ba
       0.076837175 -0.00090298505 -0.0010879658 -0.00078704784
000150 ef 0f bd ba a3 77 d0 ba f7 87 93 ba 69 f1 ba ba
       -0.0014424304 -0.0015904795 -0.0011255731 -0.001426262
000160 ad a3 de ba e1 1e 86 ba 21 17 f9 3d 96 4f 61 3d
       -0.0016986035 -0.0010232591 0.121626146 0.05500754
000170 1c 84 fe 3b aa 44 52 3e f8 19 e7 3c cf 4a 88 bd
       0.0077672135 0.20534006 0.028210625 -0.066548936
000180 fd 3b b4 3d d7 62 ce bd 45 7d da bd 55 db 28 3d
       0.08800504 -0.10077446 -0.106684245 0.041224796
000190 0b 67 61 3c f8 86 2c b8 ca dc a3 bc 7f 7a e8 bc
       0.0137574775 -4.1133695e-05 -0.020002741 -0.028378723
0001a0 3f 3d 1c bc 38 ae 87 bc 87 a3 3f bb 1e c0 83 3c
       -0.009536087 -0.016562566 -0.0029241757 0.01608282
0001b0 65 a6 66 3d 55 85 2c 3d 17 a7 72 3d cd d8 eb bc
       0.05631103 0.042119343 0.05924138 -0.028789902
0001c0 0a e9 81 3c fa 87 ac 3c c9 7e db 3d 71 87 d1 3d
       0.015858192 0.021060932 0.10717542 0.102309115
0001d0 fe 13 11 3d 68 0d 42 bc a4 5d a0 bb 8c e4 eb 3c
       0.035419457 -0.011844017 -0.0048939753 0.028795503
0001e0 c4 23 2f bd 38 08 29 bd 46 07 49 3c 43 4e 78 bc
       -0.042758718 -0.041267604 0.0122698005 -0.015155378
0001f0 40 d8 80 bc 9a 6b bb 3c 06 07 46 3b 36 8b 20 3b
       -0.015728116 0.022878457 0.0030216589 0.0024497039
000200 15 2e 0f 3b ea d6 54 3b 62 7f 1f 3b 91 31 a5 3a
       0.0021847535 0.0032476732 0.00243374 0.0012603273
000210 25 b0 1a 3b c5 d1 f7 38 37 77 96 ba 01 bd 3f 3b
       0.0023603525 0.000118169504 -0.0011479621 0.0029256942
000220 98 30 d4 3a ad 3d 6c 3a 86 26 52 3b fd cd 35 3a
       0.0016188798 0.0009011876 0.0032066419 0.00069352967
000230 af 9d 85 b9 ec 90 20 3b 88 48 13 38 c8 3b 2e 3a
       -0.0002548522 0.0024500443 3.511508e-05 0.00066464813
000240 6f 1c 04 3d b8 01 c8 3c 25 64 9e 3c bd 7e 3c bb
       0.03225368 0.024414882 0.019334862 -0.0028762065
000250 8d e3 0d 3c 26 ac f5 bb 14 04 33 3b d4 cb 06 3b
       0.008660209 -0.0074973283 0.0027315663 0.0020568268
000260 9a a6 b1 bb 4d be 22 bc 71 9c aa bb 75 0e 1a 3c
       -0.005421472 -0.009933067 -0.0052066376 0.009402861
000270 a9 69 d9 bc 0e 3e 6a b9 2b 81 9e 3c 54 65 16 3d
       -0.02653964 -0.00022339096 0.019348701 0.036717728
000280 cf f3 73 3d 97 8d b7 3c c4 96 28 3b fb 39 fb 3a
       0.059558686 0.022406382 0.002572463 0.001916706
000290 fb 9c 09 3b 64 b9 db 3a 2d 9c 7f 3a 3f 1b c9 3a
       0.0020998109 0.0016763625 0.000975075 0.0015343203
0002a0 d5 4e f7 b9 a0 4d a1 ba c2 30 f1 39 52 f6 75 bd
       -0.00047170246 -0.0012306459 0.0004600343 -0.060049362
0002b0 7f 45 65 bd 9c e2 b1 bc 4d 50 e7 bd 74 8b d2 bd
       -0.05597448 -0.021714501 -0.11294613 -0.10280505
0002c0 25 28 17 bd 47 c3 4c bd bb 11 17 bd ca 1d 16 3c
       -0.03690352 -0.04999092 -0.036882143 0.009162376
0002d0 2f dd 65 3d f4 50 9b 3d 37 70 a8 3d 33 c7 ae bd
       0.05611914 0.075838 0.08224528 -0.08534088
0002e0 cf 28 13 3b 5e 42 ca 3d 5e 1e ce bd da 4d 11 bd
       0.0022454744 0.0987594 -0.10064386 -0.035474636
0002f0 e7 07 c3 3d 75 df d8 3c d0 6e 8d bd bc ac 3b 3c
       0.095229916 0.02647374 -0.069059014 0.011454757
000300 df 09 15 3e 65 60 30 bc e7 59 2e bd c2 a6 48 3e
       0.14554547 -0.01076517 -0.042566206 0.19594863
000310 19 97 cb 3d 22 d0 8b 39 27 ab 91 3c 99 f0 81 bc
       0.09940929 0.00026667217 0.017781807 -0.015861796
000320 29 12 90 bb 51 1c da 3c 74 c7 4a 3c f2 cb 17 bd
       -0.004396696 0.02662483 0.012376655 -0.03705973
000330 c7 00 85 bc ba a7 a9 ba a3 36 29 ba a9 54 04 bd
       -0.016235722 -0.0012943663 -0.000645498 -0.0323073
000340 6f 8f f4 bb 2e 5d 9b 3d ce 29 26 bc 06 4c 65 bd
       -0.0074633877 0.07586132 -0.010141803 -0.055980705
000350 df 39 59 bb 3b 14 19 3d 60 d0 f8 bc 2a d3 32 bb
       -0.0033146066 0.03737281 -0.030372798 -0.0027286508
000360 88 8a e7 bb 1b c7 98 ba 70 19 d1 3b b1 79 fa ba
       -0.0070660748 -0.0011656018 0.006381206 -0.0019109753
000370 f4 0d 6c bc 7d 64 9f bc 7d 14 58 3c 83 9e de 3b
       -0.014407624 -0.019457096 0.013188479 0.0067937984
000380 b6 5a fa bb a4 ff 79 bc 03 2b ef bc 30 04 96 3c
       -0.007640208 -0.015258703 -0.029195314 0.018312544
000390 81 6e 8e bc 90 7e 28 bd 0d 9e ec 3a 87 02 e9 3c
       -0.017386677 -0.041136324 0.0018052474 0.028443588
0003a0 ca 44 17 3c 41 c3 bb 3c 09 b3 a9 3a 1b 50 b7 3a
       0.009232709 0.022920253 0.0012947033 0.0013985665
0003b0 ba 12 62 3b 2c 71 0c 3b c3 59 29 3b 5a 4d 99 3b
       0.0034496025 0.002142976 0.0025840856 0.0046784105
0003c0 50 4b cc 3a a7 3c 43 3b 7a 96 ad 3b f4 47 77 bd
       0.001558641 0.002979079 0.005297479 -0.060371354
0003d0 31 b0 bc bd 21 94 53 3c 19 74 f5 3d bf 6a 0e bd
       -0.09213293 0.012913735 0.119850345 -0.03476977
0003e0 ba c4 f9 bd a5 ea 14 3e b3 25 7e 3d 79 d7 7a bd
       -0.12195726 0.14542635 0.06204767 -0.061240647
0003f0 2c 82 22 bd a1 fc fd ba 4c 24 70 3d 15 ba da bc
       -0.039674923 -0.0019377657 0.058628365 -0.026700059

conv3.bias f4 [20]
000000 e9 06 e9 bc 3b d9 97 bb f3 9c 70 bc e0 d2 61 3d
       -0.028445678 -0.00463405 -0.014685857 0.055132747
000010 5d 9b d7 ba 02 e5 70 3c 6a c3 eb bb 57 4a 4a 3d
       -0.00164495 0.014703037 -0.007194926 0.049387302
000020 8e 6f f7 bb 78 c0 98 bd ee f6 ba bc 5f c4 9b 3b
       -0.00755114 -0.074585855 -0.022822823 0.004753634
000030 3f ba bd 3c 44 fd c5 3a f5 0b e6 3d f6 14 be bc
       0.023160098 0.0015105386 0.112327494 -0.023203354
000040 7d 24 e6 3b b1 d8 c1 bc 03 96 53 bd 2d 0f 0c 3e
       0.0070233927 -0.023662897 -0.051656734 0.13677664

fc1.weight f4 [28, 320]
000000 f9 ce 64 3c c5 4f 1a 3c 94 7f 93 b9 11 a8 f6 bb
       0.013965362 0.009418433 -0.00028133078 -0.0075273593
000010 72 49 23 3d db 75 41 bd 9c 39 5a bd 8a 47 a8 3c
       0.039864965 -0.047231536 -0.053277597 0.020541925
000020 74 33 5e 3d 71 bb 5e 3c a2 64 d7 bc 9f 93 4d 3c
       0.05424829 0.013594494 -0.026293103 0.012547403
000030 6f 75 ec 3c 55 e1 83 3c 4e e0 55 3c cf 96 4a bc
       0.02886459 0.016098658 0.013053967 -0.012365057
000040 71 51 28 3d c7 d6 ef 3c 0e d0 4d 3b 40 c1 ce ba
       0.041093294 0.029277219 0.0031404528 -0.0015774146
000050 23 d7 55 3d 28 26 4c bd 7c 4a dd bd 4c 90 ab bd
       0.052207123 -0.049841076 -0.108052224 -0.08377132
000060 0b d3 ea 3c bd 41 c0 bc e6 c1 4d bd db 1c 58 bd
       0.028665086 -0.023468846 -0.050233744 -0.052761894
000070 74 4b 5e 3c f7 93 04 3c 6e db 26 3b 87 bf dc bc
       0.013567794 0.008091918 0.002546038 -0.026946796
000080 05 0d 58 3d d0 2c 13 3d 2f 7a 17 3d 21 a2 97 3c
       0.05274679 0.03593141 0.036981758 0.018509926
000090 cf b3 3e 3b 2b 24 84 bd 31 0a fb bc 10 01 22 3c
       0.0029098873 -0.06452211 -0.030644508 0.009887949
0000a0 e2 4d 1d 3d 56 11 0f bd 7a ea 55 bd 25 90 45 3c
       0.038404353 -0.034928642 -0.052225567 0.0120582925
0000b0 8f f1 95 3d 60 bc 99 3b 69 e6 a4 bb 5c a9 12 3d
       0.07321464 0.0046916455 -0.00503235 0.035806045
0000c0 e7 90 3d 3d 43 19 02 bd 61 b7 30 bd d6 66 eb bc
       0.046280768 -0.031762373 -0.043143634 -0.02873556
0000d0 e3 39 d1 3d 4d 02 db bd 9a 51 f1 bc 06 df 9d bd
       0.10216119 -0.10693798 -0.029457856 -0.07708554
0000e0 97 28 9a 3d 7e 18 26 be e2 bc 8f bd d4 42 2a bd
       0.07527273 -0.1622028 -0.070184484 -0.04156764
0000f0 b4 80 81 3d f6 62 e2 bc 60 be 17 b9 17 fd 4c 3c
       0.06323376 -0.027635079 -0.00014471402 0.012511513
000100 49 ed cb bc 4a 2d 43 bd f7 38 61 bc c9 f1 a8 3d
       -0.02489342 -0.047650613 -0.013746492 0.08249242
000110 af f1 49 bc 98 03 80 bd 88 a3 dd bc 92 0c ae 3d
       -0.012325688 -0.062506855 -0.027055517 0.08498491
000120 45 3b 90 3c 0d 09 6b bd 71 95 ef bc ca d0 92 3d
       0.017606387 -0.05738168 -0.029246064 0.071687296
000130 8d 30 13 bd 97 6d 66 bd e4 4d 1f bc 71 f2 4c 3d
       -0.035934974 -0.056256857 -0.00972316 0.050035898
000140 23 b3 19 3d 20 e2 b4 3c a6 7e 22 bd 67 48 a5 bc
       0.037524354 0.022080481 -0.039671563 -0.020176126
000150 b2 bf 92 bb 44 26 00 3d ce eb 00 3d 63 f9 82 3c
       -0.0044784183 0.031286493 0.03147488 0.015988057
000160 fb b0 9f bc e4 d9 e6 bb f6 cc 0d 3c 69 d2 9e 3c
       -0.01949357 -0.0070450176 0.0086548235 0.01938744
000170 16 1b 20 bd f8 e3 86 bd 53 e0 95 bc f1 8e 04 3b
       -0.03908833 -0.0658645 -0.018295443 0.0020226801
000180 35 43 c2 ba c0 7a 07 3b ae a6 a8 ba f1 96 d7 3b
       -0.0014821055 0.002067253 -0.0012867057 0.006579273
000190 4d 3a 42 39 1f db c3 3b dc 6e 43 bb 38 32 d7 3b
       0.00018523 0.005977049 -0.0029820716 0.006567266
0001a0 60 af 9d bb 92 02 58 bc 5f 42 5b bc 04 73 e6 3a
       -0.004812166 -0.013184207 -0.013382523 0.0017581885
0001b0 37 a3 ba 3a c0 82 d4 3b 24 5a 9f 3b 2a e4 4a 3c
       0.0014239316 0.006485313 0.0048630405 0.0123835
0001c0 98 ca cc 3c f1 f5 a5 3c 5f a3 40 bc 44 ba b7 3d
       0.024998948 0.020258876 -0.011757701 0.08971074
0001d0 a7 e1 d9 3c 6a 92 c4 bd bb a6 2c bd ea 20 d4 3d
       0.026596857 -0.09598239 -0.042151194 0.1035784
0001e0 40 7b 69 3d 71 33 95 bd 92 7e 2a bd 84 51 f9 3d
       0.057002306 -0.07285202 -0.041624613 0.12173751
0001f0 62 e6 59 3d d3 bb 17 bd 70 84 40 bd 99 bc f4 3c
       0.053198226 -0.037044358 -0.047001302 0.029875087
000200 01 65 d8 bb bc d6 0f bb ca 01 77 3c de 75 90 3c
       -0.0066038375 -0.002194806 0.01507611 0.017634328
000210 a7 d3 d1 3c f4 01 18 bb 77 a6 1b 3c 87 3d ef 3c
       0.025613619 -0.0023194524 0.0095001375 0.029204143
000220 fe ad a8 3d 2a fa 4d 3d 59 98 12 3d 33 ec 52 3d
       0.082363114 0.050287403 0.03578982 0.05149479
000230 35 d0 90 3d b6 11 30 3d 1e b6 94 3c b1 a8 5d 3d
       0.07070962 0.04298564 0.018153246 0.054115955
000240 f2 db 38 bc 4e e2 58 3b 96 39 92 3c 75 ef 20 3c
       -0.011282908 0.0033093872 0.017849725 0.009822716
000250 f2 98 3c 3d 89 d5 d8 3c 1c d8 d3 bb d4 ee df bb
       0.046044298 0.026469009 -0.006464971 -0.0068338905
000260 ed e7 09 3d 8e 21 11 bc 83 7f 9a bc 26 6b 89 bb
       0.033668447 -0.008858098 -0.01885963 -0.0041936813
000270 22 a7 49 3c 9e 42 fd bc 25 f8 36 bd 50 92 09 bc
       0.012307914 -0.030915555 -0.044670243 -0.0083967
000280 33 8b 9e 3c c2 e3 4a 3c 90 40 ab 3b c7 a5 6a 3c
       0.019353485 0.012383403 0.0052262023 0.014321751
000290 1a 6c 99 3c 63 7b da 3c ba 4e fb ba c2 9d e6 39
       0.018728305 0.026670163 -0.0019173243 0.00043986557
0002a0 bf f1 db b8 66 2b 1f bc b7 96 c1 bc b6 87 be bc
       -0.000104877625 -0.009714937 -0.023631437 -0.023258071
0002b0 d7 2a 35 3c 62 f6 91 bc e7 33 f5 bc 09 ba 69 bb
       0.011057577 -0.01781768 -0.029931976 -0.0035663864
0002c0 75 fd 71 bc 2a 0c 3f 3b 23 22 e4 bc fe 1a b7 ba
       -0.0147699015 0.0029151537 -0.027848309 -0.0013969836
0002d0 8b bb b2 bc 58 de c3 bb a6 75 eb bc 2b 78 4f 3c
       -0.021817943 -0.005977433 -0.028742623 0.012662928
0002e0 e9 72 57 bd dd 35 10 bd 50 a0 01 bd 51 e0 06 3d
       -0.05259982 -0.035207618 -0.031647027 0.03292877
0002f0 1e be ec bc 7d b0 13 bc eb c9 8a 3c 6b 7d 9a 3c
       -0.028899249 -0.009014246 0.016941985 0.018858632
000300 0a fb c9 3c d4 ba 8f 3c 77 43 fd bc 65 b4 e6 bb
       0.024655838 0.017545141 -0.030915959 -0.0070405477
000310 fa e7 1b bd 5a 42 8b bd 6d 48 38 bd 65 9c 4d bd
       -0.038063027 -0.06799765 -0.044990946 -0.050197978
000320 cf da da bc 99 ce a5 bd 0c e4 76 bd c2 f5 18 bd
       -0.026715664 -0.08096046 -0.060276076 -0.037343748
000330 c1 bc 4e bc 0c a4 a5 b9 ac 7a 91 bb ac 72 3c bd
       -0.012618245 -0.00031593477 -0.0044396725 -0.046007797
000340 d7 69 66 bb 72 4a 95 bb ed de 84 bc 6c ba ad bc
       -0.00351583 -0.0045559937 -0.01621958 -0.021207057
000350 fd 7d c9 3b 15 40 00 3c 88 f0 68 3b 19 5f 89 3c
       0.006149052 0.007827778 0.0035543758 0.016768979
000360 60 f6 84 3c 4f 7c cd b9 45 d1 36 b9 24 b1 a8 3c
       0.016230762 -0.00039193264 -0.00017434832 0.02059228
000370 9a d3 27 b9 c2 47 c5 3a f8 b3 e4 bb d2 fa 1c bc
       -0.00016005189 0.0015051293 -0.0069794618 -0.009581285
000380 60 28 82 3c 2b dd 09 3d 1b c9 9f 3c a9 11 18 bd
       0.015888393 0.033658188 0.019505074 -0.037126217
000390 b8 f3 a7 3d 3f 2a ec 3d 92 83 1c 3c 40 58 86 bd
       0.082007825 0.11531495 0.009552853 -0.06559801
0003a0 75 dc 51 3d f7 96 5d 3d 3b d8 8a 3c ef f8 d5 bc
       0.051235635 0.05409905 0.01694881 -0.026119677
0003b0 54 6b ae 3c 93 bf f4 3c 3b 7b 7e 3a c3 c5 f9 bc
       0.021291412 0.029876506 0.0009707694 -0.030489808
0003c0 88 c5 04 38 d8 d3 aa bc 0d 36 18 bc 9b cc 33 3c
       3.1655218e-05 -0.020852968 -0.00929023 0.010974075
0003d0 fe 75 1b bc 39 90 24 bd 10 90 9f bd 5a a4 71 bd
       -0.009488581 -0.040176604 -0.077911496 -0.05899463
0003e0 93 d3 de bc fa bc fb bc ab 17 b1 bc ab 2a 51 bd
       -0.027200496 -0.03072976 -0.021617731 -0.051066082
0003f0 c2 23 c8 bc ab fa 85 bc 1b f4 49 bb f8 4a 3e bd
       -0.024431113 -0.01635488 -0.0030815664 -0.046458215

fc1.bias f4 [28]
000000 79 19 2a 3d e0 f2 3c 3d 8c f8 8a bb 48 7e 6b 3d
       0.0415282 0.04613006 -0.004241055 0.057493478
000010 ee 0e 5f bb 40 6b 4d 3d d7 f1 8e b9 b4 e1 4d bc
       -0.0034035998 0.05015111 -0.00027264535 -0.012566019
000020 e1 44 51 3d 30 99 be 3a 98 e8 45 bb 9a ee 7b b8
       0.05109108 0.0014541503 -0.003019845 -6.006528e-05
000030 97 fc 2f 3d 8a 38 b0 bc ac b7 cf 3c dc 0b 25 bd
       0.042965498 -0.021511335 0.025356136 -0.040294513
000040 e9 c9 2b 3d 4b b0 53 bc 0b 3d 68 bc bc 7f 5e 3d
       0.041940603 -0.0129204495 -0.01417471 0.054321036
000050 e7 76 81 bc 1a bb d6 3b 8c 59 c8 b8 62 2e e7 3a
       -0.015803767 0.006553066 -9.5534226e-05 0.0017637725
000060 e1 ed 10 3c 0e 35 35 ba 2a 77 36 3d ee 37 6f 3d
       0.008845777 -0.0006912508 0.044547237 0.058402948

fc2.weight f4 [5, 28]
000000 b2 22 fa 3e d2 26 00 3f d1 1b d9 bd 15 6b cb 3e
       0.48854595 0.50059235 -0.10601009 0.39730135
000010 37 2a c0 bd 64 78 b0 3e 2a cb f8 3c 2e c8 28 bd
       -0.09383052 0.3446685 0.030370314 -0.04120653
000020 bf 99 f9 3e 3b 06 6c be 43 fb 96 bd 2b 7d 80 3c
       0.4875011 -0.23049252 -0.07372143 0.015684685
000030 be 85 c6 3e b1 4e de bd 2d a4 47 3e 3e 2a 58 3e
       0.38773912 -0.10854853 0.19496222 0.21109864
000040 6f 3a ea be b4 ab 98 be 35 2a b3 be 76 5c f8 3d
       -0.45747706 -0.298185 -0.3499314 0.121270105
000050 10 14 c1 be 6a 23 8c bd 93 bd a8 3b a6 5d f2 ba
       -0.3771062 -0.06842692 0.005149552 -0.0018491044
000060 bf 8e 3c be 53 f1 9d 39 ee b0 a7 be a8 40 d9 3e
       -0.18413828 0.00030125174 -0.32752174 0.4243214
000070 c7 9d 34 be 57 d7 85 be 6a 66 21 3e 7e 6c 95 be
       -0.17638312 -0.26140854 0.15761724 -0.29184335
000080 d5 7d 36 be 41 8b b4 3e fe 00 2e be 4e ec c9 3c
       -0.17821439 0.35262492 -0.16992566 0.024648812
000090 f0 af 8b be 73 7c c0 bd c1 ea 6e be ec ca 76 3c
       -0.27282667 -0.09398737 -0.23331739 0.015063029
0000a0 4e da 21 3c d9 e6 b3 be f7 ac d6 3d 4a 0a 9c be
       0.009878708 -0.3513706 0.10482209 -0.304766
0000b0 79 97 13 3f 68 21 85 bb 76 0e 0b 3e 18 7b 9e 3e
       0.57653004 -0.00406282 0.13579735 0.30953288
0000c0 c3 0e a1 bb e6 80 3f bc 38 3e 1a 3c 81 7b 9e 39
       -0.00491509 -0.011688447 0.009414248 0.00030228126
0000d0 7d 61 0e 3e 3e 0d 07 3b 74 a1 9f 3e ce 49 8c 3e
       0.13904376 0.0020607258 0.31177866 0.27400059
0000e0 e1 01 19 bd 59 17 06 3e 7d c1 3c 3e 71 14 d6 bd
       -0.037355307 0.13094844 0.18433185 -0.10453118
0000f0 76 f6 77 3e 6d fe 1c 3e 20 26 8d 3d 8c 13 25 be
       0.24215111 0.1533143 0.068920374 -0.16120738
000100 7d 5f 07 be af ad 7b 3e 3f 35 7c 3e 5c 80 8c 3c
       -0.1322002 0.24577974 0.24629687 0.01715105
000110 ce 74 42 be 8d 64 48 3d e9 06 87 3e 1f c7 8f 3e
       -0.1898987 0.048924018 0.2637246 0.28081605
000120 32 86 65 3e 5b 91 8f 3e f5 41 68 ba 5c 85 de be
       0.22414473 0.28040585 -0.0008859926 -0.4346112
000130 7f b2 86 3e 7b a4 72 be ee cd af 3c 5e 9b 10 3b
       0.26308057 -0.23695557 0.0214605 0.0022065262
000140 f1 c1 bb bd 89 5c 62 bb 7d 91 a0 3d 1a 12 89 bd
       -0.09167851 -0.0034540019 0.0784025 -0.06692906
000150 6e 75 1d be d1 7a 08 be a5 4b 7d be de 09 ae 3e
       -0.15376827 -0.133281 -0.24735887 0.33991903
000160 7f a6 8b 3e c5 07 b5 be 6f 10 c7 bd 57 8c 8d 3e
       0.27275464 -0.3535749 -0.09719931 0.27646133
000170 c1 3d 33 be ec 37 ba 3e 7b 8a b5 3e c0 c7 4d 3c
       -0.17504026 0.3637079 0.35457215 0.012559831
000180 d3 6c e4 3c 0e 10 45 3e ba 5c b4 3e f4 b5 29 3b
       0.027883923 0.19244406 0.35226995 0.0025895806
000190 2f 72 0c be ee 0f 88 3e c2 ed f3 bc 5d c8 0b 3c
       -0.13715433 0.26574653 -0.029776458 0.008531657
0001a0 5d 1f 27 3e d3 a3 dc 3e 16 94 10 3c 7b fe 73 3b
       0.16320558 0.43093738 0.008824369 0.003723054
0001b0 a5 44 79 3e f4 26 07 3b c0 44 be 3b ad 49 b5 bd
       0.24342592 0.0020622583 0.0058065355 -0.08851943
0001c0 e8 68 83 bc 34 df 99 bd 9e d4 3a 3e a2 fb d0 bd
       -0.016041234 -0.07513276 0.1824517 -0.10204245
0001d0 e0 80 e1 bd d6 07 3d be b5 cb 84 3e b5 c0 0f bc
       -0.11010909 -0.1846002 0.25936666 -0.008773972
0001e0 8e 6e a7 3e 58 43 e6 bd bc b3 0e be 46 8c 9c 3c
       0.32701534 -0.112433136 -0.1393575 0.019109856
0001f0 8a ce 2c bd 3a 84 8c 3e 89 03 71 be 80 7f 16 bd
       -0.04218916 0.2744463 -0.23536505 -0.036742687
000200 b2 3d f1 3d ea a5 31 be 50 df f1 3e 83 7c 2b 3e
       0.117793456 -0.17348447 0.47240686 0.16746716
000210 43 cf 27 3e b8 34 8c 3c 48 34 82 3a 9c 66 57 3b
       0.16387658 0.017114982 0.0009933794 0.0032867556
000220 0b cb f2 3b 59 c5 6e 3b f9 b6 ac 3d c4 54 cc 3d
       0.0074094585 0.0036433546 0.08433337 0.09977105

fc2.bias f4 [5]
000000 dc 22 da 3d a5 d4 e9 3d 79 36 4e bc 2c 40 93 3c
       0.1065118 0.11417512 -0.0125862295 0.017974935
000010 7f 3e 12 bc
       -0.008926033
