ball_detection/candidate_classifier/weights.pt (torch_old, 16340 bytes, 9 tensors)

conv1.weight f4 [12, 3, 3, 3]
0	0xbbcb6929	-0.0062076044
1	0xbbd5aa7c	-0.0065205675
2	0xbbc90eeb	-0.0061358116
3	0xbbbffc66	-0.0058589457
4	0xbbc02749	-0.005864058
5	0xbbae1e61	-0.00531368
6	0xbbc3e195	-0.005977819
7	0xbbb14991	-0.005410381
8	0xbba25541	-0.0049540107
9	0xbbb948af	-0.0056544165
10	0xbbbfdad7	-0.005854945
11	0xbbc869bc	-0.00611612
12	0xbbc43c0a	-0.0059886025
13	0xbbbd96e0	-0.005785808
14	0xbbaf4bd4	-0.0053496156
15	0xbbd3971e	-0.0064572236
16	0xbbc49470	-0.0059991404
17	0xbbb0a0d9	-0.0053902683
18	0xbadfa345	-0.0017062208
19	0xbb24e904	-0.0025163302
20	0xbb827b01	-0.0039819484
21	0xbb29aff1	-0.0025892223
22	0xbb3b09e3	-0.0028539828
23	0xbb692f2d	-0.0035581097
24	0xbb865f74	-0.0041007344
25	0xbb8965b0	-0.0041930303
26	0xbb8fdfcb	-0.004390692
27	0xba5a5ab5	-0.00083295564
28	0xba5f4572	-0.0008517123
29	0xba80b67d	-0.0009820011
30	0xba5a00ee	-0.00083161786
31	0xba66f25c	-0.0008809918
32	0xba8f6194	-0.0010939115
33	0xba64db30	-0.0008730171
34	0xba55f026	-0.000816109
35	0xba8e562d	-0.0010859423
36	0xba01a2c8	-0.0004945216
37	0xba1bf5d6	-0.0005949413
38	0xba62b63b	-0.000864837
39	0xba13ad24	-0.0005633405
40	0xba0e4d80	-0.00054284185
41	0xba64a418	-0.00087219616
42	0xba15d658	-0.00057158386
43	0xba2f051b	-0.0006676481
44	0xba6a5a63	-0.000893986
45	0xba308570	-0.0006733751
46	0xba43fa2c	-0.0007475938
47	0xba4a4631	-0.0007716148
48	0xba518629	-0.00079927087
49	0xba4dea44	-0.00078550377
50	0xba4e316c	-0.0007865641
51	0xba72eea5	-0.0009267128
52	0xba6163b5	-0.00085979264
53	0xba64ca61	-0.00087276666
54	0x37b42677	2.1475584e-05
55	0x37abdda0	2.048799e-05
56	0x38246107	3.919101e-05
57	0x37eee7b8	2.8479713e-05
58	0x37cd9d47	2.4511142e-05
59	0x37f3d5da	2.906744e-05
60	0x37a41c97	1.9563637e-05
61	0x37dd582b	2.638631e-05
62	0x37c2df22	2.3230506e-05
63	0xb894dbb7	-7.098115e-05
64	0xb8aa5599	-8.1221755e-05
65	0xb898ade8	-7.2803174e-05
66	0xb8a5f88a	-7.914107e-05
67	0xb8b94960	-8.8351546e-05
68	0xb8929b00	-6.9906935e-05
69	0xb89dc18c	-7.522394e-05
70	0xb8a7fd95	-8.010414e-05
71	0xb8a3db87	-7.813336e-05
72	0xb7b75953	-2.1856895e-05
73	0xb7b33553	-2.1363294e-05
74	0xb7fdd14c	-3.0257412e-05
75	0xb8226df1	-3.87262e-05
76	0xb8074d70	-3.2258627e-05
77	0xb7f81669	-2.957434e-05
78	0xb899ddd1	-7.336925e-05
79	0xb850a9cb	-4.9749196e-05
80	0xb861148d	-5.366332e-05
81	0xbc9d657d	-0.019213432
82	0xbcc58484	-0.02411104
83	0xbd3c1f44	-0.045928255
84	0xbca9aa14	-0.020710982
85	0xbcd13ef7	-0.02554272
86	0xbd3c4ec6	-0.04597356
87	0xbcc25491	-0.023721965
88	0xbce61b2f	-0.028089134
89	0xbd404237	-0.046938147
90	0x3c3ab223	0.01139501
91	0x3bd4af06	0.006490591
92	0xbc2c0f12	-0.01050164
93	0x3c164ba6	0.009173309
94	0x3baccb12	0.0052732313
95	0xbc42bd61	-0.011885972
96	0x3bcc0738	0.0062264465
97	0x3afa2511	0.0019084533
98	0xbc529b9c	-0.012854483
99	0xbca79c07	-0.020460142
100	0xbccb6f2a	-0.02483328
101	0xbd0ef720	-0.034903646
102	0xbccf323d	-0.02529251
103	0xbcf18f26	-0.029487204
104	0xbd1f20ce	-0.038849644
105	0xbcdafb4c	-0.026731156
106	0xbcfc5c20	-0.030805647
107	0xbd2968df	-0.04135978
108	0xbb60b659	-0.0034288375
109	0xbc88990c	-0.016674541
110	0xbc6cb51f	-0.0144474795
111	0xbd5586d7	-0.052130546
112	0xbd86577a	-0.065596536
113	0xbd109a1c	-0.03530322
114	0xbdaf90ad	-0.085725166
115	0xbe069eb8	-0.13146484
116	0xbdc5a01f	-0.09649681
117	0x3dd4fbea	0.10399611
118	0x3dedd7be	0.11613415
119	0x3dec1e7b	0.11529251
120	0x3d38b1fb	0.04509161
121	0x3d8436ae	0.06455742
122	0x3dcae388	0.099066794
123	0xbbcc2eb8	-0.0062311552
124	0xbcb90c90	-0.022588998
125	0x3cae9138	0.02130948
126	0x3de0ec6c	0.10982594
127	0x3e1f8f12	0.1558192
128	0x3e101999	0.14072265
129	0x3cdcbb9d	0.02694493
130	0x3dc734e6	0.097268865
131	0x3e0b98bd	0.13632484
132	0xbd6f31c5	-0.058397073
133	0xbc821c2d	-0.015882576
134	0x3d318c65	0.04334678
135	0xb922d11f	-0.00015527428
136	0xb91d3912	-0.00014993947
137	0xb920b27d	-0.00015325281
138	0xb925ecde	-0.00015823866
139	0xb9253b75	-0.00015757776
140	0xb927ab4b	-0.00015990173
141	0xb91fc734	-0.0001523763
142	0xb92dac62	-0.00016562783
143	0xb92fd8f0	-0.00016770116
144	0xb8e0e7fe	-0.00010724364
145	0xb8d2fca5	-0.00010060639
146	0xb8cd2ff2	-9.784092e-05
147	0xb8f44e96	-0.000116494644
148	0xb8fee7aa	-0.000121548146
149	0xb8ef9521	-0.000114241855
150	0xb8fe84cc	-0.00012136399
151	0xb8fece68	-0.0001215011
152	0xb9016335	-0.00012339356
153	0xb8e9d5b2	-0.0001115011
154	0xb8d80091	-0.00010299788
155	0xb8bfae41	-9.140047e-05
156	0xb8df8d06	-0.00010659736
157	0xb8d7460f	-0.00010265048
158	0xb8cbc8d6	-9.717203e-05
159	0xb8da1c31	-0.00010400301
160	0xb8d6d1d4	-0.00010243399
161	0xb8c5d6d3	-9.433706e-05
162	0xba9cff0b	-0.0011977864
163	0xba968a7d	-0.0011485365
164	0xba778c9c	-0.00094432547
165	0xba86f627	-0.0010296748
166	0xba83bc59	-0.0010050639
167	0xba87287a	-0.0010311746
168	0xba7e129c	-0.0009692104
169	0xba83372c	-0.0010010949
170	0xba84c5ff	-0.0010129808
171	0xb9904eb8	-0.0002752447
172	0xb98f4042	-0.0002732296
173	0xb97ea126	-0.0002428336
174	0xb9d8b623	-0.00041334433
175	0xb9cd9287	-0.00039209818
176	0xb9b63623	-0.0003475408
177	0xb9fe4321	-0.0004849667
178	0xb9f8bea2	-0.0004744428
179	0xb9f33f07	-0.0004639553
180	0x38e90515	0.000111112524
181	0x38e9dba1	0.00011151215
182	0x38ed2a2c	0.00011308896
183	0x38b1a857	8.4713734e-05
184	0x38a40beb	7.822349e-05
185	0x38e83cc9	0.00011073944
186	0x38041016	3.1486234e-05
187	0x38419bc8	4.615987e-05
188	0x3888732d	6.5064385e-05
189	0xbae20c6f	-0.0017246137
190	0xbadf9e4d	-0.0017060727
191	0xbab5fe5c	-0.0013885009
192	0xbace49dd	-0.0015738566
193	0xbb1f197e	-0.002427667
194	0xba8902a0	-0.0010453053
195	0xbb7a7a01	-0.0038219693
196	0xbb6a6f4e	-0.003577191
197	0xbb07cdef	-0.0020722111
198	0xba4eb504	-0.000788525
199	0xba71cf39	-0.0009224299
200	0xba0b52d4	-0.00053147716
201	0xba842413	-0.0010081552
202	0xba895574	-0.0010477738
203	0xba3c37de	-0.0007179956
204	0xbaf83ea5	-0.0018939568
205	0xbab9d004	-0.0014176373
206	0xbad96d4c	-0.0016588359
207	0x38d8b1ed	0.00010332824
208	0x38af8eb4	8.371231e-05
209	0x389e3eb3	7.545706e-05
210	0x38bfa3be	9.138089e-05
211	0x38a832e1	8.020341e-05
212	0x38aade26	8.14761e-05
213	0x38baf08a	8.913975e-05
214	0x38c60da4	9.4439165e-05
215	0x38d33633	0.000100713594
216	0x38e0020d	0.00010681534
217	0x390027d2	0.00012221865
218	0x3918f590	0.00014587329
219	0x38b4a585	8.613899e-05
220	0x38c95029	9.599358e-05
221	0x39015ca5	0.00012336911
222	0x38a075fe	7.651372e-05
223	0x38cc772d	9.749676e-05
224	0x38e8e79a	0.00011105761
225	0x374cd2b7	1.2208408e-05
226	0x3794e537	1.7749711e-05
227	0x37fee524	3.0385861e-05
228	0x36f80abd	7.392226e-06
229	0x35ade29b	1.2955455e-06
230	0x35cb3685	1.5140546e-06
231	0x36993004	4.565345e-06
232	0xb698e79b	-4.5569154e-06
233	0xb6875c5d	-4.034066e-06
234	0x38595fec	5.1826166e-05
235	0x37bdaaa1	2.2610011e-05
236	0xb5825a6e	-9.712073e-07
237	0x38bb5ae2	8.933783e-05
238	0x3884fadd	6.3409774e-05
239	0x382cad9e	4.116969e-05
240	0x38fbfd40	0.00012015784
241	0x38cfee19	9.914878e-05
242	0x3892190e	6.966489e-05
243	0xb9d6fe56	-0.00041006756
244	0xb9d95658	-0.00041453796
245	0xb9d56cf6	-0.00040707708
246	0xb9df053d	-0.00042537777
247	0xb9e0f9ca	-0.00042910717
248	0xb9de9273	-0.00042452253
249	0xb9e42977	-0.00043518443
250	0xb9e6c116	-0.0004401288
251	0xb9e49189	-0.0004359598
252	0xb995aa9d	-0.0002854661
253	0xb9925f5f	-0.00027918347
254	0xb990c1f1	-0.00027610318
255	0xb99a4898	-0.00029427256

conv1.bias f4 [12]
0	0xbc64eb00	-0.013972044
1	0xbaf0b99e	-0.0018365865
2	0xb8879b75	-6.466258e-05
3	0x3ce44082	0.027862791
4	0x3df99806	0.12187199
5	0xb9aac68d	-0.0003257286
6	0xbbc0b8b7	-0.0058813947
7	0xba972b31	-0.0011533258
8	0xbaa1bb1c	-0.0012339088
9	0xba442627	-0.0007482492
10	0x3c9179a7	0.017758204
11	0xbe78d774	-0.24300939

conv2.weight f4 [12, 12, 3, 3]
0	0xb73a3b3d	-1.1100256e-05
1	0x37099f37	8.202906e-06
2	0xb75116f1	-1.2462712e-05
3	0x36acc8ab	5.1493603e-06
4	0xb60de75f	-2.1145313e-06
5	0xb66d4dca	-3.5361031e-06
6	0xb6749fdb	-3.6451881e-06
7	0xb739eb44	-1.1081636e-05
8	0xb69d9db3	-4.697323e-06
9	0x3690d632	4.31647e-06
10	0x359c1f6f	1.1632054e-06
11	0xb68cfc3e	-4.20169e-06
12	0x360a1366	2.0574894e-06
13	0x3648d23f	2.9924702e-06
14	0xb60a1934	-2.0578273e-06
15	0xb45b2d9f	-2.0412561e-07
16	0x3602d292	1.9494078e-06
17	0xb6853a28	-3.970479e-06
18	0xb6382d37	-2.7444455e-06
19	0xb65b6fa2	-3.2698522e-06
20	0xb5b0c99d	-1.3171699e-06
21	0xb5b18f47	-1.3229227e-06
22	0xb62a2a8e	-2.5356744e-06
23	0xb606848f	-2.0044715e-06
24	0xb622c034	-2.4251758e-06
25	0xb5cf52cf	-1.5446802e-06
26	0xb64cdc8b	-3.0526742e-06
27	0xb8309132	-4.2096894e-05
28	0xb833c41a	-4.285956e-05
29	0x3806f7ed	3.217899e-05
30	0x39009ccd	0.00012265444
31	0xb8b91929	-8.826174e-05
32	0xb7205056	-9.555448e-06
33	0xb79b7ad2	-1.8534633e-05
34	0xb7051b6a	-7.933801e-06
35	0x383f1e9a	4.556645e-05
36	0x3949cf7e	0.0001924615
37	0x38dd240f	0.000105448176
38	0xb8bd7b14	-9.0351474e-05
39	0x394cb2f4	0.00019521621
40	0x39383aa4	0.00017569453
41	0x385be585	5.2427426e-05
42	0x392f6117	0.0001672547
43	0x395d940a	0.00021131351
44	0x39063a47	0.00012800946
45	0x369a4d02	4.5985225e-06
46	0x3618db95	2.2777579e-06
47	0x36237def	2.4362196e-06
48	0x3638c5b3	2.7533213e-06
49	0x363af246	2.7857182e-06
50	0x36216b96	2.4053493e-06
51	0x360315e3	1.953326e-06
52	0x35fc1f2d	1.8784536e-06
53	0x361549cc	2.2245686e-06
54	0xb6caa9f8	-6.039856e-06
55	0x3688be9d	4.075306e-06
56	0x36b275b1	5.3185145e-06
57	0xb66e0cd0	-3.5472221e-06
58	0x364a21f5	3.0120111e-06
59	0x361f08db	2.3698e-06
60	0xb644e1de	-2.9337748e-06
61	0x34914a1a	2.706227e-07
62	0xb3d52595	-9.9254216e-08
63	0xb688b450	-4.074107e-06
64	0xb6a6fe30	-4.976777e-06
65	0xb6bb2b65	-5.578086e-06
66	0xb719c716	-9.165864e-06
67	0xb6221201	-2.415036e-06
68	0x37080fed	8.10994e-06
69	0x35f60379	1.8329439e-06
70	0xb6a88f0d	-5.0234435e-06
71	0x36520fdb	3.1301668e-06
72	0x36812372	3.848626e-06
73	0x36b3fb4e	5.3638714e-06
74	0x37223183	9.66748e-06
75	0x372b6d4c	1.0217842e-05
76	0x37547dd4	1.2665481e-05
77	0x37250c6b	9.837658e-06
78	0x3723c134	9.760541e-06
79	0x3760b1c7	1.3392832e-05
80	0x37673443	1.3780841e-05
81	0x3687774d	4.037202e-06
82	0xb6937423	-4.3944615e-06
83	0x36786213	3.7011966e-06
84	0x358e766c	1.061429e-06
85	0x3690900d	4.308304e-06
86	0xb69adb68	-4.6151e-06
87	0x364299c8	2.8997765e-06
88	0x369ff46a	4.767023e-06
89	0xb650e48c	-3.1127447e-06
90	0x3a350e68	0.0006906749
91	0x39ccfaef	0.00039096872
92	0xb88dc9cc	-6.7609915e-05
93	0x3a254b70	0.00063054916
94	0x3a078a0c	0.0005170412
95	0x390cc03c	0.00013423053
96	0x39391268	0.00017649832
97	0x3984dd61	0.00025341942
98	0x396d5beb	0.00022636323
99	0x38d7e662	0.00010294911
100	0xb8684ac2	-5.5382734e-05
101	0xb82846b5	-4.0120172e-05
102	0x37d6ce51	2.5606862e-05
103	0xb857a389	-5.14123e-05
104	0x37060990	7.989249e-06
105	0xb9359920	-0.00017318549
106	0xb798d302	-1.821807e-05
107	0x38b0b80f	8.4266176e-05
108	0x3ae876ca	0.0017735597
109	0xba8c9a49	-0.0010727133
110	0xba3994b9	-0.00070793513
111	0x3ad914b1	0.0016561953
112	0x3ad8db14	0.0016544783
113	0x3b1a0116	0.0023499182
114	0xb9d37db1	-0.00040338704
115	0xba2187ee	-0.00061619177
116	0x3bb45eda	0.0055044712
117	0xb97c4480	-0.00024058111
118	0xb8a7be39	-7.998612e-05
119	0xb6bb83f8	-5.5883975e-06
120	0xb9a959d1	-0.0003230111
121	0xb91d5574	-0.0001500452
122	0xb758c89d	-1.2921312e-05
123	0xb9892e47	-0.00026165156
124	0xb92cb464	-0.00016470399
125	0x36e211b7	6.737387e-06
126	0x37061e23	7.994039e-06
127	0x3612f9cc	2.1901096e-06
128	0x3686d180	4.0179e-06
129	0x36dacaa4	6.5204968e-06
130	0x376e1120	1.4189893e-05
131	0x37242c8e	9.785535e-06
132	0x375d9c1b	1.3208973e-05
133	0x3677546c	3.6855008e-06
134	0x3690c3b6	4.314318e-06
135	0xbbb76788	-0.0055970587
136	0x3ae8fcd5	0.0017775545
137	0x3c05ef66	0.008174753
138	0xbb7d56b9	-0.0038656427
139	0xbaf63e3c	-0.0018786858
140	0x3c0c42f1	0.008560882
141	0xbb60f655	-0.0034326513
142	0xbb119aab	-0.0022217433
143	0x3c00dc38	0.007865004
144	0x3c726262	0.014793964
145	0xbd5005a8	-0.050786644
146	0xbd566be4	-0.052348986
147	0x3d1f6c58	0.038921684
148	0xbcca94eb	-0.024729213
149	0xbd4794ec	-0.048726007
150	0x3da3c7ae	0.0799707
151	0x3d3d9115	0.04628094
152	0x3d07745b	0.03306995
153	0x3868bba1	5.5487853e-05
154	0x3778cf0d	1.483016e-05
155	0xb849b15e	-4.808732e-05
156	0x3887dd2f	6.4785e-05
157	0x38487878	4.779591e-05
158	0xb797d93d	-1.8101762e-05
159	0x3863fce6	5.4356547e-05
160	0x38480e30	4.769693e-05
161	0x356c9ce2	8.8145146e-07
162	0xb60763ca	-2.0174652e-06
163	0xb6067165	-2.003356e-06
164	0x33e00e8a	1.04334575e-07
165	0x35e318fa	1.6920087e-06
166	0x35f90311	1.8552838e-06
167	0xb5106271	-5.378743e-07
168	0x35e2d1a4	1.6899326e-06
169	0x357c4936	9.398385e-07
170	0xb4241acb	-1.5283437e-07
171	0xb5ae2a8c	-1.2976393e-06
172	0xb573cf0d	-9.082585e-07
173	0x3500ae10	4.793701e-07
174	0x35f3db87	1.8168802e-06
175	0x358ad2c5	1.0343143e-06
176	0x35734d75	9.063727e-07
177	0xb4c1165b	-3.5965317e-07
178	0x359df576	1.176885e-06
179	0xb5561e1e	-7.976504e-07
180	0xb826ec7e	-3.9797735e-05
181	0x3a1f6859	0.00060809177
182	0xb8b40737	-8.584413e-05
183	0x395788f3	0.00020555015
184	0x39bcbd30	0.0003599911
185	0x39ca0aee	0.00038536586
186	0x3a1c6270	0.0005965596
187	0xb8bd33bb	-9.021858e-05
188	0x398d3d65	0.00026939358
189	0xb8b2ede3	-8.532011e-05
190	0xb71376f5	-8.78958e-06
191	0x378c0a1a	1.6694004e-05
192	0xb8d72ed0	-0.000102607184
193	0xb8565378	-5.1099312e-05
194	0xb7cabf77	-2.4169434e-05
195	0xb8b811aa	-8.777094e-05
196	0xb880611d	-6.1216044e-05
197	0xb8a82925	-8.018528e-05
198	0x3e58e96f	0.21182798
199	0xbd161819	-0.036644075
200	0xbe0226fc	-0.12710184
201	0x3e9a80f3	0.30176505
202	0x3ddc441b	0.107551776
203	0xbcc07500	-0.02349329
204	0x3e87d0d0	0.265265
205	0x3e1f65e1	0.15566207
206	0x3e1089e2	0.14115098
207	0x3b5babf3	0.0033519238
208	0x3b88ae22	0.004171149
209	0xbdd6ed6b	-0.10494503
210	0x3d333738	0.043753833
211	0x3d46ca22	0.048532613
212	0xbdd647e8	-0.10462934
213	0x3d04ef15	0.03245457
214	0x3d98e008	0.074646056
215	0xbde01379	-0.10941214
216	0x3af7ec90	0.0018915106
217	0x3a19370f	0.0005844691
218	0x3a85d36c	0.0010210103
219	0xba64b6af	-0.0008724732
220	0xbaebb624	-0.0017983359
221	0xbae68b71	-0.0017589164
222	0xba397276	-0.0007074246
223	0xbab49dbf	-0.0013779922
224	0xbae0fb32	-0.0017164706
225	0xba428774	-0.0007420697
226	0x3a9bbb06	0.0011881299
227	0x38f6e309	0.00011772483
228	0xb9b0dc29	-0.00033733368
229	0x39b745e1	0.00034956544
230	0xb9a17774	-0.00030797313
231	0x3ab0d2ce	0.0013490559
232	0x3aa90ee4	0.0012898115
233	0xb8f50fd1	-0.000116854564
234	0x3782cbff	1.55922e-05
235	0x370580bb	7.95739e-06
236	0x36f4491a	7.280277e-06
237	0x38f2244c	0.0001154622
238	0x3635179d	2.6984846e-06
239	0x379d7eee	1.8774965e-05
240	0x36fabaac	7.472312e-06
241	0x37c7a505	2.3799492e-05
242	0x36b21f2c	5.3084423e-06
243	0xbbef883e	-0.0073099425
244	0xbb80a013	-0.0039253323
245	0xba4326ab	-0.00074444216
246	0xbb823745	-0.003973874
247	0xbb5d4556	-0.0033763251
248	0xb7b6e60a	-2.1803211e-05
249	0xbb1bfe3c	-0.0023802659
250	0xbb2ed573	-0.0026677519
251	0xba53ead3	-0.0008084003
252	0x3d7f631e	0.062350385
253	0x3d8c3bbd	0.06847332
254	0x3dada0d6	0.08477943
255	0x3c15d059	0.009143912

conv2.bias f4 [12]
0	0x3899f953	7.342049e-05
1	0xbc53ba30	-0.0129228085
2	0x3e076c34	0.1322487
3	0xbdf38ab8	-0.11891693
4	0x3ca832d8	0.020532057
5	0x3e26e464	0.16298062
6	0xbd1d3b79	-0.038386796
7	0xbe115223	-0.14191489
8	0x3eb26d1e	0.34848875
9	0x3ebaca24	0.36482346
10	0xbdc2e44b	-0.095162
11	0x3ee0e8b7	0.43927547

conv3.weight f4 [4, 12, 3, 3]
0	0xb7ad4320	-2.0654465e-05
1	0xb73b2ab0	-1.11560075e-05
2	0xb68b1a55	-4.1455883e-06
3	0xb7f5be7f	-2.9294983e-05
4	0xb7b02016	-2.0995776e-05
5	0xb6d439df	-6.3248294e-06
6	0xb8007566	-3.0626914e-05
7	0xb7b9f702	-2.216874e-05
8	0xb7089be6	-8.14253e-06
9	0xbb93affc	-0.004507063
10	0xbb84f456	-0.0040574474
11	0xbb0eb67d	-0.0021776252
12	0xbbc130fe	-0.005895733
13	0xbbb3c0c2	-0.005485625
14	0xbb472087	-0.0030384378
15	0xbbc05bf9	-0.005870339
16	0xbbc801bc	-0.0061037224
17	0xbb68dfe4	-0.003553384
18	0x3b82d03d	0.003992109
19	0x3ab8227d	0.0014048364
20	0xb8f61e36	-0.00011735821
21	0x3bfd0ab2	0.0077222222
22	0x3b628b23	0.0034567795
23	0x3a72b1fa	0.0009258088
24	0x3c4ca114	0.012489576
25	0x3c0630fb	0.008190389
26	0x3b63f495	0.0034783233
27	0xbb600d72	-0.0034187702
28	0xbb659904	-0.0035033831
29	0xbb0a5e97	-0.002111351
30	0xbb92fa82	-0.0044854293
31	0xbb9350ee	-0.0044957316
32	0xbb431687	-0.0029768066
33	0xbb9fa7f8	-0.0048723184
34	0xbba2341b	-0.004950059
35	0xbb4654f8	-0.0030263048
36	0xb9ee1896	-0.00045413215
37	0x3881482d	6.164643e-05
38	0x39079303	0.0001292937
39	0xba12617c	-0.00055839843
40	0x38c0f965	9.201727e-05
41	0x3936666e	0.0001739503
42	0xba4ecd84	-0.00078889006
43	0xb9b1b628	-0.00033895788
44	0xb9b9e697	-0.00035457753
45	0x3a58332c	0.00082473713
46	0x3a219bd2	0.00061648816
47	0x39af1505	0.00033394262
48	0x3b4fb113	0.0031691238
49	0x3ae15677	0.0017191906
50	0x3a279f1d	0.0006394254
51	0x3b78e8f2	0.0037980643
52	0x3b19781e	0.0023417543
53	0x3ac16aa0	0.0014756508
54	0xb7fe17f9	-3.0290323e-05
55	0xb82f3a0d	-4.1777315e-05
56	0xb7a3f764	-1.9546314e-05
57	0xb835b6df	-4.3324075e-05
58	0xb84d5002	-4.895032e-05
59	0x36a8ea17	5.034042e-06
60	0xb81148e5	-3.4638582e-05
61	0xb84402c7	-4.6732628e-05
62	0x3660643d	3.3436947e-06
63	0xbae08b4b	-0.0017131356
64	0xbb408a67	-0.002937937
65	0xbaf0d7e8	-0.0018374892
66	0xbb3000e2	-0.0026855995
67	0xbb5d72a2	-0.003379025
68	0xbb38557f	-0.0028127132
69	0xbb2c79eb	-0.0026317786
70	0xbb66afc6	-0.0035199984
71	0xbb3c1c18	-0.0028703269
72	0xbab0c99c	-0.0013487819
73	0xba66190d	-0.00087775366
74	0xba1e5134	-0.0006039322
75	0xbaf9e981	-0.0019066782
76	0xba75db70	-0.0009378707
77	0xba22bf6a	-0.00062083325
78	0xbaebcdee	-0.0017990449
79	0xbac6d285	-0.0015168941
80	0xbaaf0822	-0.0013353864
81	0x3af318c9	0.0018546815
82	0x39c99a30	0.00038452586
83	0xb90d4588	-0.0001347271
84	0x3b865aa7	0.004100162
85	0x3a8c12f8	0.0010686805
86	0xb8efa684	-0.00011427424
87	0x3c0e8468	0.00869856
88	0x3babc7b4	0.0052423123
89	0x3b07889c	0.002068079
90	0x3b6721e8	0.0035268012
91	0x3b3e6455	0.0029051502
92	0x3af58fb0	0.0018734839
93	0x3b6deec5	0.0036305648
94	0x3b4cf2e6	0.0031272708
95	0x3ae6d176	0.0017610032
96	0x3b67a9d0	0.003534902
97	0x3b5a5f6e	0.003332104
98	0x3b09489d	0.0020947822
99	0x3b1fd8ae	0.0024390626
100	0x3acfaad5	0.0015843759
101	0x3a7b1ede	0.00095794897
102	0x3ba59db6	0.005054201
103	0x3b384925	0.002811977
104	0x3aa68329	0.0012703884
105	0x3c169156	0.009189924
106	0x3bc290ca	0.0059376704
107	0x3b24d32f	0.002515029
108	0xb8470de2	-4.7458227e-05
109	0xb92a2d0c	-0.00016229245
110	0xb9207eea	-0.00015306068
111	0x380c6d7b	3.3480563e-05
112	0xb908193f	-0.00012979376
113	0xb999f3ac	-0.00029363984
114	0x36d2ec35	6.285986e-06
115	0xb7b42fd4	-2.1479944e-05
116	0x37ad4370	2.065461e-05
117	0x3d440101	0.04785252
118	0x3d512796	0.051063143
119	0xbd82ffa4	-0.06396416
120	0x3d55c058	0.052185386
121	0x3d85e9a7	0.06538706
122	0x3d580b8e	0.052745394
123	0x3d3c6647	0.045995977
124	0x3d8ac84f	0.06776487
125	0x3e39aab1	0.1813152
126	0xbe153006	-0.145691
127	0xbe2af98e	-0.1669676
128	0xbd605ee4	-0.054777995
129	0xbc6392ba	-0.013889963
130	0xbe1a7755	-0.15084584
131	0xbe4b6a3c	-0.19864744
132	0xbe0522fe	-0.1300163
133	0xbdce845e	-0.10083841
134	0xbd232e8d	-0.039839316
135	0x3dc1b119	0.09457607
136	0x3d193c8d	0.03741126
137	0xbd81186a	-0.06303485
138	0x3db6d845	0.08927969
139	0x3d01adbf	0.031659838
140	0xbcab65a8	-0.020922497
141	0x3d9d1e38	0.076717794
142	0x3d53d8af	0.051720317
143	0x3dbbbb95	0.09166638
144	0xbb14fc07	-0.0022733228
145	0x3d01c75b	0.03168426
146	0x3cd1fdaf	0.025633661
147	0x3c051121	0.00812176
148	0x3caa3504	0.020777233
149	0x3d1a7f03	0.037718784
150	0xbb8b2161	-0.0042459224
151	0xbccd7d86	-0.025084268
152	0x398b8532	0.00026611384
153	0xbe03e411	-0.12879969
154	0xbd981423	-0.07425716
155	0x3d8d5fcc	0.069030374
156	0xbd3bb527	-0.045827057
157	0xbddc0310	-0.107427716
158	0xbc831af0	-0.016004056
159	0x3c4337c8	0.011915155
160	0xbd18289c	-0.037148103
161	0xbd2a0249	-0.041506086
162	0xb746998f	-1.1837473e-05
163	0xb6af3db1	-5.2225882e-06
164	0x36ea9b1f	6.991802e-06
165	0xb74f3bc9	-1.2352081e-05
166	0x361e09f2	2.3549624e-06
167	0xb6bd9df2	-5.651026e-06
168	0xb77da0c0	-1.5117403e-05
169	0xb7847a1a	-1.5792484e-05
170	0xb62fdc2b	-2.6205187e-06
171	0x3e7a7370	0.24458098
172	0x3e313d72	0.17308596
173	0xbe171e1d	-0.14757581
174	0x3e4cca49	0.1999904
175	0x3dd0f763	0.10203435
176	0x3c83fd89	0.016112106
177	0x3e6903a5	0.22755297
178	0x3dfaa28d	0.12238035
179	0x3e08c444	0.1335612
180	0xbb16db4d	-0.0023018897
181	0x3b7b7ef3	0.0038375228
182	0xbd8b31ac	-0.067965835
183	0x3df8f4c8	0.12156063
184	0x3dddd0d5	0.10830847
185	0x3df0f1f3	0.11764898
186	0x3d35b461	0.044361476
187	0x3c59e4eb	0.013299207
188	0x3d1c5601	0.038167957
189	0xbe2f78cf	-0.17135929
190	0xbe346ff8	-0.17620838
191	0xbbb9f152	-0.0056745196
192	0xbd8186b7	-0.06324523
193	0xbe5ad28e	-0.21369383
194	0xbe1fc109	-0.15600981
195	0xbdbe4bdd	-0.092918135
196	0xbda2d945	-0.07951597
197	0x3bb2f2d4	0.0054610763
198	0x3d43f941	0.04784513
199	0x3bf98d09	0.0076156897
200	0xbced4fda	-0.02896874
201	0x3d3ce09c	0.04611264
202	0x3c4261a9	0.011864104
203	0xbcad8ecc	-0.021186255
204	0x3d2b48bb	0.041817408
205	0x3cecbc93	0.028898513
206	0x3d21a353	0.0394624
207	0xbdab66db	-0.083692275
208	0xbdb0c251	-0.08630813
209	0x3da73372	0.08164109
210	0xbd0b2696	-0.033972345
211	0xbe1378ff	-0.14401625
212	0xbd3e384b	-0.046440404
213	0x3b2bd57d	0.0026219778
214	0xbb1cd5f9	-0.0023931249
215	0x3d456c23	0.04819883
216	0x3736eca5	1.0903143e-05
217	0xb87c27aa	-6.0118422e-05
218	0xb882fa6e	-6.245529e-05
219	0x37e4af86	2.7261452e-05
220	0xb8518cdc	-4.996067e-05
221	0xb861b95c	-5.381681e-05
222	0x380efa2b	3.4088425e-05
223	0xb7743613	-1.45561235e-05
224	0xb7d6a94f	-2.5589628e-05
225	0xbc4b86c3	-0.012422266
226	0xbc8b7f87	-0.017028583
227	0xbc90e1f2	-0.017685864
228	0xbc188db0	-0.009311125
229	0xbc60d099	-0.013721609
230	0xbc72e27a	-0.014824504
231	0xbc166788	-0.009179957
232	0xbc35add4	-0.011088807
233	0xbc3dafd9	-0.01157757
234	0xbc98c4c0	-0.018648505
235	0xbcc89179	-0.02448343
236	0xbce366bc	-0.027758949
237	0xbc529045	-0.012851779
238	0xbc90e231	-0.017685981
239	0xbcb2bb2a	-0.021817762
240	0xbc369663	-0.011144253
241	0xbc5c6d26	-0.013453757
242	0xbc8536f0	-0.016261548
243	0xbc68599f	-0.014181524
244	0xbc74afa5	-0.014934455
245	0xbc7036a2	-0.014661463
246	0xbc48b75a	-0.012250746
247	0xbc558e50	-0.013034418
248	0xbc5ad8ef	-0.013357385
249	0xbc40906d	-0.011753184
250	0xbc4210bf	-0.011844813
251	0xbc425e0e	-0.011863245
252	0xbbc62f2b	-0.0060481033
253	0xbb8bba21	-0.0042641317
254	0xbb410628	-0.0029453132
255	0xbbdf9f5d	-0.0068244175

conv3.bias f4 [4]
0	0xbbea9e28	-0.007159967
1	0x3dac9353	0.08426537
2	0xbcafd1ca	-0.02146234
3	0x3ec7962c	0.3898176

fc1.weight f4 [24, 64]
0	0xb8111325	-3.4588524e-05
1	0xb7e3ed4d	-2.717101e-05
2	0xb7ff62db	-3.0444402e-05
3	0xb78de7c0	-1.6916427e-05
4	0xb8037bf8	-3.134829e-05
5	0xb74bce79	-1.2147816e-05
6	0xb71ace63	-9.227168e-06
7	0xb8325910	-4.2521453e-05
8	0xb83e085b	-4.530731e-05
9	0xb71debec	-9.412859e-06
10	0xb771c558	-1.4410667e-05
11	0xb811b381	-3.473787e-05
12	0xb7b9bdd6	-2.2142118e-05
13	0xb82a5d5c	-4.0618106e-05
14	0xb81e600e	-3.7759593e-05
15	0xb817d285	-3.6197267e-05
16	0xba8924c0	-0.0010463223
17	0xba91c337	-0.0011120801
18	0xbab1f52b	-0.0013577094
19	0xbabab56b	-0.0014244741
20	0xb8a50000	-7.867813e-05
21	0xbab633d6	-0.0013900946
22	0xbaef744a	-0.001826891
23	0xbb8bd21d	-0.004266991
24	0x3a8f1db7	0.001091889
25	0x389b3d66	7.402412e-05
26	0xba565abd	-0.0008176973
27	0xbb0d304e	-0.0021543684
28	0x3a3d4aac	0.0007220905
29	0x3a309640	0.0006736256
30	0xb94c2fdd	-0.00019472787
31	0xbb0b2e09	-0.0021237156
32	0x38ce657f	9.8417506e-05
33	0x39853d1a	0.0002541326
34	0x393fcdd8	0.00018291862
35	0xb9436471	-0.00018634067
36	0xb90d0829	-0.00013449848
37	0xb9acaca4	-0.00032935024
38	0xb844ccb6	-4.6920693e-05
39	0x3962eb5c	0.00021640718
40	0xb854c050	-5.0723844e-05
41	0xb96aec04	-0.00022403902
42	0x383f7625	4.564798e-05
43	0xb9557789	-0.00020357793
44	0x386ae6c2	5.6004857e-05
45	0xb8c5866a	-9.4187286e-05
46	0xb908cfd7	-0.00013047397
47	0xb8a6f161	-7.960457e-05
48	0xbb47a84d	-0.0030465305
49	0xbb1d56ce	-0.0024008038
50	0xbb529f1f	-0.00321383
51	0xbb564b68	-0.0032698754
52	0xbae9c705	-0.0017835802
53	0xbb375cd9	-0.0027978926
54	0xbb620381	-0.0034486952
55	0xbb9f067b	-0.0048530675
56	0xbb0eb0d3	-0.0021772876
57	0xbb41b645	-0.0029558104
58	0xbb8ea4e7	-0.004353154
59	0xbb9d38d6	-0.004798035
60	0xbb32b164	-0.0027266378
61	0xbb2c575b	-0.0026297185
62	0xbb3007ff	-0.0026860235
63	0xbb7c91d6	-0.0038539073
64	0x37bc0edd	2.2418268e-05
65	0x388018ff	6.1081715e-05
66	0x37f0c3b2	2.8701357e-05
67	0xb7b329da	-2.1357951e-05
68	0x38181d98	3.6267185e-05
69	0x3842b234	4.641917e-05
70	0x380f62c5	3.4185843e-05
71	0xb6e2c87a	-6.7586634e-06
72	0x38a9aa6f	8.090294e-05
73	0x38ac95b2	8.229482e-05
74	0x382a513d	4.0606817e-05
75	0xb65717a3	-3.2051255e-06
76	0x38737a99	5.8049893e-05
77	0x387fd737	6.0997172e-05
78	0x3634f7dd	2.6966366e-06
79	0xb7eb5e74	-2.8058166e-05
80	0xbac975d9	-0.0015370204
81	0xbb490041	-0.0030670317
82	0xbb525a04	-0.003209711
83	0xba2dafaf	-0.0006625605
84	0xb9f1e607	-0.00046138486
85	0xba875edf	-0.0010327956
86	0x39c24040	0.00037050433
87	0xba7bfec4	-0.0009612853
88	0xbafb849b	-0.00191893
89	0xbaa83ebd	-0.001283608
90	0x39fce113	0.0004823288
91	0xba6067ba	-0.00085603783
92	0x394f149c	0.00019748736
93	0xbadc2e2b	-0.0016798427
94	0xb92f9394	-0.00016744278
95	0x391686a0	0.00014355266
96	0x389d703a	7.507247e-05
97	0x38a948ec	8.072131e-05
98	0x38563e84	5.1079798e-05
99	0xb830c1fd	-4.2142336e-05
100	0x37eeee01	2.848264e-05
101	0xb6c31354	-5.813703e-06
102	0x37ed5f9f	2.8297129e-05
103	0x38239d29	3.9008595e-05
104	0x378cff1c	1.6808095e-05
105	0xb5cc7547	-1.5233317e-06
106	0x38073ab1	3.224117e-05
107	0x38b6ea29	8.722052e-05
108	0x3814c569	3.5469802e-05
109	0x38837290	6.267906e-05
110	0x388262e5	6.2173036e-05
111	0x3794c21f	1.773337e-05
112	0xbbdfb959	-0.006827515
113	0xbbda8ea4	-0.006669836
114	0xbb9b78e5	-0.0047446364
115	0xbb344fdc	-0.002751342
116	0xbb882fb3	-0.004156077
117	0xbbfda612	-0.0077407444
118	0xbc07a7f4	-0.008279789
119	0xbb8e32ae	-0.0043395376
120	0xbb72114e	-0.0036936584
121	0xbc19bd19	-0.009383463
122	0xbc19694b	-0.009363483
123	0xbb88a574	-0.004170114
124	0xbb409a25	-0.0029388752
125	0xbbac54a5	-0.005259114
126	0xbbb1df34	-0.005428219
127	0xbb7fd31b	-0.003903574
128	0xb70a6bda	-8.250552e-06
129	0xb6bac540	-5.566195e-06
130	0xb5941d15	-1.1035323e-06
131	0x348bc6d2	2.6035428e-07
132	0x3599a37c	1.1446969e-06
133	0x35c73fd0	1.4845227e-06
134	0x35950ff0	1.1106004e-06
135	0xb680e75a	-3.84163e-06
136	0xb5d5aa5b	-1.5919317e-06
137	0xb63b7a32	-2.7936298e-06
138	0xb6f3f8f0	-7.2709445e-06
139	0xb79825a3	-1.8137338e-05
140	0x36cc556e	6.089619e-06
141	0x3380ce07	5.9979406e-08
142	0x36112f9e	2.16344e-06
143	0xb72a79cb	-1.0161147e-05
144	0xba90f281	-0.00110586
145	0xb9ab36f9	-0.0003265662
146	0x3986d548	0.0002571738
147	0xbac57fbe	-0.0015067977
148	0x3a8696f8	0.0010268381
149	0x3aa5a066	0.0012636303
150	0x3a86d058	0.001028548
151	0xba68caf3	-0.00088803394
152	0x39fdef8a	0.0004843439
153	0xbac46a1e	-0.0014985239
154	0xb9f7a86c	-0.00047236995
155	0x396a5de6	0.00022350959
156	0xba77a22d	-0.00094464683
157	0x39776c7d	0.0002359617
158	0xbab14d50	-0.0013527069
159	0xbada2275	-0.0016642349
160	0x3687a8bb	4.0429563e-06
161	0x36ba75ee	5.556961e-06
162	0xb6b70b63	-5.4551506e-06
163	0xb5ee7bf5	-1.7768458e-06
164	0x37654bc5	1.3667105e-05
165	0x3784174c	1.5746475e-05
166	0xb53b2a00	-6.9724047e-07
167	0x362f521e	2.612483e-06
168	0x36bc86bc	5.6185218e-06
169	0xb5c2ff10	-1.4528359e-06
170	0x35c01d50	1.4313646e-06
171	0x37022f9d	7.75969e-06
172	0xb6645e04	-3.4029372e-06
173	0x37124733	8.7188555e-06
174	0x372c6c2a	1.0277183e-05
175	0x36962eea	4.47581e-06
176	0xb96ca1f6	-0.00022567049
177	0xb9907780	-0.00027554855
178	0xb96738dc	-0.00022051058
179	0xb9b94755	-0.00035339096
180	0xb9a284f0	-0.00030998094
181	0xb9524f77	-0.00020056764
182	0xb98058b5	-0.00024480154
183	0xb9121554	-0.0001393159
184	0xb9874b05	-0.000258051
185	0xb97f95c1	-0.00024374483
186	0xb92b05cb	-0.00016309989
187	0xb8789ec3	-5.9275666e-05
188	0xb70a847e	-8.256289e-06
189	0xb9ad7e6b	-0.0003309132
190	0xb9ade923	-0.00033170832
191	0xb9066b24	-0.00012819149
192	0xb6e07c4f	-6.6901916e-06
193	0x36deb01e	6.6366183e-06
194	0xb769efe2	-1.3943734e-05
195	0x371138a0	8.6558575e-06
196	0x37249430	9.809664e-06
197	0xb728249f	-1.0022107e-05
198	0x374a9000	1.2073666e-05
199	0xb72a531d	-1.0152141e-05
200	0x37372d3b	1.0918181e-05
201	0xb7b5a8cb	-2.1655482e-05
202	0xb75973b5	-1.2961148e-05
203	0xb718e9e4	-9.114363e-06
204	0xb7242169	-9.782941e-06
205	0x370b14d6	8.289897e-06
206	0xb700e917	-7.683665e-06
207	0xb6d7258f	-6.4118717e-06
208	0x38fc757b	0.00012038179
209	0x3998877a	0.00029092637
210	0xb91aa51a	-0.0001474809
211	0xbb1aecea	-0.0023639747
212	0x3a819d2f	0.0009888763
213	0xb9796159	-0.00023782755
214	0x3a6922c9	0.0008893428
215	0x366792ae	3.4507061e-06
216	0x3a094725	0.00052367366
217	0x3835664e	4.324904e-05
218	0xb858c6c5	-5.168353e-05
219	0x3a238bda	0.0006238796
220	0x3990b571	0.00027601005
221	0x3aa19793	0.0012328498
222	0x39d6927f	0.0004092641
223	0x3ac1e8d9	0.0014794125
224	0xb49f4fba	-2.9674067e-07
225	0xb6917ffb	-4.3362356e-06
226	0xb72e4164	-1.0386433e-05
227	0xb70995cd	-8.200715e-06
228	0x36bf4ed2	5.7014195e-06
229	0x3713dee3	8.813778e-06
230	0x36846880	3.946072e-06
231	0xb70b7164	-8.311446e-06
232	0xb70e1765	-8.4693065e-06
233	0x368060f8	3.825986e-06
234	0xb6801cb1	-3.8180374e-06
235	0xb638ac11	-2.7518292e-06
236	0x34fe8d39	4.741394e-07
237	0xb46892b0	-2.1660048e-07
238	0xb69280e9	-4.366146e-06
239	0xb6cc87d6	-6.095487e-06
240	0xb932dd2f	-0.000170578
241	0xb9409e42	-0.00018369503
242	0xb950fb0f	-0.00019929952
243	0xb904689b	-0.0001262747
244	0xb922f0ce	-0.0001553923
245	0xb9b9f584	-0.00035468873
246	0xb9e3ac15	-0.00043425025
247	0xb91b44a5	-0.00014807524
248	0xb9901d23	-0.0002748753
249	0xba023854	-0.00049675
250	0xba0a6440	-0.00052792206
251	0xb9118524	-0.00013877876
252	0xb91ab564	-0.00014754158
253	0xb93b23ec	-0.00017847092
254	0xb94ddfd9	-0.00019633713
255	0xb8adb1ea	-8.282422e-05

fc1.bias f4 [24]
0	0xb9cbe125	-0.00038886923
1	0xbabe6bca	-0.0014527973
2	0xb8b10e52	-8.442685e-05
3	0xb91e5498	-0.00015099568
4	0x3da1d755	0.079023995
5	0xbce6188f	-0.028087882
6	0x3d2bc511	0.041935984
7	0x3d83531f	0.064123385
8	0xbd00205f	-0.03128087
9	0x3bfc3561	0.007696793
10	0xbd121ce8	-0.0356721
11	0x374f1cc4	1.2344859e-05
12	0xbcdac9f2	-0.026707623
13	0xbcf0b331	-0.02938232
14	0x3dacec91	0.08443559
15	0xb79c22cd	-1.8612855e-05
16	0xb7460a6e	-1.1804148e-05
17	0x376ca48d	1.4105009e-05
18	0xb914311a	-0.00014132672
19	0xba04f43b	-0.00050717936
20	0x3b2bc6ea	0.0026211091
21	0x3cac2397	0.021013064
22	0x3b3ea38c	0.002908918
23	0x39bc6fb8	0.0003594139

fc2.weight f4 [1, 24]
0	0xbbfb0219	-0.007660162
1	0xbc76e2c8	-0.015068717
2	0x39c81904	0.0003816561
3	0xb9a8568f	-0.00032107948
4	0xbeff2d66	-0.49839324
5	0x3ef3e7e3	0.47637853
6	0x3f1d1328	0.61357355
7	0xbef4f2a6	-0.47841376
8	0x3ea333b9	0.318754
9	0xbeb9c1f2	-0.3628078
10	0x3ebdbd80	0.3705864
11	0x3a0ee49b	0.0005450935
12	0x3f08121e	0.53152645
13	0x3e98cfa7	0.29845926
14	0xbf07ac1f	-0.5299701
15	0xb9a46419	-0.00031355096
16	0x37aaff59	2.0384485e-05
17	0x396507af	0.00021842004
18	0x3a8032fe	0.0009780822
19	0xbb33dbcc	-0.0027444242
20	0xbde4ede9	-0.1117819
21	0xbea52620	-0.3225565
22	0xbdb3fe14	-0.08788696
23	0xbc9edd88	-0.019392744
