ball_detection/candidate_classifier/weights_one_size_crop.pt (torch_old, 70095 bytes, 10 tensors)

conv1.weight f4 [20, 3, 3, 3]
00000000: ecf9 0abe 843a bcbe 8f69 efbc 697e 9dbe
00000010: c2bd 33bf 06a9 d9be 5ef6 37be 3ce3 c4be
00000020: 35a0 0bbf deb7 ab3c 606c 033e 7f17 a23e
00000030: 89b9 a33e 42a1 40bd 753c 46bd 555f d5bc
00000040: a754 eebc 5d92 c53d 3b60 27be dacd 2f3d
00000050: fb06 cb3e 5c14 a63e 5deb 963e 0588 683e
00000060: b08e e03c 8a0b f1bc 37d2 2e3e f4a2 3e3d
00000070: 2a15 a9bd 7fe8 373e a1b6 8cbe a53d 863d
00000080: 4b7a 20be 9e3b 4a3e 448d 1a3e f623 563e
00000090: 8c95 243c 323a 2ebc 2c59 20be de52 ccbd
000000a0: e68d ecbd c792 dcbe 2b4d 8abd 9fe3 153e
000000b0: 7f2a 553e a48a ceb9 8595 c23a 0fae 803e
000000c0: 6c06 00bf 1262 dbbd fb33 d1be ee54 b5bd
000000d0: c994 b7be f544 843d 44cc 7d3e 47a4 ae3e
000000e0: 220f 4abe 194f 123e b863 903d 6a42 1b3e
000000f0: ccee c93d 3073 553e aaa3 f1be fdec abbe
00000100: c7bb debe ef4f b9be 8c06 a6be ed3f 8abe
00000110: 6100 e8bb b0e4 67be b4a1 55bd 1b12 34bf
00000120: 4664 b83e b1c7 d33e 85b1 d83e 44a2 84bd
00000130: fb84 023f 7f56 023f ed54 e23d 8e2f f93e
00000140: 42ea 59be 112d 0c3f 49e1 c2bd d710 13be
00000150: b309 153f 826c 483d 5e04 b0be dcad 3b3d
00000160: e91d fcbc dfcb 0fbe 1a9f 713e 724f 56bd
00000170: 6d83 be3d 5d07 0a3f f694 e4bd d578 73be
00000180: bccd 823d f1fe b7bd 8b0b a7be 8d0a a93e
00000190: 0feb 823d aa68 06be 950a 8e3e 90fd 74bd
000001a0: b00e e0be f180 8c3e dafa fa3c d982 94be
000001b0: 4f2c e6bd 3c45 7a3d b466 113f ec30 62be
000001c0: 12cf 60be 0d9b b53e cdd1 463d 9002 443d
000001d0: dd9b 413c 66ac 8abe 1bf2 d4be 6a21 443e
000001e0: 968f 15bf 43fc 21bf 1994 1abd 5a84 aebe
000001f0: 1063 acbe 376b f6bd 282f a13e 2611 4c3e
00000200: 8bb9 c43e 2864 75be 853b 86be 67ab e13e
00000210: 3bd2 943e 1bdb e93d 7aff 81bd 787f 973d
00000220: 5921 17bd a429 83bd d045 1e3e f2fc d63d
00000230: 7d70 ccbd 0e0e fdbd 6d0d 083e 6df4 b63d
00000240: 3f57 123e e5c2 3cbe fe7a 0dbd 0cee ebbd
00000250: 81e6 efbd 3728 d9bd cef4 7dbd fc4d 1f3e
00000260: 5cb0 0c3e cf8d bebc 0b82 6bbc 058a 813d
00000270: b03f 39be d661 b53d 1ab4 92bc 1b5e 4abe
00000280: 93c9 573e 6c11 2fbe f829 f2be 3d39 01bf
00000290: c3b4 c8be fd69 3dbf 7950 89be f6d2 85be
000002a0: 266e d5be f138 69be 6101 02bf f568 79bd
000002b0: ba06 953e 1522 ccbd 08fb e3bd 4a4f 603e
000002c0: 149d 383e bb58 17be d699 c73d db05 6a3d
000002d0: c589 173e c171 c13e 4a4e 6e3e de45 b93a
000002e0: 7c80 f63e f2db 983d 1d17 28bc 3de4 b43e
000002f0: 27f4 ba3e ee76 20be 92f9 91be aa52 dd3d
00000300: ec51 af3c d283 97be 1a89 aabe 42de 70be
00000310: fc1c 08bf 7de5 94be a9c2 acbd 6456 a6be
00000320: 9609 953e 46ae 773b fb56 7fbe 6a03 93be
00000330: 03b2 93be 9201 febe 8e99 8bbe 81ba 2b3d
00000340: 3c63 35be dd06 f93e 3723 0fbe fd6a 26be
00000350: 3156 4dbd 9bfb c3bd 0695 79be 5a40 90be
00000360: 4775 283e fe8f 4bbe 7beb 35be 27b3 5ebe
00000370: 6a08 3f3e f1df 0a3d f9c7 8b3e 4d6a 1d3d
00000380: 119b 19be 4e5a 29be eb40 07be 3826 a4be
00000390: c6e1 babe 63f2 be3d 4d4b 82bd 14b2 123e
000003a0: 74dd 20be 9019 2bbe 3a0c 963e 9378 5ebd
000003b0: a7de 8f3d 12cf 0fbf fb1f 063f fc64 323e
000003c0: 14ee e3be 8bf0 1abd 458a 39be 78a4 6e3d
000003d0: 9064 bd3c 9781 32be 4d61 de3d 26c8 11be
000003e0: 5182 86be 0ee5 63be e16e 06be 454a a0be
000003f0: 2b64 a73d 5130 1bbe 1822 86bd 47d8 043f
-0.135719 -0.36763394 -0.029225139 -0.30760506 -0.7021142 -0.42511767 -0.17965075 -0.38454616
-0.5454133 0.020961698 0.1283431 0.3165855 0.3197749 -0.047028787 -0.0483975 -0.026046434
-0.0290931 0.09647057 -0.16345303 0.042920925 0.39653763 0.32437408 0.29476443 0.22708137
0.027411789 -0.029424448 0.17072378 0.046542123 -0.0825599 0.17959784 -0.27483085 0.065547265
-0.15671651 0.19749305 0.15092951 0.20912156 0.01004542 -0.010633992 -0.15659016 -0.09976743
-0.115505025 -0.43080732 -0.06753 0.14637612 0.20816992 -0.00039394677 0.0014845586 0.25132796
-0.500098 -0.10712065 -0.4085997 -0.0885409 -0.35855702 0.06458465 0.24784952 0.3410971
-0.19732335 0.14287986 0.0705027 0.15162054 0.0986 0.20844722 -0.47195178 -0.33579245
-0.43502638 -0.36193797 -0.3242687 -0.27001897 -0.0070801233 -0.22645831 -0.052156165 -0.70340127
0.36014003 0.4136329 0.42322937 -0.06476262 0.5098416 0.5091323 0.110513546 0.48669094
-0.21280769 0.54756266 -0.09515626 -0.14361893 0.58217925 0.048931606 -0.34378332 0.045820102
-0.030775981 -0.14042614 0.23595849 -0.05232186 0.09302411 0.53917485 -0.111612245 -0.23776563
0.06386897 -0.08984173 -0.32625994 0.33015862 0.0639249 -0.13125864 0.27742448 -0.05981213
-0.43761206 0.27442124 0.030637193 -0.2900608 -0.1123892 0.061101183 0.5679734 -0.22088975
-0.21953991 0.35469857 0.048539925 0.047854006 0.011816946 -0.27084655 -0.41590962 0.19153371
-0.5842222 -0.63275546 -0.037738893 -0.3408535 -0.3366933 -0.12032168 0.3148129 0.19928417
0.38422808 -0.23963988 -0.26217285 0.44076082 0.29066643 0.11418744 -0.063475564 0.073973596
-0.036897037 -0.06404427 0.15456319 0.10497464 -0.09982393 -0.12356196 0.13286372 0.08933339
0.14291094 -0.18433721 -0.034541123 -0.11520013 -0.11713887 -0.106033735 -0.062001042 0.15557092
0.13739151 -0.023260979 -0.014374266 0.06325153 -0.18090701 0.08856551 -0.017908145 -0.19762461
0.21072988 -0.1709649 -0.47297645 -0.50477964 -0.3920041 -0.7398985 -0.26819208 -0.26137513
-0.416856 -0.22775628 -0.50783354 -0.06089111 0.29106694 -0.09967438 -0.11131865 0.21905246
0.1802867 -0.14779942 0.09746139 0.05713449 0.14798649 0.377821 0.23272052 0.0014135202
0.481449 0.07463826 -0.010259417 0.35330382 0.36514398 -0.15670368 -0.2851072 0.108067825
0.021401368 -0.29592758 -0.33307725 -0.23522285 -0.53169227 -0.29081336 -0.08435566 -0.32487786
0.29108876 0.0037793084 -0.24935524 -0.28713542 -0.2884675 -0.49610573 -0.2726559 0.04192591
-0.17713636 0.4863805 -0.13978277 -0.1625175 -0.050131027 -0.09569474 -0.24373254 -0.28174096
0.16450988 -0.19879147 -0.1776561 -0.21748029 0.18655553 0.033904973 0.27301005 0.038431454
-0.1500056 -0.16538355 -0.13208358 -0.3206041 -0.36500376 0.09323575 -0.06362019 0.14325744
-0.15709478 -0.1670897 0.29306203 -0.054314207 0.070248894 -0.5617534 0.5239255 0.17421335
-0.44517577 -0.037827056 -0.18119152 0.05826232 0.023119241 -0.17432247 0.108584024 -0.14236507
-0.262713 -0.22255346 -0.13128234 -0.31306663 0.081734024 -0.1515515 -0.065494716 0.51892513

conv1.bias f4 [20]
00000000: a290 58bc 3116 7b3d 9236 223e 2522 aebe
00000010: aa3b da3e 3bbb c0be 4c85 05be c991 303e
00000020: ffd2 863d 8aeb 5bbf 01b9 113e b0cc 56bd
00000030: 8d6a 633d 9abb cf3e f96c 3b3d 2599 ba3e
00000040: 336f 2cbd 1ff3 5dbd af23 843c 5d26 69bd
-0.013218077 0.06130046 0.1584113 -0.34010425 0.42623645 -0.37642846 -0.1303913 0.17243113
0.06583213 -0.8590628 0.1423073 -0.0524413 0.055521537 0.40572816 0.04575822 0.36444965
-0.042098235 -0.054186936 0.016130297 -0.05692135

conv2.weight f4 [20, 20, 3, 3]
00000000: 3fe2 4fbc fedd 263c a2fd 8c3e b668 353c
00000010: 8271 86bd d705 673e 83d4 b4bd 0001 26be
00000020: 6a5d 76be ba97 053d 007f b9bd 7488 1dbe
00000030: 7346 47bd 7e40 91be e520 69bd b6e6 6f3d
00000040: 5ee1 90bd 84c3 c9bd 77e1 e3bd 373a 0cbe
00000050: 9458 b43d 7419 5ebd fe99 37be 3178 013e
00000060: 0c5c 873c 34b7 9cbd bb12 893d f616 86be
00000070: ccdd a03e 95ce c4bd 7519 17be 0c85 d03e
00000080: 25d7 d73d 4928 38be 9758 6a3d b765 b63d
00000090: 190c f6bc 2ebd 02bf fc2f 8fbf 5118 113e
000000a0: 9fb5 81bf 9794 ac3d ccdf 8bbe 0c4a 94be
000000b0: b904 c5bc fb53 5f3e a49e 1e3e 5a18 64bd
000000c0: 82cf 5fbc d1d8 133d dc25 59bc 0056 ce3c
000000d0: 92b7 90bd d8c8 0fbe e6d1 083f e473 583e
000000e0: 8974 813d 3e71 c13e 30c5 32be 5658 863e
000000f0: ca4a 9cbe a880 c8be 2014 9c3d f2ad b4bd
00000100: 703c c73b 415f 243e 9c2d 55bd 5bf9 a13c
00000110: e358 a83d ff2a f13e b526 af3e 511d 653e
00000120: e2ea fdbd ac87 4bbe 3ec0 99be 3f80 05be
00000130: 41a2 3ebe d548 22be ddd4 673e 7299 52bc
00000140: 9d68 c4bd 17b3 1f3d b220 1f3f 044f 6e3d
00000150: 1e38 0a3b 8563 133f 1e65 be3e 3076 b4be
00000160: 797e 243c 06a1 be3d 171a 84be 919e 25be
00000170: 69c9 d53d 304d dcbc 7ac4 4fbd d2ca a73d
00000180: d932 ac3e 35b9 913e 8209 7a3e 8ece 87bd
00000190: 0c0a 67bf a86a 50be 3190 ed3c a688 39bf
000001a0: a415 5ebf 489f 8b3e 075c 17bf 5104 15bf
000001b0: 45cf 13be c213 01bf cb9c 3bbe 7a66 8c3e
000001c0: 0f98 98be c51d aebd cc4e 05bd dbaa 4c3e
000001d0: c64a 91bd b5f9 8ebe 3d0b 903d 0f48 d1be
000001e0: 5e38 2abf 0da1 3bbe 9b53 bebe f09f d9bb
000001f0: 873a 8f3e 64bb 96be 3f23 733d a71e a63e
00000200: 3537 0fbe 65d4 253c b964 93be 0833 eabe
00000210: 6302 e3be 6efe d3be 4c01 b5be 6f00 d03d
00000220: a54b 3ebe 8bba eabd 8ab1 c23e a57c e0be
00000230: 00e1 b33b dfbd 1dbf 60f8 1fbf 3f9b 3ebe
00000240: dd2d e7bd e7fb 71bd 469e aa3c b871 a8be
00000250: 42ec 18bf c9f4 22be 9b60 c83e 77b7 3abe
00000260: c34d 6dbe 08a0 dcbe 5fcb 873d af72 d93e
00000270: 3278 b9be 9f19 0a3e d08c 8d3e d8bb 17be
00000280: 029f 543e 1f6f 153e 012a 82bd 9cd0 94be
00000290: 9f40 283e 5998 34be 5041 8cbe 11ec 05be
000002a0: 2693 063e bd08 3e3d 31f7 24bc 9590 283e
000002b0: 6eb0 1f3f ccdc 763e ddd0 e6be 0557 ddbe
000002c0: 13e0 c83e 4a33 0bbf 9e68 ccbe d9fe fdbe
000002d0: ea9a 9fbe a3c8 aebe fabb b03e d98d 07bf
000002e0: 28d0 6fbe a332 433e 9531 84bc e6f4 9e3e
000002f0: 4ab4 073f 08de a4be 4a7d 81be 4882 953e
00000300: 9046 16bf 010b 6ebd 11b3 713e 40ca d6bd
00000310: 57c8 873e 0496 103e 611d 17bd f53b 1f3e
00000320: 3fd6 103e 5263 95be 031e c8be 96e9 30be
00000330: 84e1 623e a12a 6bbe 4d70 a4be 186e 7a3d
00000340: ea19 4b3e a49d 8c3e b2c0 933e 5a2e 923e
00000350: da02 0d3d 78ab 823e ca8f 52bd b914 59bf
00000360: f1a4 babe 35c0 97be 9847 aa3e 0f50 1cbf
00000370: 781d 3abf 0ef5 a73e e4f6 233d 8341 2f3d
00000380: 83ef 9e3e e5ec 1e3d 3e03 e4bd 6146 a0bd
00000390: 58b8 9fbd d4a4 13be 3bcd 8abd e04f b03d
000003a0: d616 8cbd b86a 9f3e 3cb1 babd 91a0 76bf
000003b0: eae8 31be 94a3 7ebf cc3e c0be 2d6b 333e
000003c0: 82af e2bd b789 933e b13d 3d3f f437 e1be
000003d0: a6b6 43be 0626 4cbe be7b efbd c3fe db3e
000003e0: 91fc 0f3f 182f c23e ffc2 573f 64cf 133f
000003f0: 7312 2ebf 51cc b7be b092 83bd e88d abbe
-0.012688219 0.010184763 0.27537256 0.011072328 -0.06564619 0.22560821 -0.08829596 -0.16211319
-0.24059072 0.0326154 -0.090574265 -0.15384084 -0.04865117 -0.28369516 -0.056916136 0.058569632
-0.070742354 -0.09851745 -0.111269884 -0.13694082 0.088059574 -0.054223493 -0.17929837 0.12643506
0.016523384 -0.07652131 0.06693026 -0.26189393 0.31419218 -0.09609715 -0.14755805 0.40726507
0.105390824 -0.17984118 0.057213392 0.08906119 -0.030035065 -0.51069915 -1.1186519 0.14169432
-1.0133551 0.08426779 -0.2731918 -0.28962743 -0.024050104 0.2180938 0.15490204 -0.055687286
-0.013660314 0.036095444 -0.013253655 0.025187492 -0.07066263 -0.1404146 0.5344528 0.21137959
0.063210554 0.3778171 -0.17458034 0.2623927 -0.3052581 -0.39160657 0.07621026 -0.0882224
0.0060802028 0.16051961 -0.05204545 0.019772222 0.08220079 0.47103116 0.3420922 0.22374465
-0.12398316 -0.19875973 -0.30029482 -0.13037203 -0.18616582 -0.15848096 0.22639795 -0.012853967
-0.09590266 0.038989153 0.62159264 0.058180824 0.0021090577 0.5757373 0.3718652 -0.3524642
0.010039919 0.093080565 -0.25801155 -0.1617377 0.104388066 -0.026892275 -0.050724484 0.08192982
0.33632544 0.28461614 0.2441769 -0.06631194 -0.90249705 -0.20353186 0.02899942 -0.72474134
-0.8675177 0.2726996 -0.591248 -0.5820971 -0.14434536 -0.50420773 -0.1832153 0.27421933
-0.29803512 -0.08501772 -0.03254585 0.19987051 -0.0709434 -0.27924886 0.070333935 -0.4087529
-0.6649226 -0.18323155 -0.3717316 -0.0066413805 0.2797434 -0.29439843 0.059359785 0.3244526
-0.13985904 0.01012144 -0.28787783 -0.4574206 -0.44337758 -0.41405052 -0.35352552 0.10156333
-0.18583544 -0.114613615 0.38026077 -0.43845096 0.0054894686 -0.61617845 -0.62488365 -0.18613909
-0.112880446 -0.059078123 0.020827424 -0.3289926 -0.597355 -0.1591369 0.39136204 -0.18234049
-0.23174195 -0.43090844 0.06630587 0.4247031 -0.36224514 0.13486336 0.27646494 -0.1481775
0.20763782 0.1459317 -0.06355668 -0.29065406 0.16430901 -0.17636241 -0.2739358 -0.13078333
0.1314207 0.046395052 -0.010068701 0.16461404 0.62378585 0.24107665 -0.45081225 -0.43230453
0.39233455 -0.54375136 -0.39923567 -0.49608496 -0.31172878 -0.3413745 0.34518415 -0.5295082
-0.23419249 0.19062285 -0.016136924 0.31046218 0.53009474 -0.32200646 -0.252909 0.2920096
-0.5870142 -0.058115963 0.23603465 -0.10487795 0.26520035 0.14119726 -0.036893252 0.15550216
0.14144228 -0.29177338 -0.39085397 -0.17276606 0.2215634 -0.2296548 -0.3211693 0.06114015
0.19834104 0.2746402 0.28857952 0.28550988 0.034426548 0.25521445 -0.05140666 -0.84797245
-0.36453965 -0.2963883 0.33257747 -0.6105966 -0.72701216 0.3280415 0.040030375 0.042787086
0.31042108 0.03880014 -0.11133431 -0.07825924 -0.07798833 -0.14418346 -0.06777426 0.08608985
-0.06840293 0.31136107 -0.09115836 -0.96338755 -0.17374006 -0.9946835 -0.3754791 0.17521353
-0.11068632 0.28816006 0.7392226 -0.43988 -0.19112644 -0.1993638 -0.11693524 0.42967805
0.5624476 0.37926555 0.84281915 0.5773833 -0.679969 -0.3589807 -0.06424463 -0.33506703

conv2.bias f4 [20]
00000000: 7036 5abf 34b7 903d af20 08bf d693 afbe
00000010: a0e2 38bf 879f b23e bef1 bcbd aaff 5d3e
00000020: 37d1 943e 39a7 503e 05c5 4fbe c6f5 44bd
00000030: 6d95 49bf 4991 8dbe 3179 373e 2dd1 e3be
00000040: e071 36be 40ca 20be 5297 2abf 0699 91be
-0.85239315 0.07066193 -0.5317487 -0.34292477 -0.722208 0.34887335 -0.09225796 0.2167956
0.29065868 0.2037629 -0.2029 -0.04808595 -0.7874363 -0.27649906 0.17917325 -0.44495526
-0.17816877 -0.15702152 -0.66637146 -0.2843706

conv3.weight f4 [20, 20, 3, 3]
00000000: e413 b1be 7ff8 8cbd 775a bebe e4be 4cbe
00000010: 6be9 a3be dfdb febe 8b6c 1a3f 64c7 983e
00000020: 0737 81be 7c57 883e c30f 28bd 7e09 0cbf
00000030: e05e b43e 8d22 a2bd 5402 a83e b90a 1fbf
00000040: 1994 323e b42b 3b3f 55de 5ebe ffa4 b0be
00000050: 202f 48be 63bb b8be eb48 d4bd 9c8f ebbd
00000060: 3018 d7be cb01 a2be 3037 8bbe 50d0 09be
00000070: cf1e e7be d33c 63be 769c f53d 0801 b7be
00000080: b53b 24bd d391 453f 1e38 373e eb07 fc3e
00000090: 9843 843e 3993 873d 65f9 80bb 96ea a23e
000000a0: 62f7 55be 02c5 3bbe b63c c9bd 4889 573d
000000b0: 77f3 68be 5ab3 8fbd 0ed3 053f f52b cbbe
000000c0: aa21 4cbd e6f5 d6be b40b 0ebf 82e6 cebd
000000d0: ff2c 7abf 223c 6a3e 8c64 893e 5c22 6c3d
000000e0: 8e79 333e 7d02 87bf 510d 383d 3d14 013f
000000f0: 81f5 60bf 8d93 79bd f062 12bd fb9c 093f
00000100: f6eb 823f 89a0 f73d b9d2 2cbf 62e2 be3e
00000110: a880 333f 0780 6fbf 250e e6be b801 0a3f
00000120: aecd ca3e 9a1a d9be 2407 00bf 7c6c 8dbe
00000130: 4ac4 ae3e e251 323e 200e 793e ffaf 873e
00000140: 8929 813e b016 ef3d 6552 1b3d c5b5 38bd
00000150: 282c 2d3f 05eb 263f 3fbb 03bf 8ef2 44bd
00000160: d737 a7be 503f 573b 3dc6 c3bd 1c39 4a3d
00000170: e77e e93c 22f8 233f 899c 8dbf 5e11 43bf
00000180: e7f3 403e 4c5e 5dbd 1213 0cbf 6192 04bd
00000190: 0ae1 4d3d c82d 94bd cf96 28bf c2f9 ff3e
000001a0: 276e 9c3e 2b0c 8fbe 9868 f53e 669c fb3d
000001b0: 4c1a 01be 04a8 d5be 62c5 b1be c4ec 183f
000001c0: 2997 92be 817f 21be 36c6 3bbd c0bf ff3d
000001d0: 496d 9e3d 7dc5 433f 7003 7b3e f26c 3b3f
000001e0: 8b6d e7be d339 77be b40c 3cbe 3a6e f9bd
000001f0: b32d fbbd a779 d7bd 3b8e d0be c413 763d
00000200: 1555 9fbc e882 b6be 5da5 9f3e 1880 58be
00000210: 48dc 0e3e b87e 633e 0922 ddbe c6f7 66be
00000220: 5245 dcbb d571 5f3e 3f89 2fbe bc06 4cbe
00000230: 2e88 a33d a62e ac3d d8d4 953d aa00 b63e
00000240: 0d9e 1abf 190d c2bc 46eb 2abf ec53 8a3e
00000250: 2667 c7be 5c7d 55be 4f25 9c3e 32b5 cdbd
00000260: 7d46 9c3e 6725 5a3e 74cf c8be ecd2 913d
00000270: da91 683e c009 953d e24a 89be 22f7 dfbe
00000280: 864e 14be 2fba 97bc 2306 d63e 5b1a 2b3e
00000290: 26a9 b4bf fa8f 84bb 1a6a 50bf e86d 0a3f
000002a0: 4087 82bf d9bf 9abe ab57 483f 64e3 f3be
000002b0: 5d69 4dbe 45e8 9bbd 65f2 d5be c007 363d
000002c0: 15e8 f4bd c37d a1bf fdb6 f1bd d356 a3be
000002d0: 54de 063d 854f 17bf efc0 d13e 5bcf a4bd
000002e0: 5d59 b1bd f691 adbd 1269 2d3e ee47 de3e
000002f0: aba6 d4bd 131b 48bf 051d edbe e15d 80be
00000300: 3f11 aabf e5d6 51be 6e8a 40bc 33ac c0be
00000310: e346 c13e 3140 3a3f 4673 d6be de39 eebe
00000320: 072b 7b3d d3b8 073d 8aa2 c8be 88b4 023e
00000330: 1ec0 adbe ca47 223e 53a9 7b3e 880d 7dbe
00000340: 31d1 12be 68dc 0cbf 29cd a1bd 856f 8fbe
00000350: 02b0 79be 6e87 e43e 6549 853e ef42 5e3e
00000360: 94e7 12be 0633 153f 13cd 36bf 1f82 a6be
00000370: 603d 2f3e ab6e 883d 36fa 29bf 0fe8 253e
00000380: 0673 b03e 9261 8b3e 17b9 aabd 50b3 bfbe
00000390: 385c d9bc c025 4b3d cee9 28be 5a28 b13e
000003a0: 9c50 fabe 8e9c 87be 1adc 80bf da58 833e
000003b0: e9ca 9a3e 98d8 f9bd 9634 4abe a14c 7bbe
000003c0: 8529 173f 4ae6 fabe 4d38 0b3d 9a6f cf3e
000003d0: 70df e4be 2157 93be 9425 343d f6a3 9abd
000003e0: f1c1 943e 1fa5 17be 52a1 0fbf 624b b73e
000003f0: 50c5 b33c 94c1 d43e cc49 2a3f 1155 01bf
-0.34585488 -0.06883334 -0.37178394 -0.19994694 -0.3201402 -0.49777123 0.60321873 0.29839623
-0.25237295 0.26629245 -0.041030657 -0.54701984 0.35228634 -0.07916746 0.32814276 -0.62125736
0.17439307 0.7311356 -0.217645 -0.34500882 -0.19549227 -0.36080465 -0.103654705 -0.11502001
-0.4201064 -0.31641993 -0.27190542 -0.13458371 -0.45140693 -0.22191171 0.11992733 -0.35742974
-0.040096004 0.77175635 0.17892501 0.4922479 0.2583282 0.06619877 -0.00393598 0.318196
-0.2089515 -0.18336871 -0.09826033 0.052621156 -0.22749124 -0.070166305 0.5227517 -0.39681974
-0.049836792 -0.4198448 -0.5548661 -0.101025596 -0.9772491 0.22874501 0.26834524 0.057649955
0.17526838 -1.0547634 0.044934575 0.50421506 -0.8787461 -0.06093173 -0.035738885 0.5375516
1.022826 0.120911665 -0.6750904 0.3728209 0.7011819 -0.9355473 -0.44932666 0.5390887
0.39610046 -0.42403108 -0.50010896 -0.2762183 0.34134132 0.17414048 0.24321795 0.26501462
0.25227 0.11674249 0.037920374 -0.045095224 0.676455 0.6520236 -0.5145759 -0.04808288
-0.3265979 0.0032844134 -0.09559295 0.04937087 0.028502895 0.64050496 -1.1063396 -0.76198375
0.18843041 -0.054045007 -0.547166 -0.03236616 0.050263442 -0.072352946 -0.65855116 0.49995238
0.3055279 -0.2793897 0.4793136 0.1228569 -0.12607688 -0.41729748 -0.34720904 0.59736276
-0.2863095 -0.15771295 -0.045843326 0.12487745 0.07735688 0.7647322 0.2451303 0.7321311
-0.45200762 -0.24143152 -0.18364221 -0.12179227 -0.12264576 -0.1052125 -0.40733513 0.060077444
-0.01944975 -0.3564675 0.3118085 -0.21142614 0.13951218 0.22216308 -0.4319003 -0.22555456
-0.006722131 0.21820767 -0.17142199 -0.19924444 0.079849586 0.08407335 0.07315987 0.35547382
-0.60397416 -0.023687886 -0.6676525 0.27017152 -0.38945884 -0.20848602 0.30497214 -0.10044326
0.30522528 0.2130333 -0.39220774 0.07120308 0.22711888 0.0727725 -0.26814944 -0.43743235
-0.1448308 -0.018521396 0.41801557 0.16709273 -1.411412 -0.0040454837 -0.814119 0.54073954
-1.0197525 -0.30224493 0.7825877 -0.47634423 -0.20059724 -0.07612661 -0.41786495 0.044440985
-0.11958329 -1.2616504 -0.1180248 -0.3190218 0.032926872 -0.5910571 0.4096751 -0.080473624
-0.08659623 -0.084751055 0.16934612 0.43414253 -0.10383352 -0.7816631 -0.46311203 -0.25071624
-1.3286513 -0.20492132 -0.011751754 -0.37631378 0.37749395 0.727542 -0.41884822 -0.46528524
0.06132033 0.033135246 -0.39186507 0.1276418 -0.33935636 0.15847698 0.24576311 -0.24712193
-0.14337613 -0.55023813 -0.07900459 -0.2801477 -0.24383548 0.44634575 0.26032558 0.2170522
-0.14346153 0.5828098 -0.7140667 -0.3252115 0.17113256 0.06661733 -0.66397417 0.16201805
0.34462756 0.27222878 -0.08336084 -0.37441492 -0.026533231 0.049596548 -0.1649544 0.34601098
-0.48889625 -0.2648663 -1.006717 0.25653726 0.30232933 -0.12199515 -0.19746622 -0.2454095
0.5904773 -0.49003822 0.03398924 0.40514833 -0.4470172 -0.28777412 0.04398115 -0.07550804
0.29054216 -0.14809082 -0.5610553 0.357997 0.021944672 0.41553938 0.66518855 -0.50520426

conv3.bias f4 [20]
00000000: d42d e7be 1730 96bf 6184 813d 3c6b c3be
00000010: 5407 583e 69ea 9e3e 602d 8abf 805d 8e3e
00000020: 8564 cdbc 66a7 37bf 01c1 03be e12e 6ebe
00000030: 6539 c5bd 6e81 bb3d d08f bcbe 5fdd a8be
00000040: a3ec 1e3f 3ac7 91be 057f 55bf dc99 cebd
-0.45152152 -1.1733426 0.063240774 -0.3816775 0.21096545 0.31038216 -1.0795097 0.2780571
-0.025072346 -0.71739805 -0.12866594 -0.2326007 -0.09630088 0.09155546 -0.3682847 -0.32981393
0.6207983 -0.2847231 -0.8339694 -0.1008794

fc1.weight f4 [28, 320]
00000000: 9676 343d 8496 9bbe a4ac a03e cf84 a23d
00000010: d2b0 04bd bb09 db3e d7f4 b4be 60dd 25be
00000020: f1ef 253f 1c67 2cbf e48f 213d b513 0ebe
00000030: a57b fcbb 20f0 8ebd 0b90 89bc 7a5e ad3e
00000040: 461a 0d3d 54e2 343e 6fdd 4f3e 8611 cc3e
00000050: ae1a 8a3b 24ac debe 1964 a2be e717 043d
00000060: adc4 d13d 5db0 583d 4b67 25bf 8929 173f
00000070: 7a8c f4be 1a08 88be b1a6 c4be 8b7a c1bc
00000080: 0990 6bbe 6800 003f afab 04bf f680 83be
00000090: f39a ab3d a4a3 19be 4eb6 aebe c2ed febd
000000a0: 3f86 5b3f a9d6 67be 8259 913d e842 013f
000000b0: 8b3d 68be c2e5 153f eeb0 cabd 22d9 e23d
000000c0: dd8f d63d 878d 1b3f ff1a a5be 645d 413d
000000d0: f6e8 cabe 4970 5c3e bed6 f13c ce20 013f
000000e0: bd33 223d 84c5 38bf 5cf9 28bf 4fc7 c1be
000000f0: bd2e 14be d171 f53e fbab 403e 9498 213e
00000100: 1a1b 8dbc dbdf 95bd 4c74 513e 99da 30be
00000110: 60b6 803d f23a 80be 5b0c 7e3c 9cbc d73e
00000120: df2c 7a3d 8964 1dbe c364 06bf be9c d13e
00000130: d03e 003e 0da5 d53d 396a ebbe a749 093e
00000140: 5241 913e 4bfc 983e dcb1 1b3e 76db 10be
00000150: e2b7 f8be 21fc 46bf 29d4 15bd 31af 823e
00000160: fa1a 3e3d 5455 23bf 9c15 bdbd c2a4 1e3f
00000170: f2df 853b 25e5 073f 53fe c83e 356a 883e
00000180: f933 d9be f3b7 c9be 89ab 88be e490 e23d
00000190: e266 d03e ecdb e1be f980 31bf 4384 c63e
000001a0: 3227 193f 6f03 f43e 850d 443f 0a42 e43e
000001b0: 5a24 52bd 5cc9 093c c708 11be 6838 0dbe
000001c0: a934 2fbe fa98 8ebe 1fc6 76bd 3d07 4bbf
000001d0: e9d6 3b3e acc4 eabe 63d2 de3e eeac d5bc
000001e0: e502 5d3e 15b9 233f 824e 34be 7bee 843e
000001f0: 8a4c 943e 2464 10bf 5f7a 51bf 5a68 82bf
00000200: bc71 193f ab4b f63e b7b8 343f dff8 663d
00000210: 07b3 ddbd dbe2 c2bd 47c5 763d 4af9 8cbb
00000220: 3fd1 5d3e 54bf dabe c9b1 13bf e3da 0dbe
00000230: 7316 333c d40a df3e 376b a1be 0fdf ac3d
00000240: 931f 953e 4f3e 433e 537f 5fbf f2fe 5f3d
00000250: 37e6 223d 52e0 683e 4977 c9bf a663 25bf
00000260: c146 dabe 2dc2 02bf dcc0 d7be a38c 7a3e
00000270: d0de 0c3e cc22 97be f8e6 03be 341a 2ebf
00000280: b696 0cbd 3742 babe 4479 9b3e 8c17 873e
00000290: d053 61be b55c 80bd c2a1 afbd c466 83be
000002a0: 4355 323f e6d8 3dbe f76b 8abd 180e 3dbe
000002b0: 45ca 863d b450 1e3f d771 5abe ccbe 173f
000002c0: 269d 5bbe d76c bdbd a06c a23e e86d 053e
000002d0: 614e a93e 431a ef3e 848a 133f 1a62 033e
000002e0: 94c1 bdbc b04c 80be 2d65 a3bd 4d30 81bd
000002f0: f759 dd3e d9ab c8be 265b d33c 9958 3e3e
00000300: 3a7d 96be 1806 c23d adc1 b83d 2688 d0be
00000310: eef8 db3e 9908 e73e c7fe 90be 1302 203f
00000320: 8277 88bd 6124 67be 453d da3d 12ae 5e3f
00000330: 60e6 e63e 3352 27be 4b66 9e3e 830d 50be
00000340: fd2e 98be e83f 19bc 7690 67be 6d1b 99be
00000350: bc4c 8c3e 8e74 97bc 6b4b 60bd 8102 4e3f
00000360: fbe8 3c3f a987 77be 6cd4 723e 6132 8ebd
00000370: 838b 26bf 5040 6ebd fc4a 0a3d 526a 64be
00000380: 09d8 0f3e 76df 7b3d 4b48 673e f542 053f
00000390: 9157 0c3f 4632 fcbe 95d6 3bbf 6f8a 453e
000003a0: 5d27 693e f2f7 4a3d 6cd6 9ebd ce09 0a3f
000003b0: 85f8 8e3e f508 69be 1120 18bf 480b 3e3e
000003c0: fade 8dbe 9d3c 80bd 890d a93e d35b a73e
000003d0: 5d3b 543d 5472 193f 5840 1f3e e14e 54bc
000003e0: c02e 843e b9da 67bf cc81 8f3e 6a5b 91be
000003f0: 4dae 1b3e 4aef 803e 0a6d 00be f381 313d
0.044058405 -0.30388272 0.31381714 0.079354875 -0.03239519 0.4278086 -0.35343048 -0.16197729
0.64819247 -0.6734483 0.039443865 -0.13874705 -0.0077051693 -0.06979394 -0.016792318 0.33861142
0.034448884 0.17664462 0.20299314 0.3985712 0.0042146062 -0.43490708 -0.31716993 0.032249358
0.10242591 0.052902568 -0.6461074 0.5904775 -0.47763425 -0.2656868 -0.38408425 -0.023618003
-0.23004164 0.5000062 -0.5182447 -0.25684327 0.083791636 -0.1500383 -0.34123462 -0.124476925
0.8575172 -0.2264048 0.070971504 0.50492716 -0.22679727 0.5855371 -0.09897028 0.11076571
0.104766585 0.6076283 -0.3224716 0.047208205 -0.3963086 0.21527208 0.029521342 0.5044068
0.039600123 -0.72176385 -0.6600549 -0.37847373 -0.14470954 0.47938398 0.18815605 0.1578086
-0.017224837 -0.07318088 0.2045452 -0.17270888 0.06284785 -0.25044972 0.015505875 0.42136085
0.06107795 -0.15370382 -0.524975 0.40939897 0.12523961 0.104318716 -0.4597948 0.13407002
0.28370148 0.29879984 0.15204567 -0.14146218 -0.4857779 -0.7772847 -0.036579285 0.25524285
0.046412446 -0.63802075 -0.09232637 0.6197015 0.0040855343 0.5308402 0.39256534 0.2664353
-0.42422464 -0.39398155 -0.2669337 0.11062792 0.40703493 -0.441131 -0.6933742 0.38772783
0.5982543 0.4765887 0.7658313 0.44581634 -0.0513042 0.008409824 -0.14163505 -0.13791049
-0.17109932 -0.27851087 -0.060247537 -0.7930792 0.183437 -0.45853174 0.43519887 -0.026083436
0.21583135 0.6395429 -0.17608073 0.25963196 0.28964645 -0.564028 -0.8182735 -1.0188096
0.5993917 0.48104605 0.7059435 0.056389686 -0.108251624 -0.095159255 0.060246732 -0.0043021785
0.21661852 -0.42724097 -0.57693154 -0.1385303 0.010930645 0.4356295 -0.3152711 0.084409826
0.29125652 0.19066738 -0.87303656 0.054686494 0.03977033 0.22741821 -1.5739528 -0.64605176
-0.42632106 -0.5107754 -0.42139328 0.24467711 0.13756871 -0.29518735 -0.12881076 -0.6800873
-0.034323417 -0.36378643 0.30365956 0.26385152 -0.22004628 -0.062676825 -0.08575775 -0.2566434
0.6966135 -0.18539771 -0.06758874 -0.18462408 0.065815486 0.61841893 -0.21332489 0.5927551
-0.21446666 -0.09249275 0.317235 0.13030207 0.3306761 0.46699724 0.57633233 0.12830392
-0.023163594 -0.25058508 -0.07978282 -0.06308041 0.432327 -0.3919361 0.025800299 0.18588485
-0.29392415 0.094738185 0.09021316 -0.40728873 0.42963356 0.45123747 -0.2831938 0.62503165
-0.06663419 -0.22572471 0.106562175 0.8698436 0.45097637 -0.1633995 0.30937418 -0.20317654
-0.2972335 -0.009353615 -0.22613701 -0.29903737 0.27402294 -0.018488195 -0.054759424 0.8047257
0.73793 -0.24172844 0.23713845 -0.06943203 -0.6505663 -0.058166802 0.033762917 -0.22306183
0.14047255 0.061492406 0.22586171 0.52055293 0.54821116 -0.49257106 -0.733743 0.1929109
0.22768922 0.049552865 -0.077557415 0.5392121 0.2792398 -0.22757323 -0.5942393 0.18558991
-0.2770918 -0.06261561 0.3301814 0.32687244 0.051814426 0.59940076 0.15551889 -0.012958259
0.25816917 -0.9056812 0.28028715 -0.28390056 0.15203209 0.25182563 -0.12541595 0.04333682

fc1.bias f4 [28]
00000000: 46b3 253f a7dc 8ebf 7a36 ea3e b65f 213f
00000010: efc3 463f 4a9b 353f 087e 9ebe f650 0bbf
00000020: 4be1 933e a051 a9bc 3a7e abbe f619 b83e
00000030: e3f1 dfbd 6da7 b5be 17ae 08be 9e3a b43e
00000040: c667 fd3e b2ca 063f 4c6e 07bf 962b b5be
00000050: 9a69 0ebe 8dcd a5be aade 8fbe cf87 183f
00000060: 76f8 4cbf 9674 9cbe 607b ed3e 0d4a 81be
0.64726675 -1.1161088 0.45744687 0.6303667 0.7764272 0.7094008 -0.3095553 -0.5442041
0.28882822 -0.020668805 -0.3349474 0.35957307 -0.10934808 -0.35479298 -0.1334766 0.3520097
0.49493235 0.5265304 -0.52902675 -0.35384816 -0.13907471 -0.32383385 -0.28099567 0.5958223
-0.8006662 -0.30557698 0.4638319 -0.2525181

fc2.weight f4 [5, 28]
00000000: ca8c 9b3d c0d0 0abe 8a8b ed3d 76cd 293e
00000010: 115f a43e a182 173e f226 34be db10 76bd
00000020: 1f6c 483d 7337 08bd b3e9 92bd e70c b93d
00000030: 2402 833c 61c9 573e 97f9 f2bd 3e93 143e
00000040: 68b8 523e 20c5 173e 01ba 24be dd0d 0cbe
00000050: d589 773d 8005 9ebd 747d e43d cc46 e53d
00000060: 7fc4 7cbe 3940 2dbe aa16 7a3e 2234 f8bd
00000070: 536e 1abe 10d1 79be 158d 78be a0a1 f33d
00000080: acd5 aa3e 1500 c7bd 70aa 113e ea8b ee3d
00000090: 1214 b33d 6e41 833e 73c8 2f3e 666d ffbd
000000a0: 4493 363e 460f c4bc a9a1 2b3e b9f2 a9bb
000000b0: d722 46bd 35ce 54be 5a4f c23d 4689 e8bc
000000c0: e1a0 f53d d35d b03b 33ed 45bd aac0 16be
000000d0: 3312 8cbe 284b 3d3d c493 e13d 3baf c63c
000000e0: 3106 ce3d 2017 4e3d 3544 a9bd dc72 dcbd
000000f0: 8e96 953e 173f 7ebe 41bf b4bd 71cf 073e
00000100: b4fb 5cbe 3721 1cbe 8a08 113d dd0b 1cbe
00000110: 5af5 5cbd f2df 233e 79e8 003e 34a7 a93e
00000120: d4ba 18bd 9248 ecbd 57e5 ee3d 6ced 83be
00000130: e774 133e ce8c c1be 194f 0cbd 6b07 15be
00000140: dc35 503d 0161 883d b847 a8bd 1955 bd3d
00000150: 4855 bcbd 256c 173e 5e21 3ebe 220e 8dbe
00000160: bd44 cb3d b970 1fbe 06f3 58bd fd8c 8c3d
00000170: 9406 f5be 8dec 923e 55e9 0d3c d256 3a3d
00000180: 491b 74bd a0dd c13e e673 8cbc 670f 883e
00000190: 570f 9e3e 7e9b 4bbe 76f0 7c3e 04ff 4cbe
000001a0: 4b7b 0bbe f090 64bd 24d9 9ebe f7aa fdbd
000001b0: b067 a3bd 8d32 4ebe 9d95 f03b 503c 26be
000001c0: 8961 2fbb 6c2e 63be 2b67 6b3c c396 adbd
000001d0: ffbf 8b3e 68d7 0bbe 17f1 503c 586d 29be
000001e0: f20c a5bd 8656 913d c87b 2dbe 62d0 b6be
000001f0: a0a2 a8bd df55 25be f70e af3d d157 05be
00000200: d53b aabd ff94 0ebe ecb6 da3c aaaa 453e
00000210: d0b3 a6be cd9a 4f3e 0408 1c3e b362 73be
00000220: 07d6 00be d8ce 3c3d 3dd2 973e 640d 623e
0.07595213 -0.13556194 0.115988806 0.16582283 0.3210378 0.14795925 -0.17592981 -0.06007467
0.048931237 -0.033256005 -0.07173481 0.09035664 0.015992232 0.21072914 -0.11864012 0.14509293
0.20578158 0.14821291 -0.1608658 -0.13677163 0.06043418 -0.07715893 0.11156741 0.11195144
-0.24684332 -0.1691903 0.24422708 -0.121193185 -0.15081148 -0.24396157 -0.24272569 0.11896062
0.33366144 -0.097168125 0.14225173 0.1164778 0.087440625 0.25635856 0.17166309 -0.12472038
0.17829615 -0.023933064 0.16760887 -0.0051864055 -0.04837307 -0.20781787 0.09487791 -0.02838577
0.11993576 0.0053822785 -0.048321914 -0.14721933 -0.27357635 0.046214253 0.11014512 0.024253478
0.10059775 0.050315022 -0.082649626 -0.10764095 0.29216427 -0.24828754 -0.08825541 0.13262726
-0.21580392 -0.15247045 0.035408534 -0.152389 -0.053944923 0.16003397 0.12588681 0.33135378
-0.03728755 -0.11537279 0.11664837 -0.25767076 0.14400063 -0.37802738 -0.03425512 -0.14553611
0.050832614 0.06659127 -0.08216804 0.09244747 -0.091959536 0.14787348 -0.18567416 -0.27549845
0.0992522 -0.15570344 -0.05296614 0.06862829 -0.4785658 0.286961 0.008661588 0.045492955
-0.059596334 0.378644 -0.017145108 0.2657425 0.30871078 -0.19883534 0.24701104 -0.20019156
-0.13621251 -0.055802286 -0.3102504 -0.123861246 -0.07978761 -0.20136471 0.007342054 -0.16233945
-0.0026761016 -0.22185677 0.014367859 -0.08476021 0.2729492 -0.1365639 0.012752793 -0.16545618
-0.0805911 0.07096581 -0.1694175 -0.35705858 -0.08234143 -0.16146038 0.08547776 -0.1302178
-0.08312193 -0.13924025 0.026698552 0.19303384 -0.3255906 0.20273896 0.15237433 -0.2376812
-0.12581645 0.0460957 0.29652587 0.2207542

fc2.bias f4 [5]
00000000: 9bf1 403f 68ad d23e 09be 9a3e 669c 76be
00000010: 25a8 d6be
0.7536866 0.41147923 0.3022311 -0.24083099 -0.4192516
