ball_detection/candidate_classifier/weights.pt (torch_old, 30076 bytes, 10 tensors)

conv1.weight f4 [16, 3, 3, 3]
-0.05842131 -0.05390394 -0.060696643 -0.08139192 -0.06879989 -0.07128635 -0.12118899 -0.108575344
-0.09880761 0.032916028 0.04894964 0.041767523 0.018790822 0.042988557 0.042204093 -0.023765454
0.0016869553 0.014198129 0.2738368 0.2933816 0.27764988 0.26008222 0.28832412 0.27882174
0.2048795 0.23268321 0.23739283 -0.032659996 -0.032449916 -0.03580278 -0.044906475 -0.040779192
-0.04225252 -0.070191085 -0.066132806 -0.06100789 0.016192997 0.023820428 0.020248748 0.009032643
0.020574989 0.02027255 -0.017369494 -0.0050877933 0.0017925311 0.15841018 0.16905321 0.16036305
0.15090431 0.16589117 0.16061251 0.11637664 0.13131692 0.13392386 0.1655894 0.16417632
0.16678779 0.17899661 0.17348175 0.17671655 0.19051544 0.18673752 0.18652155 0.19563764
0.18706451 0.17983064 0.21074072 0.19732243 0.18914817 0.22218312 0.20797986 0.19684218
-0.0126075605 -0.014071977 -0.015275333 0.007954685 0.0007585225 -0.0020465122 0.021280078 0.012052291
0.0060820966 2.0069768e-14 2.3868872e-14 2.7392171e-14 2.3374464e-14 2.42669e-14 2.7939993e-14 2.77307e-14
2.7318407e-14 2.977346e-14 1.1794178e-14 1.580517e-14 1.2957392e-14 1.5969383e-14 1.4172931e-14 1.1380295e-14
1.9973716e-14 1.6326125e-14 2.0611254e-14 9.835052e-15 2.6200394e-14 2.8945155e-14 2.962588e-14 8.099279e-15
2.3339109e-14 3.686798e-14 2.7234474e-14 3.6090668e-14 -4.9988553e-06 -2.687788e-06 -2.9542596e-06 -4.161233e-06
-4.504895e-06 -3.981148e-06 -4.3669875e-06 -3.8894837e-06 -5.1463994e-06 -1.585115e-06 -9.74758e-07 -1.6452453e-06
-9.039726e-07 -1.1249509e-06 -1.5758146e-06 -6.867199e-07 -8.200835e-07 -7.396391e-07 7.553313e-07 5.58675e-07
4.861351e-07 1.0382533e-06 9.10173e-07 -2.271948e-08 1.2963012e-06 9.5012734e-07 1.0590359e-06 0.103608534
0.10275199 0.10416333 0.11210302 0.108728774 0.11062319 0.11917758 0.11695813 0.11668171
0.12166641 0.11649728 0.111883275 0.13084336 0.122700185 0.11761593 0.13750187 0.12901978
0.122080095 -0.007631681 -0.008400937 -0.009384851 0.004854725 0.00060517946 -0.0012259309 0.012703371
0.007407339 0.0035986996 3.7841542e-07 3.431753e-07 3.9942208e-07 3.2718677e-07 3.074399e-07 3.9348726e-07
3.4389075e-07 3.524088e-07 3.567297e-07 3.0857348e-07 3.249597e-07 2.7582064e-07 3.3263703e-07 2.0130695e-07
2.868234e-07 3.623672e-07 2.596448e-07 3.3298164e-07 1.7608679e-07 2.0475055e-07 1.7595967e-07 1.9125211e-07
1.8578324e-07 2.0463688e-07 1.957473e-07 1.9227193e-07 1.6506324e-07 -2.3405358e-12 -2.413159e-12 -2.517517e-12
-2.1399588e-12 -2.1965624e-12 -2.3197661e-12 -2.1218355e-12 -2.1814824e-12 -2.2875848e-12 -2.9649581e-12 -2.9579676e-12
-3.0258359e-12 -2.7074306e-12 -2.7140026e-12 -2.7882707e-12 -2.693312e-12 -2.6150213e-12 -2.7398448e-12 -5.157752e-12
-1.5415121e-12 -1.7737247e-12 -2.7864564e-12 -2.0382528e-12 -3.1411319e-12 -9.593424e-12 -7.12438e-12 -1.6475298e-12
-0.048424385 -0.04520742 -0.05095491 -0.0670003 -0.05740984 -0.05966344 -0.10099709 -0.091530114
-0.08386996 0.026247038 0.039208952 0.033244673 0.015032697 0.034427892 0.0338119 -0.02095113
-0.0005563167 0.009587021 0.22770138 0.24378249 0.23080145 0.21654639 0.2395366 0.23188573
0.16991282 0.19261631 0.19650699 -0.030401433 -0.03520386 -0.035935827 -0.044290964 -0.04532257
-0.043718986 -0.07081539 -0.07165167 -0.06333892 0.015897606 0.020017777 0.018299818 0.0070142183
00000000: 2f4b 6fbd 61ca 5cbd 0b9d 78bd cfb0 a6bd
00000010: f5e6 8cbd 94fe 91bd ef31 f8bd c05c debd
00000020: a55b cabd f5d2 063d 6b7f 483d 6c14 2b3d
00000030: 36ef 993c c514 303d 33de 2c3d c5af c2bc
00000040: d41c dd3a 459f 683c 5634 8c3e 1d36 963e
00000050: 2028 8e3e 7f29 853e 389f 933e b9c1 8e3e
00000060: efcb 513e 8244 6e3e 1b17 733e 7dc6 05bd
00000070: 34ea 04bd f0a5 12bd daef 37bd 1508 27bd
00000080: fa10 2dbd 58c0 8fbd a370 87bd 69e3 79bd
00000090: 2da7 843c 0f23 c33c b4e0 a53c a7fd 133c
000000a0: e18c a83c 9e12 a63c 784a 8ebc 81b7 a6bb
000000b0: 5df3 ea3a 4736 223e 491c 2d3e 3636 243e
000000c0: a986 1a3e 60df 293e 9b77 243e e056 ee3d
000000d0: f177 063e 5623 093e 4590 293e d61d 283e
000000e0: 6bca 2a3e e34a 373e 33a5 313e 2ff5 343e
000000f0: 7b16 433e 1f38 3f3e 81ff 3e3e 3c55 483e
00000100: d78d 3f3e 8625 383e 6acc 573e e40e 4a3e
00000110: 0fb0 413e f983 633e acf8 543e ff90 493e
00000120: f18f 4ebc 268e 66bc 6445 7abc 5e54 023c
00000130: 95d7 463a c71e 06bb 8f53 ae3c f976 453c
00000140: 534c c73b bcc5 b428 dffd d628 0cba f628
00000150: d889 d228 a993 da28 3da9 fb28 a4c6 f928
00000160: f50f f628 7616 0629 0c77 5428 3e5c 8e28
00000170: 6c6b 6928 e4d6 8f28 1c51 7f28 5902 4d28
00000180: 41e8 b328 7b0d 9328 51a6 b928 2c2c 3128
00000190: fffd eb28 7e5b 0229 506c 0529 55e7 1128
000001a0: 5238 d228 e309 2629 6c4e f528 b589 2229
000001b0: d7bb a7b6 d95f 34b6 cb41 46b6 b8a0 8bb6
000001c0: c128 97b6 cd95 85b6 2388 92b6 6982 82b6
000001d0: 3caf acb6 23c0 d4b5 6ed4 82b5 33d2 dcb5
000001e0: 86a8 72b5 05fd 96b5 9480 d3b5 0857 38b5
000001f0: b623 5cb5 9d8b 46b5 f9c1 4a35 dbf7 1535
00000200: f37e 0235 1d5a 8b35 9d52 7435 aa28 c3b2
00000210: 92fc ad35 410c 7f35 3224 8e35 b630 d43d
00000220: a36f d23d 9553 d53d 4596 e53d 31ad de3d
00000230: 698e e23d 6013 f43d be87 ef3d d2f6 ee3d
00000240: 3d2c f93d 2096 ee3d 0f23 e53d cdfb 053e
00000250: 3c4a fb3d 9fe0 f03d 4acd 0c3e c31d 043e
00000260: 2105 fa3d 2e13 fabb 15a4 09bc ebc2 19bc
00000270: 6314 9f3b e8a4 1e3a 6aaf a0ba cd21 503c
00000280: 43b9 f23b 29d8 6b3b 0529 cb34 a73d b834
00000290: 2770 d634 35a8 af34 380e a534 7a40 d334
000002a0: fc9f b834 b232 bd34 8e84 bf34 04aa a534
000002b0: 1f76 ae34 8014 9434 4995 b234 d526 5834
000002c0: b5fc 9934 5e8b c234 4f65 8b34 a6c4 b234
000002d0: 5e12 3d34 67d9 5b34 6def 3c34 fb5a 4d34
000002e0: b57b 4734 28ba 5b34 9c2e 5234 4e73 4e34
000002f0: 3d3c 3134 58b3 24ac 9ccf 29ac 8e27 31ac
00000300: 1296 16ac c091 1aac 313d 23ac 974f 15ac
00000310: 1882 19ac 77f9 20ac f0a3 50ac 0226 50ac
00000320: 9dec 54ac bc84 3eac 20fb 3eac 0535 44ac
00000330: 6586 3dac 0904 38ac a8cc 40ac e678 b5ac
00000340: d4f2 d8ab 2ba1 f9ab 5614 44ac e66d 0fac
00000350: 9a09 5dac f1c4 28ad b6aa faac 84de e7ab
00000360: a658 46bd 6a2b 39bd 19b6 50bd 7437 89bd
00000370: 9526 6bbd a761 74bd 90d7 cebd 2474 bbbd
00000380: 03c4 abbd 0704 d73c 9199 203d 912b 083d
00000390: b34b 763c 4304 0d3d 597e 0a3d b4a1 abbc
000003a0: c8d5 11ba e112 1d3c 8d2a 693e 1ea2 793e
000003b0: 3757 6c3e 56be 5d3e 1549 753e 7473 6d3e
000003c0: a0fd 2d3e 363d 453e 2139 493e 6d0c f9bc
000003d0: ec31 10bd 7231 13bd 716a 35bd 29a4 39bd
000003e0: ae12 33bd a907 91bd 1cbe 92bd d6b7 81bd
000003f0: b23b 823c 52fc a33c 80e9 953c 87d7 e53b

conv1.bias f4 [16]
0.25524375 0.16275208 -0.16626018 4.772548e-15 -4.0107057e-06 -0.107709646 2.1249723e-07 -4.6878443e-12
0.21674463 0.1757383 -1.1093376e-12 -5.867125e-10 0.25212646 -2.370878e-06 -0.05438292 -0.18277316
00000000: 4faf 823e 7ba8 263e 1c40 2abe fcf2 ab27
00000010: b393 86b6 e096 dcbd cb2a 6434 59f0 a4ac
00000020: 4ef2 5d3e bef4 333e 1920 9cab 3946 21b0
00000030: b816 813e 601b 1fb6 a0c0 5ebd e328 3bbe

conv2.weight f4 [16, 16, 3, 3]
-5.1108006e-14 -5.112507e-14 -5.5338736e-14 -4.625284e-14 -4.618664e-14 -5.0208877e-14 -4.6819587e-14 -4.4201374e-14
-4.7983854e-14 -3.3144508e-14 -3.4264495e-14 -3.2785284e-14 -3.301682e-14 -3.3464808e-14 -3.2787124e-14 -3.1048657e-14
-3.1418227e-14 -3.0463194e-14 -5.1913718e-14 -5.0840784e-14 -5.1431956e-14 -5.0472566e-14 -4.8861556e-14 -5.0003475e-14
-5.01657e-14 -4.89042e-14 -4.880533e-14 1.0948989e-25 -1.7488147e-24 -1.6059804e-24 1.2371506e-24 -2.650109e-24
-2.0813856e-24 -1.2060389e-24 -2.2813177e-25 9.36067e-25 4.0986313e-19 -5.5104865e-19 -4.399956e-19 2.024551e-18
9.354461e-19 -5.1681624e-19 -1.1637573e-18 -4.371344e-19 -1.0434719e-18 -3.3317648e-14 -3.2765515e-14 -3.3815405e-14
-3.2375405e-14 -3.1592997e-14 -3.2618402e-14 -3.268469e-14 -3.1318037e-14 -3.187206e-14 -5.7024684e-19 -1.8751022e-18
2.0497885e-19 5.0986803e-19 -4.468378e-19 -5.452267e-19 -2.2169533e-20 5.0481623e-19 -3.6818135e-19 2.7581518e-24
1.5943712e-24 -3.8166175e-25 5.437161e-24 -1.779894e-24 1.7544614e-24 -1.6570372e-24 -1.3331268e-24 -2.1745383e-24
-4.8581663e-14 -5.0100877e-14 -4.7745455e-14 -4.8197615e-14 -4.8205722e-14 -4.7774386e-14 -4.5292447e-14 -4.5756015e-14
-4.3908487e-14 -3.182816e-14 -3.309194e-14 -3.646612e-14 -3.1438082e-14 -3.201034e-14 -3.223252e-14 -2.93105e-14
-2.9481897e-14 -2.87355e-14 3.8869442e-23 -1.923531e-22 -4.7201082e-23 -3.9490967e-23 -3.546743e-23 -9.4424655e-24
7.87476e-23 1.5055745e-22 1.5047536e-22 -6.0584666e-20 4.9693305e-20 5.2195497e-20 1.1937699e-19 5.051113e-20
7.449533e-20 4.095309e-20 5.248953e-20 -8.3240516e-20 -5.0362133e-14 -5.1790613e-14 -5.4932164e-14 -4.787123e-14
-4.757605e-14 -4.9065685e-14 -4.44065e-14 -4.5316324e-14 -4.437779e-14 2.1863523e-18 1.3961271e-18 3.4804274e-18
2.1978075e-18 5.2214623e-19 -1.2372221e-18 3.8270193e-18 2.3616166e-18 1.6021865e-18 -1.4586102e-14 -1.3621845e-14
-1.3804198e-14 -1.4113725e-14 -1.3169295e-14 -1.322118e-14 -1.490613e-14 -1.3228557e-14 -1.330283e-14 -5.525939e-14
-5.167475e-14 -5.277781e-14 -5.2703644e-14 -4.841978e-14 -5.0244148e-14 -5.369193e-14 -4.8884663e-14 -4.964538e-14
0.13762231 0.1647632 0.15464921 0.13757554 0.16399208 0.1588482 0.10230639 0.122502394
0.122492515 0.07853599 0.093632974 0.08792342 0.079256006 0.09405546 0.09092351 0.0592677
0.07062714 0.07007842 0.008713256 0.028178588 0.026850501 -0.017362397 -0.0038951505 0.00021522322
-0.041878827 -0.032684814 -0.014457737 -3.322287e-14 -4.8196253e-14 -3.4764628e-14 -3.8261654e-14 -4.1272297e-14
-3.7774725e-14 -2.4407099e-14 -3.0245056e-14 -3.3256248e-14 2.7726596e-06 4.4618346e-06 3.4839072e-06 2.4522396e-06
4.132872e-06 3.6084568e-06 2.9143316e-06 3.3041872e-06 3.619473e-06 0.005950459 0.017882723 0.01711822
-0.0102139395 -0.001980161 0.00030502005 -0.025559716 -0.02004308 -0.009300056 -3.4325254e-07 -3.477998e-07
-3.3826183e-07 -3.5973017e-07 -3.57119e-07 -3.668534e-07 -2.973569e-07 -3.7232772e-07 -3.5089775e-07 -1.2189339e-12
-1.5133994e-12 -1.9518352e-12 -9.561504e-13 -1.6131637e-12 3.5018229e-13 5.0391247e-14 3.093921e-13 2.7261586e-13
0.11409473 0.1364504 0.1280937 0.11433027 0.13612995 0.13178806 0.08513799 0.10183769
0.101595804 0.07829061 0.09297055 0.08742019 0.07983091 0.09437657 0.09120871 0.060188193
0.071420535 0.07040031 6.681145e-13 7.001752e-13 5.8933874e-13 5.3135084e-13 4.7396375e-13 3.9959347e-13
3.0353863e-13 2.6243607e-13 3.1828105e-13 -2.051867e-10 -1.9748837e-10 -8.9725935e-11 -2.9247765e-10 -3.2175665e-10
-2.0787823e-10 -3.248986e-10 -2.759326e-10 -1.8371285e-10 0.1352738 0.16191691 0.1519928 0.13528615
00000000: 852b 66a9 313f 66a9 3839 79a9 e54d 50a9
00000010: 9201 50a9 e51e 62a9 4fdb 52a9 b710 47a9
00000020: 9e19 58a9 0445 15a9 4650 1aa9 dca6 13a9
00000030: cdb1 14a9 4cb6 16a9 fba8 13a9 aad4 0ba9
00000040: c07e 0da9 ac31 09a9 71cc 69a9 6ff7 64a9
00000050: 02a1 67a9 e84e 63a9 8a0d 5ca9 1532 61a9
00000060: 1ded 61a9 b43e 5ca9 b7cc 5ba9 bb8a 0716
00000070: d84e 0798 7083 f897 9670 bf17 d10a 4d98
00000080: 170a 2198 1fa0 ba97 ec34 8d96 6fd9 9017
00000090: c4f0 f120 0fa4 22a1 21dd 01a1 b062 1522
000000a0: 280c 8a21 8889 18a1 82bd aba1 f104 01a1
000000b0: 41fd 99a1 a20c 16a9 1190 13a9 824a 18a9
000000c0: 4dce 11a9 3f48 0ea9 75e6 12a9 e232 13a9
000000d0: 3d0b 0da9 fc89 0fa9 a24e 28a1 ae5b 0aa2
000000e0: 0eff 7120 8a7c 1621 1ce2 03a1 2aec 20a1
000000f0: a462 d19e d6fe 1421 fe55 d9a0 d366 5518
00000100: 8db7 f617 b83c ec96 0957 d218 6fb6 0998
00000110: b0be 0718 0135 0098 984a ce97 2b3f 2898
00000120: d8ca 5aa9 61a2 61a9 c306 57a9 1110 59a9
00000130: 6a19 59a9 1e28 57a9 a3fa 4ba9 1811 4ea9
00000140: 0abf 45a9 5f57 0fa9 6908 15a9 933a 24a9
00000150: a495 0da9 6929 10a9 9129 11a9 b500 04a9
00000160: 50c6 04a9 c769 01a9 0af6 3b1a 678a 689b
00000170: 1c40 649a 73f7 3e9a 8d82 2b9a d3a4 3699
00000180: 6766 be1a 4603 361b dee9 351b 2f0d 8f9f
00000190: 85ab 6a1f 7c7c 761f 7bef 0c20 3688 6e1f
000001a0: aae5 af1f 3f65 411f f3df 771f ce8b c49f
000001b0: 96cf 62a9 833e 69a9 7964 77a9 c597 57a9
000001c0: 7343 56a9 e2f8 5ca9 35fd 47a9 2a16 4ca9
000001d0: 1cdc 47a9 0753 2122 3108 ce21 b567 8022
000001e0: 692b 2222 411c 1a21 ee94 b6a1 2d31 8d22
000001f0: ad41 2e22 e570 ec21 4361 83a8 ac63 75a8
00000200: a0ac 78a8 1140 7ea8 a73c 6da8 ee2b 6ea8
00000210: 3243 86a8 f44d 6ea8 7aa4 6fa8 bddd 78a9
00000220: eeb8 68a9 acb0 6da9 2a5b 6da9 3510 5aa9
00000230: 8f47 62a9 95ce 71a9 2e28 5ca9 3a95 5fa9
00000240: ddec 0c3e afb7 283e 5d5c 1e3e 9ae0 0c3e
00000250: 8aed 273e 1aa9 223e 0386 d13d 89e2 fa3d
00000260: 5bdd fa3d 7ad7 a03d a5c2 bf3d 3211 b43d
00000270: f950 a23d 26a0 c03d 1b36 ba3d b0c2 723d
00000280: f6a4 903d 4685 8f3d 0bc2 0e3c c8d6 e63c
00000290: 95f5 db3c 963b 8ebc c845 7fbb 8bad 6139
000002a0: 2289 2bbd 83e0 05bd 25e0 6cbc 5c9f 15a9
000002b0: 7f0e 59a9 e390 1ca9 af50 2ca9 b8df 39a9
000002c0: 4b1f 2aa9 f0d6 dba8 2d36 08a9 d8c5 15a9
000002d0: ee11 3a36 deb6 9536 12cd 6936 2891 2436
000002e0: 1aad 8a36 d128 7236 d693 4336 81bd 5d36
000002f0: 13e6 7236 11fc c23b ca7e 923c 823b 8c3c
00000300: 5e58 27bc 97c5 01bb 19eb 9f39 9c62 d1bc
00000310: 6331 a4bc 435f 18bc 4548 b8b4 3eb9 bab4
00000320: 5a9a b5b4 f020 c1b4 10ba bfb4 f3f3 c4b4
00000330: 6ca4 9fb4 55e4 c7b4 0563 bcb4 b98c abab
00000340: f6fd d4ab 2359 09ac f390 86ab 5908 e3ab
00000350: 9622 c52a 27f1 6229 1a2c ae2a 1678 992a
00000360: 7faa e93d a7b9 0b3e ff2a 033e fd25 ea3d
00000370: a665 0b3e 73f3 063e d45c ae3d 4790 d03d
00000380: 7611 d03d d456 a03d 5867 be3d 5b09 b33d
00000390: 637e a33d 8148 c13d a2cb ba3d e587 763d
000003a0: ee44 923d 0a2e 903d b90e 3c2b f114 452b
000003b0: 55e2 252b dd8f 152b b068 052b 7df3 e02a
000003c0: 87e0 aa2a 06bd 932a 222d b32a ec9a 61af
000003d0: 0924 59af 364f c5ae 92ca a0af 39e3 b0af
000003e0: 8590 64af 6a9d b2af 10b2 97af 92fe 49af
000003f0: 3785 0a3e 8ccd 253e 00a4 1b3e 7488 0a3e

conv2.bias f4 [16]
-1.999939e-14 0.037593123 -0.0012826308 -1.647277e-06 -1.0395509e-06 -0.051983293 -3.5857552e-09 7.2799504e-17
-0.045962274 0.042555507 -9.343867e-14 1.431194e-09 0.027398912 0.038929734 2.765858e-14 -6.450157e-12
00000000: 7423 b4a8 3ffb 193d f31d a8ba 0218 ddb5
00000010: b286 8bb5 6fec 54bd 4669 76b1 3edd a724
00000020: f042 3cbd af4e 2e3d ba67 d2a9 aab3 c430
00000030: af73 e03c c974 1f3d 5820 f928 d9f1 e2ac

conv3.weight f4 [8, 16, 3, 3]
3.7359686e-14 3.2004862e-14 2.0646767e-14 4.180053e-14 3.746316e-14 2.5402103e-14 4.1601796e-14 3.496785e-14
2.3919878e-14 0.042917833 0.020014469 -0.08374076 0.12597615 0.09093169 -0.029547447 0.11279037
0.035732012 -0.056283545 0.0006641163 0.0004164382 8.0944395e-05 0.0011761105 0.00094249914 0.0003410829
0.0011973699 0.00095712376 0.0004957381 1.5941033e-06 2.038168e-06 1.6915792e-06 1.5367002e-06 1.784641e-06
1.4361128e-06 6.0377374e-07 1.0162015e-06 5.5898147e-07 -2.917389e-06 -2.7416231e-06 -2.1091857e-06 -2.8122424e-06
-2.7086776e-06 -2.2320853e-06 -2.7421402e-06 -2.654181e-06 -2.2082797e-06 0.13034397 0.08897011 -0.002888504
0.28273073 0.15821607 0.07349473 0.27804336 0.21529064 0.115614094 2.9627756e-09 3.0391887e-09
1.9856798e-09 3.6371364e-09 3.741195e-09 2.5897235e-09 3.5047658e-09 3.4235639e-09 2.5743927e-09 6.644967e-17
1.30056235e-17 -2.8229686e-17 1.9918832e-16 7.8627494e-17 6.165368e-18 5.004715e-16 2.842716e-16 2.347656e-16
0.11459429 0.07568792 -0.0033805494 0.24885255 0.13687707 0.063193925 0.24654365 0.19313417
0.10513972 0.04770685 0.02143093 -0.09320611 0.1389553 0.09832897 -0.033148136 0.12679084
0.039718594 -0.06282283 -2.0406926e-13 -1.7069965e-13 -5.917149e-14 -1.5634759e-13 -1.523679e-13 -1.4747276e-13
-1.7483495e-13 -1.7143918e-13 -1.7148979e-13 2.275704e-10 2.646223e-10 1.7343524e-09 -5.5072163e-10 -3.4123676e-10
1.5779428e-10 -6.362865e-10 -4.149467e-10 9.115569e-11 0.03244749 0.016267112 -0.0630983 0.09728193
0.07280796 -0.022307076 0.08403242 0.027378915 -0.04252079 0.04424037 0.020433377 -0.08629103
0.12951078 0.092996046 -0.030499382 0.1165258 0.036807828 -0.058030333 5.7018145e-14 4.1770244e-14
2.0105196e-14 6.384614e-14 5.1662752e-14 3.7176988e-14 5.5150786e-14 5.6468078e-14 4.5400536e-14 2.1042326e-12
1.9333996e-12 3.8742082e-12 -1.0006473e-12 2.8654826e-13 7.2489725e-13 -7.508586e-12 -4.2393723e-12 7.3888633e-13
-9.2450936e-15 -4.446354e-15 1.1777532e-14 -1.0558777e-14 7.986627e-16 1.7729894e-14 -8.311228e-15 -2.8061008e-16
1.1699461e-14 -0.1118869 -0.1068879 0.083129145 -0.077726044 0.035716016 0.25439548 -0.08139581
0.009985307 0.121534295 0.0003777789 -0.0005175102 -0.00068164273 0.00051697996 -0.00022697897 -0.00034847728
0.00054148 -0.00029441906 -0.00052406796 2.0129056e-07 -1.6589428e-07 -6.8074297e-07 9.73526e-08 -1.12536185e-07
-6.533144e-07 -9.730323e-09 -1.5734093e-07 -5.152619e-07 -8.903098e-08 -7.8721234e-07 3.0181646e-08 6.828359e-07
-1.1849562e-06 -1.0711545e-07 5.4936305e-07 -1.0085162e-06 -2.79609e-07 0.08268521 0.0274331 0.028769
0.12142071 -0.035506513 -0.10932315 0.22554745 -0.0032767116 -0.10176481 -7.5425455e-10 -4.5186715e-10
8.395693e-10 -9.712103e-10 -9.9974584e-11 1.4002267e-09 -7.7125273e-10 -2.2172222e-10 7.366591e-10 1.7737555e-16
-1.1481443e-16 -1.9842468e-16 2.4465146e-16 -8.2510406e-17 -4.083553e-16 1.2954129e-16 -1.2095808e-16 -1.779799e-16
0.08176391 0.02884972 0.022229832 0.11445034 -0.035399336 -0.10906394 0.2082382 -0.0051644007
-0.10185865 -0.12619112 -0.1208778 0.09322106 -0.086829126 0.04046838 0.28712004 -0.091651864
0.011003744 0.13711205 4.8085627e-14 3.4942843e-14 3.7401794e-15 6.035145e-14 1.7185887e-14 -6.905669e-14
-1.7963199e-14 -1.5287798e-15 -9.854013e-15 1.8406955e-10 -4.2562076e-10 -5.8323407e-10 8.991527e-12 8.506377e-10
-8.9685054e-10 5.918231e-11 7.012217e-10 9.937279e-11 -0.08211892 -0.07796788 0.061846748 -0.058438476
00000000: c940 2829 1823 1029 34f8 b928 bb40 3c29
00000010: 15b8 2829 43cd e428 9b5b 3b29 307b 1d29
00000020: 7c73 d728 9cca 2f3d 62f5 a33c 4780 abbd
00000030: e4ff 003e 653a ba3d 7d0d f2bc a3fe e63d
00000040: bb5b 123d 9389 66bd 1718 2e3a 6455 da39
00000050: b1c0 a938 b827 9a3a 0c12 773a 5fd3 b239
00000060: 11f1 9c3a 7de7 7a3a 6cf4 013a f9f4 d535
00000070: 76c7 0836 380a e335 9e40 ce35 cc87 ef35
00000080: 76c0 c035 0413 2235 6b64 8835 ea0c 1635
00000090: 5dc8 43b6 bafc 37b6 898b 0db6 f5b9 3cb6
000000a0: bac6 35b6 efca 15b6 9c05 38b6 7b1e 32b6
000000b0: f531 14b6 e478 053e f635 b63d 0e4d 3dbb
000000c0: 15c2 903e 6503 223e 6884 963d b35b 8e3e
000000d0: 2675 5c3e 15c7 ec3d b399 4b31 f9d9 5031
000000e0: 7374 0831 2ef1 7931 e68b 8031 e6f6 3131
000000f0: 7ed8 7031 f943 6b31 32e9 3031 f638 9924
00000100: 52e9 6f23 bb2f 02a4 04a6 6525 7b4d b524
00000110: 4176 e322 4740 1026 15df a325 4a55 8725
00000120: 69b0 ea3d 4502 9b3d 358c 5dbb 34d3 7e3e
00000130: 8129 0c3e d16b 813d f075 7c3e f7c4 453e
00000140: 7e53 d73d 4268 433d eb8f af3c d8e2 bebd
00000150: 4c4a 0e3e b360 c93d 57c6 07bd 75d5 013e
00000160: f7af 223d 42a9 80bd f6c2 65aa d330 40aa
00000170: 0b3e 85a9 2008 30aa 0f8d 2baa 210a 26aa
00000180: bed8 44aa fb05 41aa 9114 41aa 5f37 7a2f
00000190: 477a 912f 1a5e ee30 9761 17b0 ce98 bbaf
000001a0: 247f 2d2f afe6 2eb0 8e1e e4af 1774 c82e
000001b0: a9e7 043d 9b42 853c ae39 81bd c03b c73d
000001c0: 571c 953d 54bd b6bc 3019 ac3d bf49 e03c
000001d0: 482a 2ebd 6435 353d e663 a73c 5ab9 b0bd
000001e0: 799e 043e b674 be3d d7d9 f9bc 14a5 ee3d
000001f0: cec3 163d 37b1 6dbd b964 8029 d01d 3c29
00000200: 6d17 b528 cbc4 8f29 19ab 6829 266e 2729
00000210: 8760 7829 434f 7e29 4177 4c29 7c12 142c
00000220: 080d 082c c44f 882c 1ed4 8cab f54f a12a
00000230: 5a0a 4c2b aa17 04ad df28 95ac 5ffa 4f2b
00000240: 788b 26a8 6132 a0a7 482a 5428 c435 3ea8
00000250: e832 6626 5ab2 9f28 c6b8 15a8 bdc2 a1a5
00000260: 3ec2 5228 f624 e5bd 0be8 dabd 9d3f aa3d
00000270: d52e 9fbd f54a 123d 2040 823e d9b2 a6bd
00000280: 6a99 233c f9e6 f83d a010 c639 86a9 07ba
00000290: 45b0 32ba f085 073a 3401 6eb9 d4b3 b6b9
000002a0: 1cf2 0d3a 425c 9ab9 9b61 09ba 5422 5834
000002b0: ac20 32b4 4dbc 36b5 2810 d133 6cab f1b3
000002c0: 6c5f 2fb5 6a2a 27b2 8cf1 28b4 8750 0ab5
000002d0: 4d31 bfb3 d250 53b5 12a1 0133 204c 3735
000002e0: c90a 9fb5 5707 e6b3 f177 1335 5a5c 87b5
000002f0: 2b1d 96b4 dd56 a93d 61bb e03c f7ac eb3c
00000300: 6cab f83d 476f 11bd d1e4 dfbd e9f5 663e
00000310: 19be 56bb 126a d0bd f253 4fb0 a66a f8af
00000320: 70c7 6630 6d7b 85b0 b0d8 dbae 1972 c030
00000330: 1600 54b0 42c9 73af c77d 4a30 0680 4c25
00000340: 3d5f 04a5 a1c4 64a5 2f08 8d25 8c41 bea4
00000350: 9b66 eba5 d759 1525 8674 0ba5 6532 4da5
00000360: d673 a73d 3f56 ec3c 561b b63c f164 ea3d
00000370: e5fe 10bd ea5c dfbd 653c 553e 223a a9bb
00000380: 459b d0bd 3f38 01be c88e f7bd afea be3d
00000390: 78d3 b1bd 2cc2 253d 6601 933e f9b3 bbbd
000003a0: 0c49 343c 1a67 0c3e f48e 5829 5b5e 1d29
000003b0: 11c1 8627 3ee6 8729 f5cb 9a28 7980 9ba9
000003c0: 51cc a1a8 0552 dca6 9d83 31a8 f962 4a2f
000003d0: ccfc e9af 7351 20b0 3d2e 1e2d 4fd2 6930
000003e0: 3f86 76b0 ae24 822e 17c0 4030 e885 da2e
000003f0: f72d a8bd a0ad 9fbd 0453 7d3d 2f5d 6fbd

conv3.bias f4 [8]
-0.033643644 -0.01762213 0.017780932 0.11529289 0.040411696 0.0096745845 -0.0111104315 0.016254015
00000000: ebcd 09bd 495c 90bc 51a9 913c ae1e ec3d
00000010: bc86 253d 2682 1e3c 8708 36bc 2427 853c

fc1.weight f4 [24, 128]
0.0022564298 -0.008650805 0.042269494 0.03875302 -0.014541161 0.034235228 0.04896385 0.07826531
0.0019140603 -0.0022123693 -0.05532572 0.055185888 0.03334013 -0.004274653 -0.010678454 0.049599312
0.035100788 -0.00497247 0.0014622407 -0.018395565 0.045056928 0.107696734 0.030457096 -0.08962364
0.06382568 0.04941933 0.015426488 -0.07822233 0.04708811 -0.032881185 -0.034679335 -0.021675082
0.023718376 -0.041157242 -0.12908317 -0.03444343 -0.027916681 -0.010293752 -0.052411437 -0.108223885
-0.005252893 -0.03943925 -0.05183788 -0.07713407 -0.003135534 -0.055877198 -0.055949975 -0.07948803
-0.04023173 -0.019229257 -0.047968704 0.0019545697 -0.026020076 -0.029902805 -0.009924971 -0.033033278
-0.03437915 -0.022055507 -0.0019292274 -0.07784039 -0.020020952 -0.08119239 -0.06905864 -0.10386936
-0.030937923 0.015084593 -0.004986794 0.038849767 0.02482575 0.031030118 -0.06973595 0.01801183
0.0656192 -0.0129912775 -0.010882285 0.04306025 0.07566979 0.040919043 -0.01819779 0.049964942
-0.0009689636 0.0035715965 -0.014842649 -0.028292425 -0.015838724 -0.037475552 0.023392716 0.0449937
-0.07599415 -0.005693334 0.033812325 0.017608017 -0.02512699 -0.011063997 -0.0557225 -0.0077342535
0.02770753 0.038302414 0.09294222 0.07613166 0.058999978 0.0045472123 -0.026887154 0.009431937
-0.00055126334 -0.009241179 0.008281041 0.041848123 -0.00036150048 0.021729756 0.012999951 0.030420465
-0.016951505 -0.031555954 -0.009986654 -0.005095299 -0.015055146 -0.015453937 0.031104943 0.037276503
-0.043459892 0.0013648566 -0.013448893 -0.026169473 0.021322917 0.005529838 -0.080071144 -0.014406885
0.025933709 0.07579877 -0.078012735 0.010579965 0.11034756 0.09721711 -0.094125174 -0.03963038
0.104545146 0.14632267 0.07239513 -0.04560288 -0.035770383 0.06415722 0.03966196 -0.11768075
0.048899494 -0.04854885 0.0025170508 0.07674512 -0.012599276 -0.081015766 0.0049286596 0.008315997
-0.019138604 0.016679453 0.0034730972 0.0036896304 0.031081012 0.029156068 -0.009245554 -0.053283505
0.021003023 -0.026362306 0.04052111 0.09525296 -0.08266014 -0.022569984 -0.008414662 -0.012788477
-0.051219385 -0.005347204 -0.0053360886 0.0033845026 -0.06270259 -0.108607166 -0.07625772 -0.030870277
0.04817126 0.05950047 0.052868824 0.06069722 0.052339148 -0.02645177 -0.038941674 0.018897394
0.08743239 -0.009883894 -0.021353023 0.06658505 0.09008661 -0.0090318 -0.07848251 0.043916076
0.03297808 0.03699841 0.026138783 -0.052949633 0.025875343 0.07105053 0.12008411 -0.06327334
-0.077743836 -0.004165761 0.059546594 -0.12206209 -0.08715301 -0.08525928 -0.057086598 -0.121632576
-0.009197375 0.07236531 0.05484964 0.061697353 0.006571077 0.0030113447 -0.07334338 -0.04292658
0.030464776 0.012468983 -0.024911482 -0.012703312 0.044548675 0.046411406 0.02583829 -0.0071295872
0.024617247 0.019841472 -0.0005444274 -0.009138616 -0.0066863317 0.02330536 -0.01861853 0.0029971923
-0.027397957 0.022421483 0.0058346163 -0.0043713576 -0.049408298 -0.0075023505 -0.067981996 -0.08305472
0.0018471308 0.02098374 -0.07095625 0.041448183 0.0315534 0.04189652 -0.058431998 -0.04110427
0.01740163 0.032349616 0.0073777274 -0.01952902 0.016582876 0.07626423 0.029901914 -0.009701007
00000000: 9ce0 133b 1bbc 0dbc c722 2d3d 7dbb 1e3d
00000010: 0d3e 6ebc 3d3a 0c3d 518e 483d 9049 a03d
00000020: 35e1 fa3a 66fd 10bb 399d 62bd 990a 623d
00000030: a98f 083d 6312 8cbb aff4 2ebc a628 4b3d
00000040: d8c5 0f3d 1af0 a2bb a8a8 bf3a 4cb2 96bc
00000050: 9d8d 383d 1b90 dc3d 2981 f93c 998c b7bd
00000060: 0ab7 823d ec6b 4a3d 61bf 7c3c 0733 a0bd
00000070: 76df 403d 6cae 06bd eb0b 0ebd f18f b1bc
00000080: 0a4d c23c 7f94 28bd 612e 04be 8e14 0dbd
00000090: 86b1 e4bc 20a7 28bc 60ad 56bd 7ca4 ddbd
000000a0: 7620 acbb 0d8b 21bd f553 54bd 78f8 9dbd
000000b0: 887d 4dbb 7ddf 64bd cd2b 65bd 9fca a2bd
000000c0: 07ca 24bd ad86 9dbc d57a 44bd 3d18 003b
000000d0: 0e28 d5bc baf6 f4bc 589c 22bc e74d 07bd
000000e0: 27d1 0cbd c0ad b4bc 21de fcba c86a 9fbd
000000f0: fb02 a4bc 3248 a6bd 9e6e 8dbd 76b9 d4bd
00000100: 8771 fdbc 5e25 773c 4368 a3bb ef20 1f3d
00000110: 5f5f cb3c e032 fe3c b9d1 8ebd 8c8d 933c
00000120: 5c63 863d 5ed9 54bc 9d4b 32bc f25f 303d
00000130: c3f8 9a3d ba9a 273d 8813 95bc 0aa8 4c3d
00000140: 0c02 7eba 7211 6a3b 952e 73bc 84c5 e7bc
00000150: 36c0 81bc f77f 19bd 15a2 bf3c 504b 383d
00000160: d2a2 9bbd 268f babb cb7e 0a3d b03e 903c
00000170: 1ed7 cdbc c445 35bc 473d 64bd 9f6f fdbb
00000180: e7fa e23c fee2 1c3d 7e58 be3d eaea 9b3d
00000190: f6a9 713d c800 953b 7342 dcbc 6988 1a3c
000001a0: a882 10ba 5068 17bc 34ad 073c f068 2b3d
000001b0: c687 bdb9 9a02 b23c bffd 543c 5734 f93c
000001c0: e2dd 8abc d140 01bd 109f 23bc 77f6 a6bb
000001d0: dca9 76bc 8332 7dbc cbcf fe3c 3faf 183d
000001e0: 0003 32bd fde4 b23a bf58 5cbc 5d61 d6bc
000001f0: 66ad ae3c a533 b53b 57fc a3bd db0a 6cbc
00000200: ee72 d43c 633c 9b3d 24c5 9fbd 9757 2d3c
00000210: e7fd e13d c419 c73d b3c4 c0bd 7753 22bd
00000220: c41b d63d 9cd5 153e e643 943d 16ca 3abd
00000230: f783 12bd dc64 833d 9474 223d 9b02 f1bd
00000240: d64a 483d 29db 46bd 1bf5 243b 8c2c 9d3d
00000250: 326d 4ebc 98eb a5bd 9880 a13b d23f 083c
00000260: 90c8 9cbc 59a3 883c e79c 633b bacd 713b
00000270: 9b9d fe3c b5d8 ee3c aa7a 17bc ce3f 5abd
00000280: 880e ac3c c3f5 d7bc 77f9 253d fc13 c33d
00000290: b849 a9bd b0e4 b8bc a7dd 09bc c386 51bc
000002a0: 6bcb 51bd 9937 afbb 5bda aebb 88ce 5d3b
000002b0: 376a 80bd 6f6d debd 022d 9cbd aae3 fcbc
000002c0: 3a4f 453d c4b6 733d fb8c 583d a69d 783d
000002d0: 9361 563d 62b1 d8bc 4e81 1fbd b5ce 9a3c
000002e0: c10f b33d 0ef0 21bc 89ec aebc be5d 883d
000002f0: 547f b83d 1dfa 13bc 70bb a0bd 58e1 333d
00000300: 0614 073d a58b 173d 0021 d63c b7e1 58bd
00000310: 87f8 d33c f182 913d a8ee f53d 7495 81bd
00000320: 2938 9fbd f080 88bb 21e7 733d b0fb f9bd
00000330: 477d b2bd 6b9c aebd a3d3 69bd 801a f9bd
00000340: 96b0 16bc 4334 943d 04aa 603d 5db6 7c3d
00000350: 3052 d73b fb59 453b 0e35 96bd c8d3 2fbd
00000360: 4491 f93c b54a 4c3c 2a13 ccbc 8d21 50bc
00000370: ac78 363d e319 3e3d d2aa d33c 509f e9bb
00000380: 1caa c93c 958a a23c e8b7 0eba 22ba 15bc
00000390: 0419 dbbb e2ea be3c e385 98bc 8b6c 443b
000003a0: ae71 e0bc 42ad b73c 4f30 bf3b 9b3d 8fbb
000003b0: 5b60 4abd 47d6 f5bb 253a 8bbd 9818 aabd
000003c0: 6d1b f23a 18e6 ab3c 8351 91bd 92c5 293d
000003d0: 233e 013d af9b 2b3d 6456 6fbd f35c 28bd
000003e0: dd8d 8e3c 0881 043d ddc0 f13b 53fb 9fbc
000003f0: d0d8 873c 6c30 9c3d dcf4 f43c f9f0 1ebc

fc1.bias f4 [24]
-0.011584735 0.0042108498 -0.010410376 0.037927903 0.052155167 -0.010687152 3.0273563e-07 0.017338125
0.027859611 -0.001519623 -0.02006067 -0.012994877 -0.02085317 0.03808373 -5.3831246e-07 -0.0010381392
1.4502715e-13 -0.02322506 -2.4997943e-13 -0.009176084 0.016055027 -0.003990907 0.029070573 -0.0124988835
00000000: e6cd 3dbc 2bfb 893b 4890 2abc 4a5a 1b3d
00000010: a8a0 553d 2a19 2fbc ab87 a234 af08 8e3c
00000020: d739 e43c 162e c7ba 4656 a4bc 77e8 54bc
00000030: 44d4 aabc affd 1b3d 8d80 10b5 2c12 88ba
00000040: 3b49 232a 7b42 bebc d5b9 8caa 4957 16bc
00000050: d585 833c 28c6 82bb 6925 ee3c 1ec8 4cbc

fc2.weight f4 [3, 24]
-0.38219273 0.08110384 -0.29835504 0.35194302 0.35585827 -0.1326691 7.881259e-06 0.01956891
0.31618896 -0.104414284 -0.22631317 -0.09123705 -0.24023755 0.28824466 -5.957681e-06 -0.092907526
-5.0375793e-12 -0.27718243 1.0381551e-11 0.081064306 -0.1885346 -0.036635004 0.3544375 -0.13554159
-0.023154888 -0.5193443 0.28678808 0.07342934 0.010952925 0.052300435 4.9432438e-06 0.5637141
-0.49345133 0.55549276 -0.1462931 -0.14491415 0.011713754 -0.26361272 1.5827058e-05 -0.04362295
2.1959487e-12 0.09792032 -1.4579076e-11 -0.29332325 0.46001047 -0.16749153 -0.296829 0.016442543
0.20209707 0.14811382 0.3106615 -0.50955826 -0.46266398 0.17378277 -3.7273262e-06 -0.66466373
-0.0055232984 -0.060388543 0.18246889 0.24840161 0.19779345 -0.21456946 -5.3011852e-05 -0.06873774
5.476868e-12 0.15599784 -7.893405e-12 0.20878084 -0.29776812 0.0139909815 -0.10482682 0.118904375
00000000: c4ae c3be c519 a63d fec1 98be e031 b43e
00000010: 0e33 b63e 69da 07be c039 0437 fb4e a03c
00000020: 85e3 a13e 28d7 d5bd a4be 67be 7eda babd
00000030: d500 76be ce94 933e 17e8 c7b6 4d46 bebd
00000040: 7b3e b1ac dbea 8dbe 59a2 362d 0b05 a63d
00000050: 370f 41be 960e 16bd d578 b53e 6acb 0abe
00000060: 52af bdbc bff3 04bf e3d5 923e 1f62 963d
00000070: e673 333c fb38 563d 24de a536 914f 103f
00000080: a7a5 fcbe c634 0e3f dccd 15be 6064 14be
00000090: 0ceb 3f3c 3ff8 86be 59c4 8437 faad 32bd
000000a0: b286 1a2c 738a c83d 293d 80ad 772e 96be
000000b0: 7e86 eb3e e682 2bbe f8f9 97be 83b2 863c
000000c0: 89f2 4e3e 26ab 173e 060f 9f3e 6972 02bf
000000d0: 4be2 ecbe 1cf4 313e fa22 7ab6 6727 2abf
000000e0: c9fc b4bb fa59 77bd 20d9 3a3e fe5c 7e3e
000000f0: 5e8a 4a3e 19b8 5bbe 0b59 5eb8 5fc6 8cbd
00000100: 3eb3 c02c e6bd 1f3e bcdc 0aad a5ca 553e
00000110: 1075 98be 6e3a 653c 72af d6bd 2384 f33d

fc2.bias f4 [3]
0.06524772 -0.018647827 -0.06732223
00000000: 99a0 853d 54c3 98bc 3de0 89bd
