ball_detection/candidate_classifier/weights.pt (torch_old, 70095 bytes, 10 tensors)

conv1.weight f4 [20, 3, 3, 3]
000000 38 8d 44 3d fa 23 ed 3d 37 57 1e 3e 53 79 8c bd
       0.04798624 0.115791276 0.15462957 -0.06859078
000010 73 68 5a bd 02 e9 7e 3b fe 5b fc bd b7 44 17 be
       -0.053322267 0.0038896208 -0.123222336 -0.14772306
000020 da de d2 bd d5 e0 14 ba af 76 b7 3d 6a f8 0e 3e
       -0.10296412 -0.00056792545 0.08958184 0.1396195
000030 6f d9 df bd 1e 25 92 bd bf d3 f2 ba 3c ac 1c be
       -0.10930144 -0.07135986 -0.001852624 -0.15300077
000040 57 9d 1a be 55 42 c6 bd 28 d3 23 3d 05 ce 0c 3e
       -0.15099083 -0.096806206 0.039996296 0.13750465
000050 3e f9 34 3e 57 7a 9e bd be 77 08 bd b9 77 cd 3c
       0.17673203 -0.07738178 -0.03331732 0.025081502
000060 08 9b 10 be db 1c 0d be dc e4 c1 bd e2 57 67 3d
       -0.1412164 -0.13780539 -0.094674796 0.056480296
000070 a9 ea 82 3d a4 1a 85 3d 7b d6 4a 3d ba 06 72 3d
       0.06392414 0.06499222 0.04952095 0.059088446
000080 ce 62 7c 3d e3 a5 15 3d 59 0c 37 3d c9 03 50 3d
       0.061617665 0.036535155 0.04468951 0.05078486
000090 fb 5a 89 3d f7 c7 96 3d 6d b1 95 3d 67 30 80 3d
       0.06706806 0.07362359 0.07309232 0.06259232
0000a0 b0 f5 93 3d e5 07 97 3d 38 4b 54 3d d8 40 79 3d
       0.072245955 0.07374553 0.051829547 0.060852855
0000b0 d4 a9 87 3d bd 9c 8d bd da a8 90 bd 89 01 94 bd
       0.06624189 -0.06914661 -0.07063456 -0.07226855
0000c0 9d 70 96 bd f3 6b 92 bd c7 8e 91 bd 24 18 9d bd
       -0.07345698 -0.07149496 -0.07107311 -0.0767062
0000d0 30 37 99 bd 7c 28 8e bd 41 9a 1e bc ef f4 1a bc
       -0.07481229 -0.069413155 -0.009680332 -0.009457811
0000e0 8b a5 1d bc b2 83 21 bc a3 b8 1e bc 02 1a 21 bc
       -0.009621988 -0.009858059 -0.0096875755 -0.009832861
0000f0 57 d2 22 bc 8c 18 20 bc 7a eb 20 bc a3 c0 2c bc
       -0.009937844 -0.009771477 -0.009821767 -0.010543975
000100 67 2f 2b bc b7 c2 30 bc cb 68 32 bc f7 9e 30 bc
       -0.010448313 -0.010788611 -0.010889242 -0.010780088
000110 41 58 36 bc 93 df 36 bc 55 58 35 bc d8 86 39 bc
       -0.01112944 -0.011161703 -0.011068423 -0.011323653
000120 9c 8c ce bb 1b a8 c7 bb 28 80 d2 bb e3 f9 d8 bb
       -0.006303383 -0.006093038 -0.006423969 -0.0066215857
000130 13 de d3 bb da 68 dc bb 92 0c e7 bb e7 0b e0 bb
       -0.0064656823 -0.0067263665 -0.007051059 -0.0068373564
000140 f3 42 e6 bb c0 7c 13 3e 4d e2 0d 3e 5b 50 87 3d
       -0.007027024 0.14403057 0.13855858 0.066071235
000150 16 e2 f1 3d 2f 39 f3 3d de df 4f 3d 12 49 0e 3d
       0.118107006 0.11876141 0.050750606 0.034737654
000160 2a 45 22 3d 91 10 83 bb 4f fe 50 3e 69 d1 56 3e
       0.03961674 -0.0039997776 0.20409511 0.20978321
000170 dd a2 00 3e c0 b8 50 3e ab 73 5a 3e 11 a5 05 3e
       0.12562127 0.20382977 0.21333186 0.13051249
000180 72 ab 06 3e 12 db 11 3e 83 0e a5 3d 77 b5 b1 3e
       0.13151339 0.14243725 0.080594085 0.3470876
000190 8e ff bf 3e cb 26 9a 3e ea 15 b9 3e 48 02 c8 3e
       0.3749966 0.30107722 0.36149532 0.3906424
0001a0 78 5e a0 3e ad 38 97 3e fb 96 a4 3e d4 9e 85 3e
       0.31322074 0.29535428 0.3214644 0.2609774
0001b0 af fe 90 bb 74 d1 a7 bb 24 69 a6 bb 5a 3e 91 bb
       -0.004424892 -0.0051214043 -0.0050784517 -0.0044324817
0001c0 83 06 9f bb c2 a9 9d bb 6d b1 8e bb 83 8b 9c bb
       -0.004853071 -0.0048114965 -0.004354647 -0.0047773733
0001d0 47 ef 95 bb 0a 88 56 bb 84 a4 74 bb 38 b0 7c bb
       -0.004575643 -0.0032734894 -0.0037329504 -0.0038557183
0001e0 da 98 42 bb 7a 6a 57 bb 9c 7a 63 bb af db 2a bb
       -0.0029693157 -0.0032869861 -0.0034710532 -0.0026070883
0001f0 57 60 45 bb 1a 9d 48 bb eb da 12 bb bc 05 2a bb
       -0.0030117237 -0.0030611218 -0.0022408317 -0.002594336
000200 75 31 2c bb 4b c3 0b bb 78 e5 1a bb c5 76 24 bb
       -0.0026274596 -0.002132612 -0.002363531 -0.0025095206
000210 c4 52 d6 ba c2 0d fd ba 8d 53 fe ba 3b ce 23 3e
       -0.001635157 -0.0019306468 -0.0019403562 0.1599664
000220 10 cb 3d 3e 76 5f 46 3e 1f 76 bc 3d e4 a7 c1 3d
       0.18534493 0.19372353 0.09202217 0.09455851
000230 17 9f e6 3d e6 1a 93 3d ee 24 5f 3d 9e ac 8d 3d
       0.11260813 0.07182865 0.05447858 0.0691769
000240 9d 04 c7 bd 0a ba 9c bd a5 3b 69 bd b5 f5 22 be
       -0.09717677 -0.07652672 -0.056941647 -0.15914042
000250 4a 92 26 be 46 73 09 be a3 a1 25 be 06 f0 3e be
       -0.16266742 -0.1342288 -0.16174941 -0.18646249
000260 b3 9c 28 be 84 97 07 3d 58 32 76 3d 92 8b 8b 3d
       -0.16466026 0.03310348 0.060106605 0.0681373
000270 73 77 d4 bc 85 6c bc bc f3 83 0c bc e9 bd 3d bd
       -0.025935864 -0.023000965 -0.008576381 -0.04632369
000280 5c 92 87 bd 44 d5 74 bd 5e 44 1e 3b 9f 8c f2 3a
       -0.06619713 -0.0597737 0.0024149637 0.0018505043
000290 cc d7 16 3b 9c 9a 20 3b 3b ea f2 3a a8 82 21 3b
       0.0023016809 0.0024506217 0.0018532941 0.0024644528
0002a0 de dd 21 3b c1 fb 0b 3b 95 35 23 3b fd 6a 9c 3a
       0.0024698894 0.0021359774 0.0024903764 0.001193374
0002b0 4b 70 35 3a ec 1b a5 3a 51 3e a0 3a 3b 06 3e 3a
       0.0006921335 0.0012596822 0.0012225603 0.0007248853
0002c0 4d d8 b8 3a dc 8c bb 3a 19 0a 92 3a cb 77 d6 3a
       0.0014102549 0.0014308947 0.0011141925 0.0016362605
0002d0 ec f5 2e ba 96 c1 92 ba 03 ec 06 ba aa f6 2e ba
       -0.00066742185 -0.0011196609 -0.0005146863 -0.0006674329
0002e0 59 33 8f ba 0d f9 e8 b9 14 e5 ba b9 91 0a 33 ba
       -0.0010925337 -0.00044436046 -0.0003564736 -0.00068298826
0002f0 3d f8 23 b9 f9 35 e4 3d ba 8b b3 3d b5 87 d2 3d
       -0.00015637367 0.11143107 0.08766885 0.1027979
000300 43 98 81 3d 4d 71 e1 3c 10 49 60 3d 51 d6 a4 3d
       0.0632787 0.027519846 0.054757178 0.0804869
000310 9a d6 38 3d 9d 65 9a 3d be 25 21 be e8 64 33 be
       0.045126535 0.075389124 -0.15737054 -0.17518961
000320 4f b3 18 be b8 21 4b be 5d 09 6d be 12 eb 47 be
       -0.14912151 -0.19837081 -0.23148103 -0.19523266
000330 0c 6f 26 be 2f 29 4a be f5 2c 27 be 99 40 f1 3d
       -0.16253299 -0.19742273 -0.16325743 0.11779899
000340 e1 2f f6 3d 2d d7 00 3e 1f ec 9d 3d cb e7 84 3d
       0.12020851 0.12582083 0.07711052 0.064895235
000350 c6 66 a3 3d d7 09 ae 3d 74 71 8c 3d 17 69 a9 3d
       0.07978587 0.084979706 0.06857577 0.082719974
000360 b7 67 c6 b7 c5 c0 9f b8 c5 fb e4 b8 bf f3 34 38
       -2.3651735e-05 -7.617617e-05 -0.00010918783 4.314235e-05
000370 a4 a2 88 37 db bb d4 b7 79 cf 93 38 05 ab 92 38
       1.6288199e-05 -2.5359846e-05 7.048151e-05 6.9936774e-05
000380 ed 80 24 38 3b 4c 08 b7 76 d5 ab b8 ac bf 01 b9
       3.922072e-05 -8.1239805e-06 -8.1936756e-05 -0.00012373802
000390 15 89 3c 38 64 e8 c6 b6 20 2d 69 b8 a8 a4 70 38
       4.495036e-05 -5.9279137e-06 -5.5593555e-05 5.7373807e-05
0003a0 57 66 07 38 9d 97 b8 b6 95 09 8c 38 23 51 17 b5
       3.228182e-05 -5.5012774e-06 6.677505e-05 -5.6369953e-07
0003b0 56 5f 14 b8 9c 9a d5 38 87 e7 6e 38 fb 4c 79 37
       -3.537474e-05 0.0001018543 5.695925e-05 1.485948e-05
0003c0 44 9a dd 38 09 fe b0 38 b2 a0 64 38 2b 52 84 3a
       0.000105668354 8.439652e-05 5.4509095e-05 0.0010095289
0003d0 98 77 55 39 db 52 74 3a 89 ca b4 3a 36 84 1f 3a
       0.00020357815 0.0009320208 0.001379327 0.00060850696
0003e0 e5 36 ba 3a 1f c6 e8 3a 72 d9 9a 3a ec 3d cf 3a
       0.0014207034 0.001775924 0.0011814071 0.0015811301
0003f0 8b ff 64 3a a4 4d 40 39 08 20 8c 3a db b0 9a 3a
       0.00087355886 0.0001833947 0.0010690698 0.0011801975

conv1.bias f4 [20]
000000 93 26 fb 3e 17 08 28 3d 9a b9 16 bc f1 b4 82 be
       0.49052867 0.04102334 -0.009199524 -0.25528672
000010 4e d3 56 ba 56 2c 5f 3e c2 f6 10 bb 09 4d 8e 3e
       -0.0008194939 0.21794257 -0.0022119735 0.27793148
000020 60 f5 26 ba bb 18 d9 b9 61 b2 58 3a 1d 93 9c 3d
       -0.0006368961 -0.0004140789 0.00082663266 0.07645247
000030 db fc ee 3e 45 ae 5a bb 18 d2 41 38 a6 2a e6 39
       0.46677288 -0.0033368033 4.621045e-05 0.00043900794
000040 f3 85 65 3d e8 09 13 bd 63 a2 1d bb bf 1c a5 bb
       0.056035947 -0.03589812 -0.002405309 -0.005038827

conv2.weight f4 [20, 20, 3, 3]
000000 bb 21 85 3e 2b 77 6a 3e ce 41 48 3e 79 68 5b 3e
       0.26002297 0.22897021 0.19556352 0.21426572
000010 26 29 4d 3e 11 56 44 3e e6 7e 48 3e ad 2c 46 3e
       0.20035228 0.19173457 0.19579658 0.1935298
000020 e4 40 52 3e f4 8b e5 3c d7 72 a7 3c 2f f5 0f 3d
       0.20532566 0.028020836 0.020440502 0.035145935
000030 f2 84 f1 bb a0 85 93 bc 35 67 d1 3b c1 af 84 3c
       -0.0073705846 -0.018008053 0.006390477 0.016197087
000040 7f 63 51 bc f9 8b d6 3b 7b 05 ce 3b 8b 8a a7 3b
       -0.012780069 0.0065474478 0.0062872744 0.005112951
000050 4a 24 ad 3b 4b 8d a6 3b 04 1c 71 3b 9f 33 7f 3b
       0.005283867 0.0050827614 0.003679038 0.003894068
000060 5f d3 cf 3b 04 11 7b 3b 20 24 72 3b ec 96 26 3c
       0.006342336 0.0038309703 0.0036947802 0.0101678185
000070 7d a6 b1 3d 27 73 03 3e b5 6c f3 bd 62 45 cc bd
       0.08674333 0.12836896 -0.118859686 -0.09974171
000080 78 01 50 bc 41 c0 94 3c 18 62 8e bd 27 13 61 bd
       -0.012695663 0.01815808 -0.06952304 -0.054949906
000090 55 23 16 3b 78 9f 9f b9 bb 2a 2f 3a 62 7c 8e ba
       0.0022909243 -0.00030445657 0.00066820876 -0.0010870809
0000a0 af a4 80 bb f1 be 1e bb 63 ac 51 3b ea 45 2b bb
       -0.003925882 -0.0024222697 0.003199362 -0.0026134201
0000b0 a5 94 1c bb ad 91 22 3e eb d5 1f 3e 74 b2 10 3e
       -0.002389231 0.15875883 0.15608947 0.14130574
0000c0 ec 69 06 3e 0e 8c 0d 3e c3 6a 0a 3e 5f 8c d9 3d
       0.13126343 0.13822958 0.13517289 0.10622477
0000d0 e6 05 e5 3d 97 38 fe 3d de 4a a9 39 58 ac 14 bb
       0.11182766 0.124131374 0.00032289972 -0.0022685733
0000e0 eb bc 14 bb 70 52 b1 ba 22 00 84 bb 7d fe 70 bb
       -0.0022695612 -0.0013528597 -0.004028336 -0.003677278
0000f0 8c f6 a1 3a 56 52 54 bb 3c 86 6b bb 73 23 dd 3d
       0.0012356802 -0.003239771 -0.0035938164 0.10797777
000100 e3 07 cf 3d fa df b4 3d 05 6c cc 3d 37 21 c2 3d
       0.10108926 0.08831783 0.099815406 0.094789915
000110 06 d4 b1 3d 6b 5c a2 3d b1 d4 a5 3d c0 e9 9d 3d
       0.086830184 0.079277836 0.08097208 0.077106
000120 d3 92 4c 39 a3 70 22 39 e7 0a 06 39 3c e1 22 39
       0.00019509652 0.00015491484 0.00012783297 0.0001553343
000130 d9 95 db 38 8d cb da 38 c5 2b 31 39 13 5c fe 38
       0.00010470645 0.00010432964 0.00016896341 0.00012128814
000140 e4 c1 03 39 3c d6 fb 39 42 88 48 bb 5c 99 42 bb
       0.00012565363 0.00048034068 -0.0030598794 -0.002969346
000150 0b 85 22 bb f5 e0 c8 bb db 99 b5 bb bd 8f f4 3a
       -0.0024798538 -0.0061303326 -0.0055420226 0.001865856
000160 57 8f 93 bb 02 33 a1 bb 7c 7c 87 3a 11 0f 69 3a
       -0.0045031714 -0.0049194107 0.0010336782 0.00088904897
000170 45 2a 73 3a 73 03 6e 3a 89 be 3c 3a 4e a4 48 3a
       0.0009276013 0.00090794935 0.0007200023 0.0007653878
000180 fd 47 97 3a b7 11 54 3a 94 e7 4a 3a f4 36 7d 3d
       0.001154184 0.0008089798 0.00077401963 0.061819986
000190 f2 94 22 3d 4d 58 d4 3d 76 ac 7b bd 9d 4d ce bd
       0.039692827 0.103684045 -0.06144377 -0.10073397
0001a0 2a 7a ce bb a4 0f 21 3d 30 ec 8a bd 17 72 99 3b
       -0.006301184 0.039321557 -0.067833304 0.00468279
0001b0 74 f2 87 3e 5f 27 6d 3e 58 22 49 3e 25 00 60 3e
       0.26552165 0.2315955 0.19642007 0.21875055
0001c0 07 0c 50 3e a5 cd 44 3e 2e 06 4a 3e 69 d9 46 3e
       0.20317088 0.19219072 0.1972892 0.19418873
0001d0 e0 77 52 3e 27 36 df 3a 39 51 1a ba a3 b7 41 b9
       0.20553541 0.0017029688 -0.0005886737 -0.00018474324
0001e0 af 41 b4 ba 71 f8 81 bb 7d de 4b bb ae 64 1a 3b
       -0.0013752485 -0.003966384 -0.0031107955 0.0023558545
0001f0 52 2d 2c bb 68 c2 2f bb 7f b0 ae 38 dd 09 af 38
       -0.002627213 -0.0026818756 8.3298415e-05 8.3464874e-05
000200 d8 4d e9 38 3d 43 3b 38 e0 e7 18 38 b8 b7 86 38
       0.00011124805 4.4646895e-05 3.6455574e-05 6.423838e-05
000210 dd 80 ae 38 f6 ed 38 38 b9 b8 5e 38 93 93 2e 39
       8.320969e-05 4.4090637e-05 5.310096e-05 0.00016648909
000220 b5 67 6c 38 30 38 b6 38 df d5 81 38 84 90 9d b8
       5.636337e-05 8.688902e-05 6.191036e-05 -7.5132615e-05
000230 0c b4 f3 b7 02 0b 84 39 bb da c5 37 ff 6f 9d 37
       -2.9051698e-05 0.00025185203 2.3586084e-05 1.876801e-05
000240 10 f0 90 bd 20 bf 36 bd 19 c0 04 bd 16 56 ce bd
       -0.07077038 -0.044615865 -0.03240976 -0.10075013
000250 e0 14 aa bd d0 80 80 bd 9d 37 af bd 13 e9 a9 bd
       -0.08304763 -0.06274569 -0.08555529 -0.082964085
000260 6e c8 6c bd 83 df d0 bb 14 bd c9 3b 71 26 6f 3c
       -0.057808332 -0.006374301 0.006156573 0.0145965675
000270 f2 08 91 bc fc e7 ec bb ba 84 5e 3b f9 4f 30 bc
       -0.01770446 -0.007229803 0.0033953623 -0.0107612545
000280 53 59 03 bc 83 c1 02 39 f2 b4 f7 3a b1 5e ea 3a
       -0.008016902 0.00012469855 0.001889853 0.0017881003
000290 a0 86 45 3b 4b fa 07 ba 37 07 7d ba b0 ba 31 3a
       0.0030140057 -0.0005187138 -0.0009652259 0.0006779833
0002a0 09 f7 1f 3b 01 b7 9a 38 3c ea 39 3a d5 a9 88 3b
       0.002440872 7.3773794e-05 0.00070920936 0.004170636
0002b0 81 d6 77 3b b3 6f 80 3b 10 0a 70 3b 7b b9 48 3b
       0.0037817063 0.0039195656 0.0036627091 0.0030628133
0002c0 04 60 4f 3b 21 d2 8b 3b 0c 00 49 3b d8 fb 42 3b
       0.0031642923 0.0042669927 0.0030670194 0.0029752161
0002d0 07 e7 73 3d 99 95 86 3d 2f f3 2a 3d 60 86 23 3d
       0.059546497 0.06571502 0.041735824 0.03992307
0002e0 87 17 a0 3d e1 20 5b 3d 5d 49 5c 3d f3 40 c4 3d
       0.078169875 0.053498153 0.053780902 0.095827006
0002f0 f8 89 ba 3d 90 97 86 bb d1 80 8e 3c 53 f6 f0 3c
       0.09108347 -0.004107423 0.017395409 0.029414332
000300 64 ac 93 bc f8 69 9a 3b dd 1a a6 3c d1 48 5a bc
       -0.018026538 0.0047123395 0.020276481 -0.013323025
000310 e6 19 70 b9 98 a2 85 3c 9c a7 f8 3a cc 0e d1 3b
       -0.00022897832 0.016312882 0.001897085 0.0063799378
000320 68 64 ee 3b d5 66 f4 3a b7 09 d1 3b 5b ca f4 3b
       0.007275153 0.0018646369 0.006379332 0.0074704117
000330 96 7d 49 3b cd c4 dc 3b 39 56 f7 3b eb 01 26 be
       0.003074502 0.0067373277 0.0075481203 -0.16211669
000340 22 44 f7 3c 14 21 1b 3e e1 dc 3b be d3 6e f0 3c
       0.030183855 0.15149337 -0.18345977 0.02934972
000350 a7 a6 25 3e 08 0f 00 be 7d f3 df 3a 65 97 d9 3d
       0.16176854 -0.12505734 0.0017086115 0.10624579
000360 b1 11 eb ba 81 fb d7 3a ce 21 69 3b 5c 0b 46 bb
       -0.001793435 0.0016478152 0.0035573128 -0.0030219173
000370 d5 0d 48 3a c4 fa 41 3b 97 0a 9b ba 1c 36 5d 3a
       0.00076314557 0.002959893 -0.0011828718 0.0008438544
000380 91 52 4c 3b 6b f0 e9 3b 67 30 ab 3b 36 15 f2 bb
       0.0031177143 0.0071392558 0.005224276 -0.0073877824
000390 2d a4 81 bb 8b cf b8 3b fa 4f d2 bb 63 de 3e ba
       -0.003956339 0.0056399754 -0.0064182254 -0.0007281063
0003a0 6b 66 3e 3c 09 e0 0e 3c d4 b2 76 bb 1a 62 b7 b9
       0.011621098 0.008720406 -0.003764321 -0.0003497757
0003b0 9a 11 b8 3a 73 c3 83 bb 62 18 01 ba 44 97 a7 3a
       0.0014043332 -0.004021102 -0.0004924593 0.001278617
0003c0 17 06 fa ba d7 91 7f 39 25 f3 d7 3a ed 8f 18 ba
       -0.0019075301 0.00024373025 0.0016475661 -0.00058197865
0003d0 96 52 38 3b 82 7a f8 bb ba 9f 72 bb 52 9f 6b 3b
       0.0028125397 -0.0075829634 -0.0037021474 0.0035953117
0003e0 86 a2 0a bc 36 a5 e1 bb 4e c3 cc 3a b3 d2 d9 bb
       -0.0084616 -0.0068861498 0.001562217 -0.0066474318
0003f0 3e ee a1 34 8f 69 10 38 d5 24 e0 37 8b 02 8f b7
       3.016193e-07 3.4430584e-05 2.6720032e-05 -1.7048113e-05

conv2.bias f4 [20]
000000 0f 1b 46 3e 9c e2 8f 3d 10 9b 54 b8 16 13 82 bb
       0.1934626 0.07025644 -5.0689152e-05 -0.0039695604
000010 a6 29 12 38 24 1c fb b9 40 25 b4 37 f0 44 05 b9
       3.48479e-05 -0.00047895417 2.1475018e-05 -0.0001270955
000020 24 36 d8 3c 62 ee 8b b7 dc e8 8d 3d 12 82 40 b8
       0.026393004 -1.6681097e-05 0.0692918 -4.5897505e-05
000030 66 60 b2 bd 92 f4 27 b4 c3 51 54 37 cc c3 b9 bd
       -0.08709793 -1.5642061e-07 1.2655221e-05 -0.090705484
000040 33 e0 b5 3d 1b a4 32 bb 62 48 00 3e 9c 5f 46 36
       0.08880653 -0.002725846 0.12527612 2.9559951e-06

conv3.weight f4 [20, 20, 3, 3]
000000 b7 7e 61 a7 0c 88 34 a7 bd 56 67 a6 7e 46 cc a7
       -3.1293715e-15 -2.505377e-15 -8.0261777e-16 -5.66978e-15
000010 b4 77 ae a7 e8 1c 93 a7 41 80 9f 26 46 58 91 25
       -4.8424484e-15 -4.0832036e-15 1.1067605e-15 2.5213307e-16
000020 25 1a a1 a6 a7 b5 8d a7 9f a7 8d a7 de 24 fd a7
       -1.1178706e-15 -3.933231e-15 -3.9317097e-15 -7.0261578e-15
000030 b4 12 bb a7 eb 82 03 a7 fe 3b d8 a7 be b6 ee a7
       -5.1923204e-15 -1.8250873e-15 -6.0017087e-15 -6.62564e-15
000040 35 6e f4 a6 d5 f0 c9 a7 38 cc 99 a4 27 cc 82 a4
       -1.6960773e-15 -5.6049818e-15 -6.669913e-17 -5.672436e-17
000050 4a 96 a2 a4 03 36 18 a4 c5 ce 81 a2 92 d4 3c a4
       -7.05109e-17 -3.3005496e-17 -3.5184446e-18 -4.0946056e-17
000060 e2 1b 58 a4 a5 63 69 a4 81 16 d0 a3 ae b9 fa 25
       -4.686115e-17 -5.0608223e-17 -2.2560936e-17 4.3493908e-16
000070 32 cd 4e 26 eb 73 48 26 0a a5 9f 25 3c ee e2 25
       7.17487e-16 6.9546037e-16 2.7693938e-16 3.9366184e-16
000080 74 16 b3 25 0a d7 5e 25 26 77 84 25 a4 4e 1a 25
       3.1066765e-16 1.9328289e-16 2.2979088e-16 1.3384015e-16
000090 05 72 b9 a3 6a 57 e4 a3 b2 97 38 a4 43 c1 7e 23
       -2.010603e-17 -2.4756831e-17 -4.002713e-17 1.3810292e-17
0000a0 60 14 82 23 ab 82 a5 a1 59 6c dc 23 cc 5f 17 23
       1.4103257e-17 -1.1215422e-18 2.3898335e-17 8.206012e-18
0000b0 fd b5 8c a3 c7 91 8b a4 36 7c 89 a4 93 7b 15 a3
       -1.5255905e-17 -6.05286e-17 -5.96247e-17 -8.103474e-18
0000c0 80 3f b0 a4 92 04 ab a4 e6 cd 5e a4 14 05 80 a4
       -7.6435406e-17 -7.416717e-17 -4.831298e-17 -5.5519754e-17
0000d0 4f 4a 93 a4 87 10 d0 a3 3d 71 11 a2 3d 1a bf 22
       -6.387697e-17 -2.2558405e-17 -1.9711112e-18 5.1798435e-18
0000e0 04 76 4c 22 47 1f 57 a2 d7 bd 22 22 77 a7 92 22
       2.7709632e-18 -2.9154491e-18 2.2055594e-18 3.975069e-18
0000f0 02 90 b7 a2 ba 53 7a a1 95 ba dc a1 4d c2 3c 25
       -4.9754724e-18 -8.4814106e-19 -1.4957168e-18 1.6372232e-16
000100 a3 a9 3d 25 71 33 97 24 c1 2d 50 25 d9 49 57 25
       1.6450612e-16 6.5572956e-17 1.8056626e-16 1.8673298e-16
000110 14 08 58 25 d3 14 0a 24 b4 df 5a 23 3c 86 27 25
       1.873775e-16 2.994162e-17 1.1865175e-17 1.4530421e-16
000120 bd 47 16 27 de c2 04 27 6f e9 c3 a6 58 c5 3e a5
       2.0855571e-15 1.8424318e-15 -1.3594115e-15 -1.6546736e-16
000130 69 aa 03 a6 7a d1 9f a7 c2 bd b5 a6 a8 50 02 a7
       -4.5680704e-16 -4.435848e-15 -1.2610832e-15 -1.8084848e-15
000140 e4 c4 8e a7 03 74 9b a5 d6 89 93 23 95 7a 1b a5
       -3.9626387e-15 -2.6966826e-16 1.5996148e-17 -1.348564e-16
000150 45 1c 1e 25 85 d8 72 a5 9d e3 51 25 57 a7 a6 25
       1.3713894e-16 -2.1063514e-16 1.8204979e-16 2.8909804e-16
000160 a0 83 d1 24 2c bd ba 25 7c cd 8b 26 a8 b3 3e 27
       9.086228e-17 3.2394045e-16 9.700759e-16 2.6465189e-15
000170 bc 3e 20 27 9d 59 27 a8 de 79 2d a8 07 50 f8 a7
       2.2238469e-15 -9.289794e-15 -9.629855e-15 -6.8920593e-15
000180 3c d3 3f a8 50 ca 3f a8 42 c4 22 a8 11 fd 11 25
       -1.0648434e-14 -1.0646499e-14 -9.035363e-15 1.2662487e-16
000190 20 05 20 25 22 07 a6 24 fe f9 29 25 82 64 31 25
       1.3879524e-16 7.200311e-17 1.4743114e-16 1.5386356e-16
0001a0 51 65 11 25 44 2d c9 22 e1 76 91 24 47 e9 92 a4
       1.2611073e-16 5.4529086e-18 6.3085115e-17 -6.3712594e-17
0001b0 3c c8 f7 a7 b4 61 0e a8 31 97 d0 a7 f1 30 ac a7
       -6.8773366e-15 -7.9037695e-15 -5.789552e-15 -4.7792652e-15
0001c0 18 19 c6 a7 24 48 a7 a7 80 cc ee a6 b1 b5 01 a7
       -5.4983246e-15 -4.6430026e-15 -1.6569997e-15 -1.8000841e-15
0001d0 aa 13 38 a7 b1 ef 8f 1f 3c d3 9a 1f 8f 97 34 1f
       -2.554579e-15 6.095939e-20 6.5570995e-20 3.824185e-20
0001e0 e8 61 ad 1f c0 4a a2 1f ba f1 95 1f 6e fe af 1f
       7.343032e-20 6.873333e-20 6.350386e-20 7.45363e-20
0001f0 e8 40 b7 1f 04 5e 81 1f df 08 7d 23 b5 34 cb 24
       7.761089e-20 5.478916e-20 1.3717036e-17 8.8126506e-17
000200 1a 27 0f 24 03 86 e9 a4 3f 7a b8 a4 43 e6 9c 24
       3.1041302e-17 -1.0127467e-16 -8.000437e-17 6.8044294e-17
000210 e9 2c 80 a4 8d 05 9f a4 33 8a d4 a4 f8 50 01 a7
       -5.558723e-17 -6.896466e-17 -9.217446e-17 -1.794624e-15
000220 fa 72 03 a7 73 9e ec a6 62 d2 fc a7 c8 40 0a a8
       -1.824223e-15 -1.6418737e-15 -7.017215e-15 -7.674586e-15
000230 bb 1d c6 a7 01 3c e2 a7 3f 3d f5 a7 5f 62 a2 a7
       -5.4988274e-15 -6.2792657e-15 -6.8067563e-15 -4.5070687e-15
000240 bb 38 aa a6 0f a5 d0 a7 21 37 e3 a7 3e 26 70 a7
       -1.1811496e-15 -5.7910554e-15 -6.3064928e-15 -3.3327422e-15
000250 04 e3 54 a7 6b 31 a0 a7 38 a9 83 a7 5d f3 b6 a7
       -2.9543976e-15 -4.44625e-15 -3.654327e-15 -5.0779003e-15
000260 02 e3 d5 a7 4d c4 b4 a5 d0 68 d4 a4 e6 09 cc a5
       -5.93655e-15 -3.135804e-16 -9.2117904e-17 -3.5395066e-16
000270 c4 94 1d 26 d4 49 78 26 04 6d 6f 25 cd f6 6b a3
       5.467193e-16 8.614234e-16 2.0766881e-16 -1.2791638e-17
000280 98 73 b3 25 dd a2 bf a5 3b fd 8f 26 1d c7 a9 a6
       3.112988e-16 -3.324358e-16 9.991257e-16 -1.17807e-15
000290 e3 47 26 a7 a3 ba cb a6 a6 cf 42 a7 c6 e5 4c a7
       -2.3076098e-15 -1.4136543e-15 -2.7035475e-15 -2.8435248e-15
0002a0 35 0e 89 a5 7d f1 86 a6 0a 53 8c a6 cb a8 02 22
       -2.377534e-16 -9.363573e-16 -9.736959e-16 1.7707644e-18
0002b0 a7 37 cf 21 c1 ba 02 22 dd 58 86 22 ac c5 89 22
       1.4041597e-18 1.7717152e-18 3.641486e-18 3.7343218e-18
0002c0 d9 64 51 22 9d 27 49 22 61 bf 4f 22 fd 81 05 22
       2.837817e-18 2.726155e-18 2.8155046e-18 1.8093676e-18
0002d0 0c c9 72 28 e6 72 99 28 9a 3b ac 28 2f 52 09 28
       1.3477294e-14 1.7036242e-14 1.9121684e-14 7.6228484e-15
0002e0 7b 42 1f 28 48 4e 8e 28 e8 e4 30 a7 28 7d 89 a7
       8.840689e-15 1.5799116e-14 -2.4548997e-15 -3.8160833e-15
0002f0 cd 98 93 26 d9 f4 bd 27 1e c3 a2 28 10 ab 76 28
       1.0241591e-15 5.2723502e-15 1.8070232e-14 1.36928365e-14
000300 3b 64 fa 27 3a 6f b1 28 ba bd a8 28 af d6 bc 27
       6.949761e-15 1.9699184e-14 1.8734028e-14 5.2413243e-15
000310 a9 ef 67 28 70 56 67 28 e1 24 43 a4 9b f3 95 a4
       1.2875044e-14 1.2841819e-14 -4.2315122e-17 -6.503113e-17
000320 2c 2a 07 24 7c 75 78 a4 d3 57 00 a4 67 2f bc a4
       2.930918e-17 -5.387594e-17 -2.7829966e-17 -8.1612306e-17
000330 e4 5a 56 a4 df df 80 a4 e1 61 da a3 7a 30 49 27
       -4.648084e-17 -5.5890404e-17 -2.367706e-17 2.7920633e-15
000340 b9 7c 7a 27 97 1c 54 27 fb 84 80 27 38 1e 97 27
       3.4762082e-15 2.9436409e-15 3.5671315e-15 4.1943682e-15
000350 f8 4c 7f 27 24 5c 3b 27 c2 bb 71 27 9c d1 43 27
       3.5430084e-15 2.6001413e-15 3.3547252e-15 2.7175316e-15
000360 8c b4 60 a1 46 f3 d7 a0 26 bd e5 22 d1 01 b0 a2
       -7.6133104e-19 -3.6583402e-19 6.2270843e-18 -4.770682e-18
000370 a5 f9 84 a3 ad 6a c8 a2 ee 1e 10 23 21 de 98 a1
       -1.4417197e-17 -5.4323056e-18 7.812805e-18 -1.0358718e-18
000380 7d 10 0b 23 eb 51 b7 a5 f4 b0 b4 a5 06 22 76 a5
       7.538697e-18 -3.180095e-16 -3.134493e-16 -2.1348626e-16
000390 3e ab c2 a5 b5 fe b6 a5 93 61 a2 a5 1e 79 a4 a5
       -3.3769674e-16 -3.1744563e-16 -2.816864e-16 -2.8531537e-16
0003a0 f6 99 ad a5 f5 87 98 a5 d3 d6 a8 21 f5 d9 20 a1
       -3.0115044e-16 -2.6459925e-16 1.1440986e-18 -5.449857e-19
0003b0 ef 75 de a0 f9 90 ae 21 4e c9 76 a1 9e 44 4a a1
       -3.7686305e-19 1.1829073e-18 -8.3614467e-19 -6.8531076e-19
0003c0 fb 35 18 22 0e ac 1c a1 f6 57 f0 1e 69 c5 21 24
       2.0628418e-18 -5.308257e-19 2.5447368e-20 3.5078523e-17
0003d0 5c 12 9e a4 3a 64 a5 a4 74 42 27 a4 fd b7 29 a5
       -6.855268e-17 -7.1727134e-17 -3.626864e-17 -1.4720751e-16
0003e0 11 e4 e3 a4 de b1 6c a3 0c 6e 0c a5 7f d8 d9 a4
       -9.883192e-17 -1.28312505e-17 -1.218035e-16 -9.447551e-17
0003f0 83 12 1d 28 6c f6 03 28 e9 b5 1c 28 e4 89 22 28
       8.719265e-15 7.325395e-15 8.699185e-15 9.022707e-15

conv3.bias f4 [20]
000000 b4 f0 8e a7 40 a5 bc 28 6c 71 1f 2f 73 cc 28 2f
       -3.967389e-15 2.0943859e-14 1.4501261e-10 1.5352146e-10
000010 a9 06 5c b2 30 9e cf bb b8 ca f5 3c 77 01 b6 b0
       -1.28072e-08 -0.006335996 0.03000389 -1.3242659e-09
000020 84 6b 87 bc 38 10 42 ad dc 96 5e 2a 18 0a cc bc
       -0.01653076 -1.10312245e-11 1.9769901e-13 -0.024907157
000030 ff c4 70 3c 37 ee b3 33 4a 74 d1 bc 90 ac af 3d
       0.014695405 8.378668e-08 -0.025568146 0.085778356
000040 94 05 18 bc dd ef e5 28 e2 98 1c 3d 84 04 1c 2f
       -0.009278674 2.5528131e-14 0.038231738 1.4189722e-10

fc1.weight f4 [28, 320]
000000 d7 c8 61 a5 f2 9e f4 24 61 71 00 25 ec e5 ba 22
       -1.9583686e-16 1.06087396e-16 1.1140645e-16 5.065884e-18
000010 5b d7 ff 24 3e 46 1c a5 52 d8 f3 24 f8 88 69 24
       1.1095345e-16 -1.3554642e-16 1.0575091e-16 5.0639838e-17
000020 dc f4 3b 25 98 ad 78 25 dc 82 81 22 63 2f 01 26
       1.6302626e-16 2.1569387e-16 3.5104073e-18 4.4820087e-16
000030 cc 99 1e a6 99 b0 d3 25 42 8a c8 25 72 8b cf a4
       -5.5025695e-16 3.6722333e-16 3.4788157e-16 -9.000817e-17
000040 15 c2 16 29 59 21 4a 29 63 ab cd a7 ef 1a 1f a9
       3.347503e-14 4.4881935e-14 -5.7084748e-15 -3.5328453e-14
000050 14 e8 91 27 04 d4 07 2a 72 b4 09 2a 6a 55 1c 29
       4.0497204e-15 1.2063966e-13 1.2230649e-13 3.4713043e-14
000060 1d 6e 4f 29 2f 03 d5 29 1e ff b5 a7 89 45 0f a9
       4.605874e-14 9.4596524e-14 -5.051419e-15 -3.181269e-14
000070 fc d1 ea a8 37 e8 dd a8 46 2c 82 27 5c 8b 83 28
       -2.6070285e-14 -2.4636636e-14 3.613025e-15 1.4604359e-14
000080 2c c7 77 b0 e5 25 b2 b0 aa 6b 87 b0 ea 96 9d 2f
       -9.0141117e-10 -1.2961975e-09 -9.853143e-10 2.8665365e-10
000090 48 13 93 b0 b3 00 92 30 71 db d6 ae 02 69 16 30
       -1.0701138e-09 1.0623097e-09 -9.770574e-11 5.4718907e-10
0000a0 89 f9 be 30 1f b9 c5 30 31 72 0f 31 a4 0e 84 b0
       1.3895242e-09 1.4386251e-09 2.087415e-09 -9.608425e-10
0000b0 71 5f a2 ae 8c aa a8 af cc 4c 29 b0 57 04 c3 ad
       -7.383861e-11 -3.0680203e-10 -6.1590977e-10 -2.217086e-11
0000c0 6f bd 83 2c ee 40 df 2c 05 e0 8e 2d 68 eb 67 ac
       3.7442753e-12 6.34525e-12 1.6243016e-11 -3.2957751e-12
0000d0 2f 36 f0 2d d5 13 7f 2c 16 7f 19 ae ae 6c 32 ae
       2.7308903e-11 3.6248689e-12 -3.4901047e-11 -4.056904e-11
0000e0 f8 bb 69 2d 8b 90 a0 ad 1a 76 3d ae 37 c5 03 ae
       1.3286254e-11 -1.8254084e-11 -4.307852e-11 -2.9961113e-11
0000f0 bb 64 e3 2d c6 9c 09 ac e4 9f c3 ad ed 83 83 ad
       2.5851645e-11 -1.9555898e-12 -2.2239939e-11 -1.4951563e-11
000100 11 54 66 32 45 45 f8 32 2d 64 75 30 5a 1d 20 b2
       1.34068765e-08 2.89025e-08 8.927284e-10 -9.3198995e-09
000110 5d 82 a4 32 7c 4c f0 32 48 a3 4b b2 d8 1f 12 b1
       1.9151395e-08 2.7974458e-08 -1.1853281e-08 -2.1263897e-09
000120 05 cc 6f 31 74 78 3c b3 ee 51 d6 b2 cb 4b b2 31
       3.489505e-09 -4.3881712e-08 -2.4950136e-08 5.1890985e-09
000130 13 e6 81 32 54 f3 a7 b2 ce 8c e0 b2 ee ea 60 b2
       1.5122202e-08 -1.9552012e-08 -2.6141063e-08 -1.3091933e-08
000140 9e 33 b8 39 fd 9d 97 39 a1 bc bb b9 74 27 c6 b8
       0.00035133673 0.00028918675 -0.0003580796 -9.4487244e-05
000150 50 5d 11 3a 89 f7 56 3a 3e 42 2e 39 1b cf 11 ba
       0.00055452157 0.0008200338 0.0001661861 -0.0005562172
000160 47 1e 5a 39 dd bc 98 b8 51 60 b3 39 f3 d7 54 39
       0.0002080138 -7.283103e-05 0.00034213302 0.00020298343
000170 7b a3 6d 3a 7e 41 a3 b9 6e 37 c8 39 6a 9a 25 3a
       0.0009065193 -0.00031138578 0.0003818827 0.000631726
000180 26 ef 39 3a ac 21 9d 39 74 55 be 39 17 02 1f 3a
       0.0007092826 0.0002997046 0.00036303292 0.000606568
000190 42 28 77 3a 18 7f 81 39 eb bc e2 39 e4 7e f8 39
       0.0009428301 0.0002469949 0.00043246834 0.00047396787
0001a0 c3 da 3e 3a 0a a7 8b 3a 63 8e 78 3a 26 07 fe 39
       0.0007280523 0.001065464 0.00094816665 0.0004845198
0001b0 df 1b df 39 99 57 44 3a 79 a3 3d 3a 1c 83 14 3a
       0.0004255464 0.00074898597 0.0007234137 0.0005665289
0001c0 cf 31 45 30 b7 ec d8 30 e2 09 38 31 46 82 03 b1
       7.1738965e-10 1.5783347e-09 2.6781142e-09 -1.913706e-09
0001d0 f9 b7 d7 2f 64 ac 84 2f 53 bd 28 30 18 c1 12 b1
       3.9238993e-10 2.413315e-10 6.138709e-10 -2.1355557e-09
0001e0 d9 58 c1 31 30 25 20 32 2f 32 0a 32 1a 96 82 31
       5.62714e-09 9.321681e-09 8.044068e-09 3.8005625e-09
0001f0 a7 76 1a 31 77 ce 76 31 fa a2 5f 31 c2 7d 9a 30
       2.2477396e-09 3.5915073e-09 3.2543412e-09 1.1240717e-09
000200 95 e3 2f 3a 01 d8 3d 3a 24 3f dd 39 f5 1d f9 b8
       0.00067096326 0.0007241965 0.00042199448 -0.00011878825
000210 14 e0 1f 3a af 7e ef 39 7e 40 96 b9 62 73 06 ba
       0.0006098759 0.0004568002 -0.0002865828 -0.0005128888
000220 10 53 29 39 8d 03 c2 b9 31 44 41 ba 6d 17 9b b9
       0.00016148039 -0.0003700521 -0.0007372527 -0.00029581357
000230 ad 2b ae 39 e5 04 2d ba 81 65 a6 b9 f9 4a b3 b9
       0.00033220407 -0.00066001556 -0.00031737614 -0.000341974
000240 ff 58 55 2d eb 6f 38 2e 1e 5c 39 2e e8 ce 6a ad
       1.2127409e-11 4.193616e-11 4.2145946e-11 -1.3347302e-11
000250 97 67 02 2e 5c f5 07 2e 7b 19 20 2e 11 6d cb 2d
       2.9650584e-11 3.091337e-11 3.640242e-11 2.3126863e-11
000260 1b f1 6d 2d 19 66 31 ae e1 9c 9e ad 89 71 9d ad
       1.35254264e-11 -4.033582e-11 -1.8032189e-11 -1.7899253e-11
000270 cd 48 1a ad b8 a1 26 ae 7a 6e 17 ae 92 d7 ef ad
       -8.7700515e-12 -3.7887665e-11 -3.4431548e-11 -2.7266887e-11
000280 7e bd 8f 2d aa 9b b7 2c 7b 8a 39 2d 7c eb 92 2d
       1.634137e-11 5.218455e-12 1.0546781e-11 1.6702854e-11
000290 5e 6c b0 2c b8 61 2d 2d 24 f7 7a 2d f5 c9 91 2d
       5.014252e-12 9.855609e-12 1.4265731e-11 1.6574278e-11
0002a0 6c 52 4f 2c 4b 50 17 2d 30 bf 1b 2d 03 9d 5b 2d
       2.9462223e-12 8.601185e-12 8.853182e-12 1.2483572e-11
0002b0 1d 2c 07 2d 19 07 25 2d 90 11 68 2d d9 68 90 2c
       7.683657e-12 9.38074e-12 1.3191573e-11 4.1043666e-12
0002c0 fe f8 f8 38 b2 25 51 ba 48 6b 86 ba 17 be 1b ba
       0.0001187194 -0.00079783343 -0.0010255361 -0.00059411064
0002d0 b5 54 65 b9 78 80 56 b8 59 e9 1f b9 db 6c 3e ba
       -0.00021870698 -5.114122e-05 -0.0001525035 -0.00072641455
0002e0 07 cc 1f 38 cf 0c f2 39 7f 7c 8f 39 e9 6a 96 b8
       3.809857e-05 0.0004616738 0.00027367842 -7.172471e-05
0002f0 fe 5a 84 39 f2 1b 06 38 38 79 9b b6 db 66 ee b6
       0.00025244796 3.1974116e-05 -4.6334717e-06 -7.1049267e-06
000300 03 1f 11 ba 82 6d f2 b9 e9 cd 8c b9 5c 84 2b b9
       -0.0005535932 -0.00046239427 -0.00026856296 -0.00016357139
000310 5d 74 0b ba 23 52 2d b9 4f 38 05 b9 02 27 2b b9
       -0.00053197687 -0.00016529164 -0.00012704845 -0.00016322362
000320 38 56 b7 b9 2e 37 65 b9 a5 e0 fc b9 9c d5 e5 b9
       -0.00034968718 -0.00021859698 -0.0004823256 -0.00043837435
000330 c7 33 b6 b9 90 65 c4 b8 92 20 72 b9 ca bc 17 ba
       -0.00034752322 -9.364926e-05 -0.00023091052 -0.00057883246
000340 a4 c0 69 32 f3 ca 82 33 28 ad 71 33 57 97 6d b2
       1.3606186e-08 6.090513e-08 5.626967e-08 -1.3829626e-08
000350 8a 1d 3f 33 ab 19 97 33 40 5f ce 33 07 0b 90 33
       4.449752e-08 7.0361544e-08 9.6099484e-08 6.7075284e-08
000360 ee ae 43 33 f4 d6 52 33 c9 4e 98 33 86 98 78 33
       4.5561073e-08 4.9089934e-08 7.0923825e-08 5.788072e-08
000370 23 c5 90 32 73 43 d5 32 09 8b b5 32 32 53 4e 32
       1.6853454e-08 2.4827136e-08 2.11344e-08 1.2009695e-08
000380 6d f4 72 3a 75 2c 98 3a 7c b1 d7 3a 3c db c4 3a
       0.00092679897 0.0011609929 0.0016456093 0.001501895
000390 df cb 58 3a 04 35 4e 3a f8 80 90 3a af cb dc 3a
       0.0008270125 0.00078661763 0.0011024764 0.001684537
0003a0 7b 94 ba 3a 6e 2c 72 3a 32 87 15 3a b8 1e a0 3a
       0.0014234924 0.0009238188 0.00057040446 0.0012216186
0003b0 d0 a7 e5 3a 0a cd 8b 3a 2e 99 0a 3a 13 b7 8c 3a
       0.0017521325 0.0010665965 0.0005287108 0.0010735713
0003c0 59 df 00 3a 5d e1 d7 b9 a1 4e 38 37 1e a7 06 3a
       0.0004916094 -0.00041175904 1.0985562e-05 0.0005136597
0003d0 93 49 fa 39 ba e3 22 ba f0 cf 10 ba 35 4b dc 39
       0.00047738533 -0.00062137435 -0.0005524149 0.00042017704
0003e0 8e 99 fe 39 ed 1d 34 3a 97 69 15 3a fb 09 b1 39
       0.00048561062 0.00068709144 0.0005699633 0.00033767507
0003f0 dc 46 40 39 ca ec 25 3a 60 2f 5b 3a 0c 61 21 3a
       0.00018336944 0.0006329535 0.00083612464 0.00061561237

fc1.bias f4 [28]
000000 1d 32 27 b8 9b 02 83 3c 0f 56 e1 3b 0c a7 14 bb
       -3.9862574e-05 0.015992453 0.006876714 -0.0022682576
000010 fb 76 b8 3c 5c 90 93 3a 0e 65 af 3a 6d 85 72 3c
       0.022517672 0.0011258232 0.0013381557 0.014802319
000020 92 c5 06 3d e5 8d 84 bb b6 db 35 ba 27 2d 0a 3a
       0.03290326 -0.0040452355 -0.00069373415 0.00052710105
000030 c0 50 8d bc 83 d3 a9 b9 ff 3d 1d 38 45 5a ec 3c
       -0.017250419 -0.0003239178 3.7489455e-05 0.028851638
000040 d8 8e d0 39 28 3a bd bb 5b bc 6d bb 07 2d a4 3c
       0.00039779278 -0.005774755 -0.0036275599 0.020041002
000050 76 95 42 3c de 01 ec 3a b0 42 ed 3c 54 24 2b 3c
       0.011876455 0.0018005928 0.028962463 0.010445673
000060 f4 d6 13 bb b1 02 3b ba 2c 23 fb 3b a8 53 0c 3d
       -0.0022558542 -0.0007133885 0.007664105 0.03425947

fc2.weight f4 [5, 28]
000000 79 de fa 3b 52 aa 8e 3e 01 02 a7 bd d8 4c cd 3b
       0.0076559153 0.2786432 -0.08154679 0.006265264
000010 08 bb df 3d 68 b6 73 be db 3e c5 3c eb c6 ed 3e
       0.10924345 -0.23800051 0.024077823 0.46440825
000020 47 1f 4e be 89 91 51 3d 91 11 cb 3b d5 74 ca 3b
       -0.20129119 0.051164184 0.0061971624 0.0061784782
000030 6c 9a d4 be 33 a0 f3 3e c3 09 13 3c b7 c3 12 3d
       -0.41524065 0.4758316 0.008974495 0.03583118
000040 6e d6 35 3c 39 77 36 be db 93 0d 3f b5 a1 af 3e
       0.011098487 -0.17818917 0.55303735 0.3430306
000050 b6 2c d5 be de 92 55 3c 98 2d 1f 3f de 1d 88 3e
       -0.41635674 0.013035504 0.62178946 0.26585287
000060 66 c3 d2 3c 2d 89 af 3d e3 7a 2a be 2a 85 cf 3e
       0.025727939 0.08571086 -0.1664844 0.40531284
000070 23 33 f7 3b 5a 3f c2 3e 59 3e 5c be b8 9f cd 3b
       0.007543938 0.37938958 -0.21508159 0.0062751435
000080 09 36 74 3e 46 86 86 3e 1e 91 c8 3c 44 a1 25 3e
       0.23848738 0.26274318 0.02448326 0.16174799
000090 a7 4e 80 3e 3b cc 13 3e a0 1e d7 3b ca 6b b2 3b
       0.25060007 0.14433376 0.00656493 0.0054449784
0000a0 cf fa 8b 3e 0d 21 3f bd bc 4a 14 3c 7a 09 a1 3e
       0.2733979 -0.04666238 0.009051021 0.31452543
0000b0 ea 59 3e 3c 29 2d 78 3e 84 e6 42 be 0a a3 94 bd
       0.011618117 0.24235977 -0.19033247 -0.0725766
0000c0 b0 18 13 3e 66 37 65 3c e7 60 54 be a9 a2 ad 3d
       0.14364886 0.013990259 -0.2074009 0.084782906
0000d0 1d b3 9c 3c 6f f9 ae be c4 a1 e4 bd dd 68 98 be
       0.019128377 -0.34174678 -0.11163667 -0.29767504
0000e0 c7 58 ff 3b d2 71 42 3c e2 5b 3a 3e 72 9b 60 3b
       0.0077925655 0.011867957 0.18199113 0.003427234
0000f0 b6 6c b5 3e a9 d7 c5 3e fe 0c bc 3c 94 74 1d be
       0.35434502 0.38641098 0.022955414 -0.15376502
000100 2b 7f 32 bc 81 6b 24 be c3 1c d8 3b d2 d5 c9 3b
       -0.010894577 -0.16056634 0.0065952255 0.0061595226
000110 d9 f5 e0 3d 78 4d 3b be eb 6b 12 3c e9 de da be
       0.10984392 -0.1829127 0.008936862 -0.42748192
000120 93 38 2f 3c 1c 47 84 3c 25 5f 13 be 94 ac 39 be
       0.010694641 0.016147189 -0.14391764 -0.1813224
000130 9b 9f 68 3d 2c 66 57 3c 83 89 6b 3d 98 12 24 be
       0.056792837 0.013146918 0.05750419 -0.16022718
000140 31 85 34 3d 18 80 a6 3e 01 42 13 3e 14 c6 3d bd
       0.044072334 0.32519603 0.14380647 -0.04633148
000150 71 03 00 3c 2b 3f b7 be 3e 2a 10 3f d1 ba 91 3c
       0.0078133205 -0.3579038 0.56314456 0.017789276
000160 89 38 55 3d cc a3 aa be 2e 49 d3 3c db b3 c4 bb
       0.05205587 -0.33328092 0.02579173 -0.0060028858
000170 91 18 b2 bd 80 15 2d be c6 a1 b7 3b 36 54 98 3b
       -0.08696092 -0.16902733 0.0056040017 0.0046487106
000180 a8 e9 63 3e ae 61 7a bc 49 81 06 3c dc dc 89 3e
       0.22257102 -0.015282078 0.008209535 0.26926315
000190 ac 6d 28 3c 51 0d a6 bd a4 60 bb bd ba e7 8e 3d
       0.010280054 -0.08108009 -0.09149292 0.06977792
0001a0 65 8e 89 3e 8b 6d 40 3c 4b d3 49 be ca cb b9 bc
       0.2686645 0.011744867 -0.19709508 -0.022680182
0001b0 b0 ff 4b 3d 49 54 9b 3e a9 3a c8 3e c3 55 3b bd
       0.04980439 0.30337742 0.39107254 -0.045736086
0001c0 b6 7d e4 3b e7 f2 57 be 43 db 8c be fc d9 89 3c
       0.0069729937 -0.21088754 -0.27511033 0.016827576
0001d0 b5 c7 e0 be b2 65 73 3e 58 f0 da 3c ca de 68 be
       -0.43902364 0.23769262 0.026725933 -0.22741237
0001e0 e7 60 90 3e 27 d4 9e 3e 76 ee cb 3b 5d 25 e4 3b
       0.2819893 0.31021234 0.006223495 0.006962462
0001f0 d0 f9 bc 3d 08 bb 1e be 9b f3 1c 3c 2a 49 46 bd
       0.092273355 -0.15501034 0.009579564 -0.04840962
000200 23 af 53 3c f5 88 84 3e df 3b 8e 3e ec e6 90 bd
       0.012920174 0.2588574 0.27780053 -0.07075295
000210 01 96 09 3e 92 75 56 3c 2f 28 d1 bd 71 78 70 bd
       0.13436128 0.013089554 -0.102127425 -0.058708612
000220 71 52 42 3d c2 21 0a be d0 c1 b7 bd 33 f4 c5 3d
       0.047441904 -0.1348944 -0.08972514 0.09665718

fc2.bias f4 [5]
000000 6f b1 cf 3c e2 6e 17 3d c5 16 55 3c 64 b7 29 3d
       0.025353162 0.03697098 0.013005917 0.04143466
000010 0e a6 b1 bb
       -0.0054214066
