ball_detection/candidate_classifier/weights.pt (torch_old, 47101 bytes, 10 tensors)

conv1.weight f4 [16, 3, 3, 3]
0	0x3e4513e4	0.19245869
1	0x3e47f33e	0.19526383
2	0x3e42e127	0.19031201
3	0x3e474486	0.19459733
4	0x3e40ccdd	0.18828149
5	0x3e461f56	0.19347891
6	0x3e50d4e1	0.20393707
7	0x3e3da714	0.18520766
8	0x3e3d98f2	0.18515375
9	0x3e466928	0.19376051
10	0x3e38e7aa	0.18057123
11	0x3e136649	0.14394487
12	0x3e4a1294	0.1973365
13	0x3e371058	0.17877328
14	0x3e1d6d7a	0.15373793
15	0x3e5501ff	0.20801543
16	0x3e2afcc7	0.1669799
17	0x3e0b3b3d	0.13596816
18	0xbd1924f0	-0.037388742
19	0xbdb6bde4	-0.089229375
20	0xbdf51483	-0.11966803
21	0xbda3d394	-0.0799934
22	0xbd90b67b	-0.070660554
23	0xbdd53a03	-0.104114555
24	0xbd2e3264	-0.042528525
25	0xbda5cbed	-0.080955364
26	0xbdbf31c0	-0.09335661
27	0xbe17dc19	-0.14830054
28	0xbe0a42c7	-0.13502036
29	0xbd91a833	-0.071121596
30	0xbe03a33f	-0.12855242
31	0xbdd5ab4f	-0.10433065
32	0xbd4b7ae8	-0.04967776
33	0xbd40b09d	-0.04704343
34	0xbc53c807	-0.012926108
35	0x3cba3599	0.022730635
36	0xbe11464c	-0.14186972
37	0xbddb843e	-0.107185826
38	0xbca7523c	-0.020424955
39	0xbdf321ce	-0.11871682
40	0xbd983e99	-0.074338146
41	0x3a6b7d8d	0.0008983247
42	0xbd2aa05e	-0.041656844
43	0x3c569b58	0.01309856
44	0x3d8754ec	0.066079944
45	0xbb0228f1	-0.0019860829
46	0x3d379ca0	0.044827104
47	0x3de0940f	0.1096574
48	0x3d2751df	0.040849563
49	0x3dc9bd79	0.09850592
50	0x3e203106	0.15643701
51	0x3db5255c	0.08845016
52	0x3e1fb2a6	0.15595493
53	0x3e49e756	0.19717154
54	0x3e2467d6	0.16055235
55	0x3df11502	0.11771585
56	0x3e1f487d	0.15554996
57	0x3e1e8b72	0.15482882
58	0x3dfd55cb	0.12369879
59	0x3e0fd433	0.14045791
60	0x3e27d7d7	0.1639093
61	0x3e1215a1	0.14266063
62	0x3e323ce7	0.17406045
63	0x3dadd4cd	0.08487854
64	0x3da3ff1b	0.08007642
65	0x3dc02e6c	0.09383854
66	0x3dcdc78c	0.10047826
67	0x3d8e7c95	0.06957356
68	0x3db21ff9	0.086975046
69	0x3de5d41a	0.11222096
70	0x3d8d1a51	0.06889785
71	0x3db86e17	0.09005373
72	0xbdf782db	-0.120855056
73	0xbe001135	-0.12506564
74	0xbe0ee035	-0.13952716
75	0xbe07be92	-0.1325629
76	0xbe240eb3	-0.16021232
77	0xbe326efc	-0.1742515
78	0xbdf7c045	-0.120972194
79	0xbe0ad490	-0.13557649
80	0xbe165e96	-0.14684519
81	0xbde42e94	-0.111416966
82	0xbd090bf8	-0.03345868
83	0xbce06cce	-0.027395632
84	0xbdb69827	-0.089157395
85	0xbd51cd4e	-0.051221184
86	0xbd419328	-0.04725948
87	0xbddedc33	-0.108818434
88	0xbd3e1da9	-0.046415005
89	0xbd4965fb	-0.04916952
90	0x3db052fd	0.08609579
91	0x3dd723fb	0.105049096
92	0x3e12da63	0.1434112
93	0x3d875faa	0.06610043
94	0x3e1f0603	0.15529637
95	0x3e114636	0.1418694
96	0x3dd80c0c	0.10549173
97	0x3d31f530	0.04344672
98	0x3dbe7fe6	0.093017384
99	0x3d8cdbb6	0.06877844
100	0x3ddfb7c9	0.10923726
101	0x3e19a00e	0.15002462
102	0x3d66ba7f	0.0563302
103	0x3d94b584	0.07261184
104	0x3e16b168	0.14716113
105	0x3d507cb4	0.050900176
106	0x3dce1031	0.10061682
107	0x3d97037a	0.0737371
108	0xb93d84f8	-0.0001807398
109	0xb95102d1	-0.00019932842
110	0xb9432b15	-0.00018612698
111	0xb94f54ba	-0.00019772621
112	0xb9627eab	-0.00021600227
113	0xb951c95a	-0.00020006803
114	0xb934c65a	-0.0001724003
115	0xb94c08ce	-0.00019458236
116	0xb93b21fa	-0.00017846367
117	0xb981e5ab	-0.00024775913
118	0xb98cbb04	-0.00026842218
119	0xb982329d	-0.00024833242
120	0xb9854578	-0.00025419495
121	0xb9938c93	-0.0002814276
122	0xb98903cc	-0.00026133505
123	0xb968d45c	-0.00022204354
124	0xb9862ba7	-0.00025590995
125	0xb9786fcc	-0.0002369277
126	0xb98be83d	-0.00026685177
127	0xb98e8cce	-0.00027189258
128	0xb986f73b	-0.00025742673
129	0xb986089d	-0.0002556489
130	0xb990c8a4	-0.0002761531
131	0xb989489e	-0.0002618478
132	0xb96e0f8d	-0.00022703242
133	0xb987f8ac	-0.00025934482
134	0xb9803ef9	-0.0002446098
135	0xbde2c730	-0.11073148
136	0xbdf6cb55	-0.12050501
137	0xbdb022b5	-0.0860037
138	0xbd880786	-0.0664206
139	0xbd2b0da4	-0.041761056
140	0xbc861b38	-0.0163704
141	0x3d1b0e8f	0.03785568
142	0x3d83f622	0.064434305
143	0x3d6d36ce	0.057913594
144	0xbe2baa33	-0.16764145
145	0xbe344ef2	-0.1760824
146	0xbdc79bcb	-0.09746512
147	0xbde6369c	-0.11240885
148	0xbdbefd15	-0.09325615
149	0xbd81c2ec	-0.063360065
150	0xbc5e46ff	-0.0135667315
151	0x3cd1c21d	0.025605256
152	0x3c9e6edf	0.019339977
153	0x3a0c21d7	0.00053456187
154	0x3c207175	0.009792675
155	0x3d4ed0b6	0.05049201
156	0x3d7a5d03	0.06112386
157	0x3dd5a559	0.10431928
158	0x3dea2bc9	0.114341326
159	0x3e0ae14d	0.13562508
160	0x3e30e969	0.17276539
161	0x3e3a2458	0.18177927
162	0xb94139de	-0.00018427472
163	0xb941df9c	-0.00018489215
164	0xb9393cb6	-0.00017665591
165	0xb9384d1a	-0.0001757633
166	0xb933c602	-0.00017144534
167	0xb92f9b69	-0.00016747195
168	0xb929c670	-0.0001619102
169	0xb9320e7f	-0.00016980803
170	0xb92ffd97	-0.0001678377
171	0xb8e61243	-0.00010970656
172	0xb9073d0c	-0.00012897345
173	0xb91154f3	-0.00013859924
174	0xb8bfd083	-9.146428e-05
175	0xb8e4a75f	-0.000109030625
176	0xb9005c50	-0.0001224142
177	0xb8bb7678	-8.9389214e-05
178	0xb8f07e5b	-0.00011467627
179	0xb9078142	-0.00012922756
180	0xb9187f51	-0.00014543279
181	0xb9284437	-0.0001604714
182	0xb93ff6ab	-0.0001830707
183	0xb9100052	-0.0001373303
184	0xb9214b38	-0.00015382178
185	0xb93d2be3	-0.00018040794
186	0xb9134c08	-0.00014047336
187	0xb92ea034	-0.00016653613
188	0xb94d6b74	-0.00019590353
189	0xbd2e87ae	-0.042609863
190	0xbca814cc	-0.02051773
191	0xbb416903	-0.0029512055
192	0xbd849b5c	-0.06474945
193	0xbd8b5fd6	-0.06805389
194	0xbd0631b0	-0.03276223
195	0xbd443e4d	-0.047910977
196	0xbd3ac7d8	-0.045600742
197	0xbc23b0b1	-0.009990857
198	0xbdbbbcb1	-0.091668494
199	0xbd8628e6	-0.065507695
200	0xbcacf16c	-0.021111213
201	0xbe009e2c	-0.12560338
202	0xbdf2eeff	-0.11861991
203	0xbd8770c4	-0.06613305
204	0xbdce9cc6	-0.10088496
205	0xbdb6e158	-0.089297
206	0xbd28a2fd	-0.041171063
207	0x3da5e5b5	0.08100454
208	0x3dec93db	0.11551639
209	0x3e05e6df	0.13076352
210	0x3d42e1bf	0.04757857
211	0x3d950431	0.0727619
212	0x3dc89b0a	0.09795196
213	0x3d230f35	0.039809424
214	0x3d84371c	0.06455824
215	0x3dcc5f64	0.09979132
216	0xb81c6856	-3.729047e-05
217	0xb8255293	-3.941597e-05
218	0xb80ebd01	-3.4031462e-05
219	0xb8158b9f	-3.56544e-05
220	0xb8201c86	-3.8173537e-05
221	0xb8041bae	-3.149703e-05
222	0xb80942be	-3.2725504e-05
223	0xb81b7f3c	-3.7073376e-05
224	0xb8075647	-3.226686e-05
225	0xb7de54a0	-2.6503869e-05
226	0xb805669c	-3.1805233e-05
227	0xb804d82b	-3.1672575e-05
228	0xb7dae847	-2.6095788e-05
229	0xb7ffe7f8	-3.0506388e-05
230	0xb7f18126	-2.8789578e-05
231	0xb7d81027	-2.5756728e-05
232	0xb803feca	-3.1470125e-05
233	0xb800a595	-3.067179e-05
234	0xb80f69b2	-3.4192293e-05
235	0xb81d221c	-3.7463484e-05
236	0xb82b5797	-4.085115e-05
237	0xb80c4343	-3.3441243e-05
238	0xb81a192d	-3.6739908e-05
239	0xb82ab5c8	-4.0700455e-05
240	0xb810edf1	-3.4553876e-05
241	0xb8274138	-3.9876642e-05
242	0xb83b1ccc	-4.4611093e-05
243	0xbdbd23a2	-0.09235312
244	0xbdb7c1e9	-0.08972532
245	0xbd5d82e0	-0.05407989
246	0xbd996303	-0.07489588
247	0xbd864891	-0.0655681
248	0xbd125669	-0.03572694
249	0xbc91516a	-0.017739017
250	0x3a86c1b7	0.001028112
251	0x3c94a466	0.018144798
252	0xbde819e2	-0.11333062
253	0xbdc5fda6	-0.0966752
254	0xbd2c25f9	-0.0420284
255	0xbdc1bf20	-0.09460282

conv1.bias f4 [16]
0	0xbe17bd15	-0.14818223
1	0x3efffd03	0.4999772
2	0x3e0f709f	0.14007805
3	0xbe38f96a	-0.18063894
4	0x39ee184f	0.0004541301
5	0x3eb57aae	0.3544516
6	0xba0fd4c0	-0.00054867193
7	0x3ec05492	0.37564522
8	0xb8d59121	-0.00010183664
9	0x3ebd2e12	0.3694921
10	0xbe9787e8	-0.29595876
11	0xbe7592fd	-0.23981853
12	0xbe31bcaa	-0.17357126
13	0x3e4650a0	0.19366693
14	0xbdcf3819	-0.10118122
15	0x3cb43d73	0.022001958

conv2.weight f4 [16, 16, 3, 3]
0	0x3e08711d	0.133244
1	0x3de711be	0.11282681
2	0x3ddc833b	0.10767218
3	0x3e1d4f2b	0.15362231
4	0x3e0c2448	0.13685715
5	0x3e1b3651	0.15157439
6	0x3dd34b52	0.103171006
7	0x3dd9da78	0.10637373
8	0x3e0d405d	0.13794084
9	0xbd59b939	-0.053155158
10	0xbd7c09f5	-0.061532933
11	0xbd575040	-0.052566767
12	0xbd883660	-0.06650996
13	0xbd8fd868	-0.07023698
14	0xbd75b28c	-0.05998473
15	0xbd64cffa	-0.055862404
16	0xbd5e9b68	-0.054347426
17	0xbd58a0ed	-0.052887846
18	0x3dcbc904	0.0995045
19	0x3dd3f027	0.1034854
20	0x3dc7c540	0.09754419
21	0x3defe129	0.11712868
22	0x3df84c3e	0.12123917
23	0x3e063314	0.13105422
24	0x3da46400	0.08026886
25	0x3dc16f65	0.09445075
26	0x3dde3e74	0.10851756
27	0xbc29032c	-0.010315698
28	0xbd41e52e	-0.047337703
29	0xbd2f7b66	-0.04284229
30	0xbc5f4c41	-0.01362902
31	0xbd357f15	-0.044310648
32	0xbd19ac7a	-0.037518002
33	0xbc6a5e6f	-0.014304741
34	0xbcd918e5	-0.026501128
35	0xbc8b1d08	-0.016981617
36	0xb984b8b8	-0.00025314628
37	0xb989c859	-0.00026279947
38	0xb98d6bda	-0.0002697397
39	0xb993e501	-0.00028208646
40	0xb995efe6	-0.00028598233
41	0xb999b2b3	-0.00029315575
42	0xb99fabe7	-0.0003045492
43	0xb9a02cc7	-0.0003055094
44	0xb99e7155	-0.00030220547
45	0xbd2892be	-0.04115557
46	0xbd48a525	-0.04898562
47	0xbd33abcd	-0.043865014
48	0xbd4d07dd	-0.050056327
49	0xbd583aec	-0.052790567
50	0xbd3654e2	-0.044514544
51	0xbd3c36a7	-0.045950558
52	0xbd3e6642	-0.04648424
53	0xbd4c0049	-0.04980496
54	0x37da01ac	2.5988404e-05
55	0x37d9a708	2.5946196e-05
56	0x37d31d90	2.5166926e-05
57	0x37ca468b	2.4113126e-05
58	0x37ecde1d	2.8236822e-05
59	0x381833af	3.6287758e-05
60	0x3770b676	1.4347597e-05
61	0x37b73e38	2.1844273e-05
62	0x3802a96c	3.11522e-05
63	0xbd3dec46	-0.046367906
64	0xbd48a8e6	-0.0489892
65	0xbd389f91	-0.04507405
66	0xbd535d6c	-0.051602766
67	0xbd64e2e7	-0.055880453
68	0xbd62c87d	-0.05536698
69	0xbd257ca4	-0.04040207
70	0xbd2ca8ae	-0.042153053
71	0xbd3ef73f	-0.04662251
72	0x37023c6b	7.762671e-06
73	0x36d34235	6.2959975e-06
74	0x36c51061	5.8729643e-06
75	0x37192626	9.128393e-06
76	0x371450a4	8.840263e-06
77	0x3732b4b2	1.0651698e-05
78	0x36e4382f	6.80147e-06
79	0x3709d43a	8.215249e-06
80	0x373a3442	1.1098631e-05
81	0xbd276270	-0.04086536
82	0xbd3e323b	-0.046434622
83	0xbd2bb115	-0.041916925
84	0xbd43d4a5	-0.047810216
85	0xbd4e2a84	-0.050333515
86	0xbd32ba44	-0.043634668
87	0xbd2d43af	-0.042300876
88	0xbd286ff7	-0.041122403
89	0xbd289a04	-0.041162506
90	0x3dbcf84c	0.09227046
91	0x3d58c90d	0.052926112
92	0x3d5ec9bc	0.054391608
93	0x3df192ad	0.11795554
94	0x3da38712	0.07984747
95	0x3dc16335	0.0944275
96	0x3da54c0b	0.08071145
97	0x3d955f8f	0.07293617
98	0x3dd62e4e	0.10458051
99	0x3bf118e8	0.0073577054
100	0xbd76d4e8	-0.060261637
101	0xbd4855d5	-0.04890998
102	0x3d0bdcf4	0.034146264
103	0xbd113522	-0.035451062
104	0xbc96f911	-0.018429311
105	0x3cc7dd50	0.024397522
106	0x3b73ed5e	0.003722034
107	0x3cf63e05	0.03005887
108	0xbcd9a0ad	-0.026565874
109	0xbdd286c6	-0.10279612
110	0xbdbe9e90	-0.09307587
111	0xbc91301a	-0.017723132
112	0xbdb01646	-0.08597998
113	0xbd98f7d5	-0.07469145
114	0xbc31066a	-0.010804752
115	0xbd3938b1	-0.04522008
116	0xbcb20317	-0.021729989
117	0x3dc1e4a7	0.0946744
118	0x3dce655d	0.10077927
119	0x3dc86c03	0.097862266
120	0x3de69c03	0.112602256
121	0x3df4b831	0.11949194
122	0x3e01e1b5	0.12683757
123	0x3da29ace	0.07939683
124	0x3dc08871	0.09401024
125	0x3dd91d35	0.10601274
126	0x3d7890d4	0.060684994
127	0x3d50ab3d	0.050944556
128	0x3d38e7f7	0.045143094
129	0x3d952ea3	0.07284286
130	0x3d889221	0.06668497
131	0x3d977f1b	0.0739729
132	0x3d3c4159	0.045960758
133	0x3d4d8fb8	0.05018589
134	0x3d88de6a	0.06683047
135	0x3c775d22	0.015097888
136	0x3c9bf7c2	0.019039039
137	0x3c8fe7cc	0.017566584
138	0x3cc188d2	0.023624811
139	0x3ce4bcab	0.027921995
140	0x3cf61362	0.03003854
141	0x3c5f0748	0.013612576
142	0x3c9b9fdb	0.018997123
143	0x3cb3d924	0.021954127
144	0xbe153b4c	-0.14573401
145	0xbe22ff8b	-0.15917794
146	0xbd3a91ec	-0.04554932
147	0xbd1a15a2	-0.037618287
148	0xbcfd10b8	-0.030891761
149	0x3d0f8cd9	0.035046432
150	0x3d4ba4ab	0.049717586
151	0x3d641b35	0.05569001
152	0x3de9e4c4	0.11420587
153	0x3dedb29a	0.11606331
154	0x3e100737	0.14065252
155	0x3e042b27	0.12907086
156	0x3e2fda31	0.17173077
157	0x3e486b7b	0.1957225
158	0x3e4165ed	0.18886538
159	0x3e129f85	0.14318664
160	0x3e22dbdf	0.15904187
161	0x3e0f678f	0.14004348
162	0xbbf09e97	-0.007343124
163	0xbd1e62e4	-0.03866853
164	0x3b6d598b	0.0036216702
165	0x3d030e12	0.03199584
166	0x3b9c5481	0.004770816
167	0x3d016fb2	0.03160066
168	0x3da32a9a	0.0796711
169	0x3d6bd086	0.05757191
170	0x3d98d817	0.07463091
171	0xbd504dc4	-0.050855413
172	0xbc84f045	-0.01622785
173	0x3d24b804	0.040214553
174	0xbb3d716b	-0.0028906714
175	0x3d02001e	0.031738393
176	0x3d8d5239	0.06900448
177	0x3ce84476	0.028352957
178	0x3d747b89	0.059688125
179	0x3dba3449	0.09092004
180	0xb6a15470	-4.8080037e-06
181	0xb69b8a4f	-4.635461e-06
182	0xb79bb1bb	-1.8560202e-05
183	0xb8271f93	-3.984531e-05
184	0xb7dc565d	-2.626626e-05
185	0xb805c891	-3.1896463e-05
186	0xb8a3a269	-7.802697e-05
187	0xb89f28ab	-7.589286e-05
188	0xb89c0811	-7.440162e-05
189	0x3d8b38bf	0.06797933
190	0x3da83256	0.08212726
191	0x3d8da135	0.069155134
192	0x3e0ca8f1	0.13736321
193	0x3e2424bc	0.16029638
194	0x3e1de90c	0.15420932
195	0x3de4fe40	0.11181307
196	0x3e00affa	0.1256713
197	0x3ddb531a	0.1070921
198	0x38079e5a	3.2333985e-05
199	0x37495e70	1.20025215e-05
200	0x360f49ce	2.135162e-06
201	0x36afc891	5.2387554e-06
202	0xb67a0699	-3.7256743e-06
203	0xb7cf047b	-2.467841e-05
204	0xb8153b36	-3.5579513e-05
205	0xb84c9232	-4.8773545e-05
206	0xb877168e	-5.8910395e-05
207	0x3daa3725	0.08311299
208	0x3dc5e266	0.09662323
209	0x3dad3fcd	0.08459435
210	0x3dca62bc	0.09882113
211	0x3ddf9eeb	0.10918983
212	0x3dcce41f	0.10004448
213	0x3dbed3ec	0.09317765
214	0x3dd24427	0.10266905
215	0x3dc38157	0.09546154
216	0xb648bc47	-2.9911914e-06
217	0xb6d483b1	-6.3334232e-06
218	0xb694d794	-4.4358403e-06
219	0x3505dcf1	4.9867873e-07
220	0xb6764e27	-3.6702347e-06
221	0xb6b4bf23	-5.3866693e-06
222	0xb69892f4	-4.5470606e-06
223	0xb734da5e	-1.0779679e-05
224	0xb741b371	-1.1545476e-05
225	0x3d9ed94d	0.077562906
226	0x3dbbbe9c	0.09167215
227	0x3da42054	0.080139786
228	0x3df0ba19	0.11754245
229	0x3e099143	0.13434319
230	0x3e011270	0.1260469
231	0x3dc6721b	0.09689733
232	0x3ddb4583	0.10706618
233	0x3db80023	0.08984401
234	0xbe63e097	-0.22253643
235	0xbe509436	-0.20369038
236	0xbd7faff1	-0.06242365
237	0xbd9abafb	-0.07555195
238	0xbd0bebcb	-0.034160417
239	0x3d5e67a2	0.05429805
240	0x3c60aa91	0.013712541
241	0x3d5c7bdd	0.053829063
242	0x3e0321ba	0.12805834
243	0xbe68db6e	-0.22739956
244	0xbe31be13	-0.17357664
245	0xbd0bedf4	-0.034162477
246	0xbd51233f	-0.051059004
247	0x3d01dcac	0.03170459
248	0x3e01c671	0.12673356
249	0x3cf4d9f5	0.029889086
250	0x3dd6f413	0.10495772
251	0x3e3f3f7a	0.18676558
252	0xbe591407	-0.21199046
253	0xbe1b7260	-0.1518035
254	0xbd0b9c39	-0.034084532
255	0xbd298363	-0.041385066

conv2.bias f4 [16]
0	0x3ca6dce7	0.020369006
1	0x3e7393e8	0.2378689
2	0xbd7d33c4	-0.061816946
3	0xbd6057e8	-0.054771334
4	0xbd8fd776	-0.07023518
5	0x3e58b16b	0.2116143
6	0xbd87d9c1	-0.0663333
7	0x3d2f3eb4	0.042784408
8	0xbd6d86db	-0.057989936
9	0xba29f9eb	-0.0006484079
10	0x3c0227fc	0.007944103
11	0x3d11a87a	0.035561062
12	0xbd43d9bf	-0.04781508
13	0x3c6fb24b	0.014629911
14	0xbda76a5b	-0.081745826
15	0xbc7a7268	-0.015286066

conv3.weight f4 [14, 16, 3, 3]
0	0xbd53d0e5	-0.05171289
1	0xbdc43e42	-0.09582187
2	0xbe05d98e	-0.13071272
3	0xbe0117a3	-0.12606673
4	0xbe293e70	-0.16527724
5	0xbe42cabf	-0.19022654
6	0xbe24590d	-0.16049595
7	0xbe2d45ee	-0.16921207
8	0xbe3880f6	-0.18017945
9	0xbd2357fa	-0.039878823
10	0xbbb0b6a7	-0.0053928676
11	0xbdd8ab60	-0.10579562
12	0xbda1582e	-0.07878147
13	0xbd293177	-0.04130694
14	0xbd9ec820	-0.077530146
15	0xbc0facae	-0.008769197
16	0xbd5e1ccc	-0.05422668
17	0xbd686800	-0.056739807
18	0x3c84070c	0.016116641
19	0x3d6c9c84	0.057766452
20	0xbd07e65c	-0.033178672
21	0x3d22806b	0.03967325
22	0x3dd9618d	0.106143095
23	0x3bfaa1a2	0.0076486627
24	0xbb908324	-0.0044101644
25	0x3d2d9ecc	0.04238777
26	0xbc8c3b0d	-0.017118001
27	0xbad82521	-0.0016490557
28	0x3cac7783	0.021053081
29	0xbd2a56ec	-0.0415868
30	0xbd06ef0e	-0.032942824
31	0x3c510f44	0.012759987
32	0xbd1b66bc	-0.037939772
33	0xbd326a75	-0.043558557
34	0xbcc0d6fe	-0.023540016
35	0xbd5b9d7c	-0.053616986
36	0x3c872120	0.016495287
37	0x3d75e85b	0.060036045
38	0xbd0889ba	-0.03333447
39	0x3cd98e80	0.026557207
40	0x3daffef3	0.085935496
41	0xbbdbdb1f	-0.006709471
42	0xbc4856e5	-0.0122277485
43	0x3d03143f	0.03200173
44	0xbcf2b11e	-0.029625472
45	0xbcfbac19	-0.030721711
46	0x3b9694aa	0.004595359
47	0xbd8fce45	-0.07021765
48	0xbcb689eb	-0.022282561
49	0x3cbf0d9e	0.023321923
50	0xbced13f4	-0.028940178
51	0x3d2c74b8	0.0421035
52	0x3d47b865	0.048759837
53	0x3d0949ed	0.033517767
54	0x3c46c4cd	0.012131882
55	0x3d5aa3c7	0.053378846
56	0xbd06b861	-0.03289068
57	0x3d0754e5	0.033039946
58	0x3dbf103c	0.09329268
59	0xba40e971	-0.0007359004
60	0xbc33c468	-0.01097212
61	0x3d0c8d6e	0.034314565
62	0xbcbf99e0	-0.023388803
63	0xbd5561fa	-0.05209539
64	0xbdbd56e0	-0.09245086
65	0xbdf28cfc	-0.11843297
66	0xbddafbb8	-0.10692543
67	0xbe0d7f3b	-0.13818066
68	0xbe22ce07	-0.15898906
69	0xbe08d9b4	-0.13364297
70	0xbe07cea1	-0.13262416
71	0xbe13b67e	-0.14425084
72	0x3c3feeba	0.011714632
73	0x3d46bf03	0.048522007
74	0xbcf23e71	-0.02957079
75	0x3c05d87b	0.008169289
76	0x3d6df474	0.058094457
77	0xbc5320d5	-0.012886246
78	0xbc8b2dd4	-0.016989626
79	0x3c9499ec	0.018139802
80	0xbcead253	-0.028664744
81	0xb97c69c1	-0.00024071989
82	0xb9c68085	-0.00037861257
83	0xb9cbc709	-0.0003886747
84	0xb9a0f474	-0.0003069971
85	0xb9b59655	-0.00034635016
86	0xb993b7ba	-0.00028174912
87	0xba11b31b	-0.0005558
88	0xb9e1954d	-0.00043026582
89	0xb9e2f6f7	-0.00043290082
90	0xbd52c82e	-0.051460437
91	0xbdaeba0c	-0.085315794
92	0xbddd46df	-0.10804533
93	0xbdd7de4d	-0.105404474
94	0xbe0a0d42	-0.1348162
95	0xbe18418e	-0.14868757
96	0xbe036fa6	-0.12835559
97	0xbe0531d2	-0.13007286
98	0xbe0bd2c5	-0.13654621
99	0xbcff932d	-0.031198109
100	0xbd499137	-0.049210753
101	0xbd47cf65	-0.04878177
102	0xbd2423c5	-0.040073175
103	0xbd43905d	-0.047745097
104	0xbd4e55c1	-0.05037475
105	0xbd53fb5f	-0.051753398
106	0xbd3798f3	-0.044823598
107	0xbd3da18c	-0.04629664
108	0x3b035183	0.0020037598
109	0x3d4e310b	0.05033974
110	0xbcdac6ba	-0.026706088
111	0x3ce82484	0.028337725
112	0x3dcad154	0.099032074
113	0x3c3dd884	0.011587266
114	0xbb0f1c88	-0.0021837074
115	0x3d480268	0.04883042
116	0xbb544a15	-0.003239279
117	0x3c9d0aef	0.019170253
118	0x3d923065	0.07138137
119	0xbb707426	-0.0036690324
120	0x3d517bb7	0.051143374
121	0x3dca1729	0.09867699
122	0x3ceb36f3	0.028712725
123	0x3d29d4f5	0.041462857
124	0x3db90490	0.09034073
125	0x3d2fe2dc	0.04294096
126	0x3b86a292	0.0041087354
127	0x3cb6dc37	0.022321803
128	0xbd7463ff	-0.059665676
129	0xbd1d2f7a	-0.038375355
130	0x3b58dd54	0.0033090906
131	0xbd8b39fc	-0.06798169
132	0xbd889568	-0.06669122
133	0xbd4b014c	-0.049561784
134	0xbdba1fe0	-0.09088111
135	0xbd4dadcb	-0.05021457
136	0xbdafd2d8	-0.08585137
137	0xbdc06523	-0.0939429
138	0xbda1c79d	-0.07899401
139	0xbdc8ba0d	-0.09801111
140	0xbde488d2	-0.11158909
141	0xbdec500f	-0.115387075
142	0xbde42fd4	-0.11141935
143	0xbdda96f9	-0.10673327
144	0xbd40b68a	-0.047049083
145	0xbc88be48	-0.016692296
146	0x3c811a8c	0.015759729
147	0xbd9f9027	-0.07791167
148	0xbdaea1b4	-0.08526936
149	0xbcbfbff6	-0.023406964
150	0xbd1664db	-0.036717277
151	0xbd663d17	-0.056210604
152	0xbcd87a1e	-0.026425418
153	0xbc1a61f7	-0.009422771
154	0xbcc9a820	-0.024616301
155	0xbc690841	-0.014223159
156	0xbc84f7b4	-0.016231395
157	0xbc9cb45f	-0.019128976
158	0xbb1ee139	-0.002424313
159	0xbacef344	-0.0015789052
160	0xbb8dd0ec	-0.004327884
161	0xb98ffe79	-0.00027464682
162	0x3b827121	0.003980771
163	0xbc2f8ba3	-0.010714444
164	0xbd3447ba	-0.044013716
165	0x3b428a25	0.0029684391
166	0xbc8e93e1	-0.017404499
167	0xbd4e0a9e	-0.050303094
168	0xbc0dad6f	-0.008647307
169	0xbd08ef52	-0.03343136
170	0xbd239c8a	-0.03994421
171	0xbca8974c	-0.020579956
172	0xbc942640	-0.018084645
173	0xbc66faeb	-0.014097909
174	0xbcc5f5b3	-0.02416501
175	0xbd2a1558	-0.04152426
176	0xbd190bbe	-0.037364714
177	0xbca92a1f	-0.020649968
178	0xbceb447b	-0.028719177
179	0xbcfc6c09	-0.030813234
180	0x3b011630	0.0019697063
181	0xbc33c3f3	-0.010972011
182	0xbd2704db	-0.040776115
183	0xbba5b5c0	-0.0050570667
184	0xbce4483a	-0.027866472
185	0xbd5b91e0	-0.053605914
186	0xbc8a82da	-0.016908098
187	0xbd194aa9	-0.037424717
188	0xbd2a2026	-0.041534565
189	0xbceafc04	-0.028684624
190	0xbd10d9f8	-0.03536412
191	0xbcbd3d5e	-0.023100551
192	0xbcc59ff0	-0.024124116
193	0xbc924d6a	-0.01785918
194	0xbc1718e1	-0.00922224
195	0xbb2f8b8a	-0.0026786053
196	0xbbc00ac0	-0.0058606565
197	0xbb6615c1	-0.0035108181
198	0x39be6081	0.00036311525
199	0xbc30d96f	-0.010794028
200	0xbd27c7be	-0.040961973
201	0xb9c65a7c	-0.0003783292
202	0xbca4aadf	-0.020101009
203	0xbd45c9b7	-0.048288073
204	0xbc4120d5	-0.011787613
205	0xbd0784eb	-0.033085745
206	0xbd21341c	-0.039356336
207	0xbd2dde37	-0.04244825
208	0xbca50b73	-0.020147061
209	0x3c0028c4	0.007822219
210	0xbd842c0d	-0.064537145
211	0xbd97fdac	-0.07421431
212	0xbcb2fb44	-0.021848328
213	0xbcde9695	-0.027171412
214	0xbd2c0bdb	-0.042003494
215	0xbcb4f22c	-0.022088133
216	0xbbc1bf1f	-0.005912676
217	0xbc88e903	-0.016712671
218	0xbd128e46	-0.035780214
219	0xbc66959f	-0.014073758
220	0xbd0a53b4	-0.03377123
221	0xbd44ce82	-0.048048504
222	0xbcaa6df7	-0.020804388
223	0xbd0acd9e	-0.033887498
224	0xbd15b7a3	-0.036552083
225	0x3724e922	9.829442e-06
226	0x379a310e	1.8381073e-05
227	0x375ad74a	1.3043938e-05
228	0x377231cd	1.4435919e-05
229	0x37977136	1.805332e-05
230	0x379233e1	1.7428714e-05
231	0x37dee7af	2.6572348e-05
232	0x3826d7b0	3.977836e-05
233	0x37aa1890	2.0277017e-05
234	0xbd2be3ff	-0.04196548
235	0xbca6c50c	-0.020357631
236	0x3b98b986	0.004660788
237	0xbd832fc8	-0.06405598
238	0xbd97e43a	-0.07416578
239	0xbcd4a551	-0.025957735
240	0xbcef8ea5	-0.029242823
241	0xbd36e3fb	-0.044651013
242	0xbccf17dc	-0.025279932
243	0xbc7b0b1f	-0.015322476
244	0xbc590e3e	-0.0132480245
245	0xbbf7e946	-0.00756565
246	0xbca2768f	-0.019831924
247	0xbcda8b37	-0.026677711
248	0xbc5f9d8a	-0.0136484
249	0xbba258a8	-0.0049544163
250	0xbc053475	-0.0081301825
251	0xbbfc4175	-0.007698233
252	0x3b9a581a	0.0047102096
253	0xbc4bb5f9	-0.012433522
254	0xbd407b34	-0.046992496
255	0x3b9ad85e	0.0047255

conv3.bias f4 [14]
0	0xbc974dc0	-0.018469691
1	0xbbda4c17	-0.0066619026
2	0xbd320d4d	-0.043469716
3	0xbc6a793a	-0.014311129
4	0x3b6de7c6	0.0036301478
5	0xbd1e4315	-0.038638193
6	0xbc0f70db	-0.008754934
7	0xbce002c0	-0.027345061
8	0x3de3b383	0.111182235
9	0x3c9e5140	0.019325852
10	0xbc7a53b6	-0.015278747
11	0xbd801968	-0.06254846
12	0x3bbee546	0.0058256714
13	0x3d811cb0	0.063043

fc1.weight f4 [28, 224]
0	0x3cb27885	0.021785984
1	0x3d418930	0.047249973
2	0xbc213038	-0.009838156
3	0x3d38ebef	0.04514688
4	0x3cb6d3e0	0.022317827
5	0xbd284edf	-0.041090842
6	0xbcd01646	-0.025401246
7	0xbe04de11	-0.12975337
8	0x3d492108	0.049103767
9	0x3d1d0920	0.03833878
10	0xbd1b958f	-0.037984427
11	0xbbd928bd	-0.006627171
12	0x3df45a52	0.1193129
13	0x3d85ab62	0.06526829
14	0x3d27616a	0.040864386
15	0xbbda6b99	-0.0066656587
16	0x395f1212	0.00021273669
17	0x3a557af4	0.00081436266
18	0xbad055d5	-0.001589472
19	0x3bf8f202	0.007597209
20	0x3bce2383	0.0062908544
21	0xbcb08d75	-0.021551827
22	0xbc94209b	-0.018081954
23	0x3c2211d9	0.0098919505
24	0xbb8ee2f2	-0.00436055
25	0x3c19cd7e	0.009387372
26	0xbc339f8b	-0.010963331
27	0x3bc7a66f	0.0060928385
28	0x3bacdf47	0.00527564
29	0x3c3f5aa2	0.011679323
30	0xbc2d12bd	-0.01056355
31	0x38e74a86	0.000110288194
32	0xbd065a9b	-0.03280125
33	0xbcc51372	-0.024057124
34	0x3c074fc9	0.008258768
35	0xbc2b5cc4	-0.010459129
36	0xbcf0796f	-0.029354779
37	0x3cf524cd	0.029924775
38	0x3d525050	0.051346123
39	0x3d90c974	0.07069674
40	0xbb93513c	-0.004495768
41	0x3cd8c2ba	0.02646004
42	0x3daa2bc8	0.08309132
43	0x3cce43ea	0.025178868
44	0xbd499ff8	-0.049224824
45	0xbb2bd417	-0.0026218945
46	0xbd938cf9	-0.07204623
47	0xbd86c549	-0.06580598
48	0x3d618662	0.055059798
49	0x3dce6190	0.10077202
50	0x3c97cf63	0.018531507
51	0x3c67aa57	0.014139733
52	0x3d2500f8	0.040284127
53	0x3d4d9343	0.050189268
54	0x3c122146	0.008919066
55	0xbd2632a1	-0.040575627
56	0x3bc12302	0.005894066
57	0xbd266b65	-0.040629763
58	0xbd071cdf	-0.032986518
59	0xbdee620b	-0.11639794
60	0xbce196d9	-0.02753775
61	0xbdc0bf48	-0.09411484
62	0xbdc47ec5	-0.09594492
63	0xbd04387f	-0.03228044
64	0xbd80eba4	-0.06294945
65	0x3d077271	0.033068124
66	0x3ccc6656	0.024951141
67	0xbdc1c47f	-0.09461307
68	0xbd036ffb	-0.032089215
69	0x3cb005fa	0.021487225
70	0xbdf9cd7c	-0.12197396
71	0x3db4a2ee	0.08820139
72	0xbd3156cc	-0.043295667
73	0x3c9f7656	0.019465607
74	0x3d23fc00	0.040035248
75	0x3c375a37	0.0111909425
76	0xbbb3aa3a	-0.005482939
77	0x3da5e4df	0.08100294
78	0x3ba8f2b6	0.0051558865
79	0xbd5c0ab8	-0.05372116
80	0xbc81ae6f	-0.015830247
81	0xbcac1280	-0.021004915
82	0xbc43d4b5	-0.011952569
83	0x3c19bf69	0.009384015
84	0xbcc7dc03	-0.024396902
85	0xbd08b251	-0.03337318
86	0xbd34dd7f	-0.044156548
87	0x3c9e92c4	0.019357093
88	0xbcc3deca	-0.023909945
89	0xbd9c9f04	-0.07647517
90	0xbd1cd0ee	-0.03828519
91	0x3ca899f4	0.020581223
92	0x3c0c54d0	0.008565143
93	0xbcdaf8f8	-0.026730046
94	0xbc509f34	-0.0127332695
95	0x3d07969d	0.03310262
96	0xbc8e45bc	-0.017367236
97	0x3d0af14f	0.033921536
98	0x3d22a054	0.039703682
99	0xbafa0a72	-0.0019076599
100	0xbd1f62fb	-0.038912755
101	0x3c68947c	0.014195558
102	0xbd403d5f	-0.046933528
103	0xbc65bd15	-0.014022131
104	0xbd54ad17	-0.051922884
105	0x3bc2b83c	0.0059423726
106	0xbda36cc0	-0.07979727
107	0xbd306b49	-0.043071065
108	0x3d0da558	0.034581512
109	0x3c7c7536	0.015408805
110	0xbce3eeea	-0.027823884
111	0x3cfc34cb	0.030786892
112	0x3df9d2dd	0.12198422
113	0x3da30df1	0.079616435
114	0x3d39c84b	0.04535703
115	0x3d9b0986	0.07570176
116	0xbd88637b	-0.066595994
117	0xbe0b9822	-0.13632253
118	0xbdb1064a	-0.08643778
119	0xbd9bec2d	-0.07613406
120	0xbb73385e	-0.0037112455
121	0xbe1fa512	-0.15590313
122	0xbcc5869b	-0.024112036
123	0x3c089687	0.00833667
124	0x3bb009fc	0.005372284
125	0x3d0ea9f2	0.03483004
126	0x3cd8234f	0.026384024
127	0x3d7925b6	0.06082698
128	0x3d919e60	0.07110286
129	0x3daa313f	0.08310174
130	0x3dac536e	0.084143505
131	0x3db0f6fc	0.086408585
132	0x3dc7792f	0.09739911
133	0x3ce54a3e	0.027989503
134	0xbc1453da	-0.009053195
135	0x3d006532	0.031346507
136	0x3d3a5c5a	0.04549823
137	0x3d7309b5	0.05933543
138	0x3d320e14	0.043470457
139	0x3d4b968f	0.04970413
140	0x3d880797	0.06642073
141	0x3e1161e2	0.14197496
142	0x3d8c8c66	0.068627164
143	0x3d0c3f69	0.03424016
144	0x3ced05d1	0.028933438
145	0x3b95a31a	0.0045665624
146	0x3a873790	0.0010316242
147	0x3cbe945e	0.023264106
148	0xba82c67b	-0.0009977365
149	0xbc7fdfdf	-0.01561734
150	0xbd9ad367	-0.07559853
151	0xbc4279d0	-0.011869863
152	0xbae45241	-0.0017419533
153	0xbd36ab04	-0.044596687
154	0xbd62e80e	-0.055397086
155	0x3c3b0768	0.01141534
156	0x3c156e83	0.009120586
157	0xbccbaef7	-0.024863703
158	0x3be11f3c	0.0068701785
159	0x3d8207b9	0.06349129
160	0x3d31eda6	0.04343953
161	0x3b0d878a	0.002159568
162	0xbcc41459	-0.023935484
163	0x3ccde42c	0.025133215
164	0x3c92bc6a	0.017912108
165	0x3c9e979d	0.019359404
166	0xbd049a90	-0.032373965
167	0x3d4159aa	0.04720465
168	0x3df2efa2	0.118621126
169	0xbc67197c	-0.014105197
170	0xbd1fd14a	-0.039017953
171	0xbc4fe66e	-0.012689216
172	0x3e0cd71b	0.13753931
173	0x3c974ed5	0.018470207
174	0xbc96df16	-0.018416923
175	0x3df1e227	0.11810713
176	0xbd358083	-0.04431201
177	0xbd227296	-0.03966006
178	0x3c9e2d5a	0.019308735
179	0x3d85f111	0.065401204
180	0xbd931e8d	-0.071835615
181	0xbd7e7ae2	-0.06212891
182	0x3d298f0e	0.041396193
183	0x3e011649	0.12606157
184	0xbdddee5b	-0.10836478
185	0xbd51434a	-0.051089562
186	0xbd4231cf	-0.047410782
187	0xbca055c0	-0.019572139
188	0xbdd0d5ac	-0.10197005
189	0xbc9e1e1d	-0.019301469
190	0x3c3863ee	0.011254294
191	0x3c3612d8	0.011112891
192	0xbda9aff0	-0.082855105
193	0xbcedd7fc	-0.029033653
194	0x3ceac823	0.028659886
195	0x3d334875	0.043770272
196	0x3db2e7c5	0.08735613
197	0xbc544451	-0.012955741
198	0x3dbf239a	0.09332962
199	0xbde4eb70	-0.11177719
200	0xbdd43be1	-0.103629835
201	0xbd2fbddf	-0.042905685
202	0xbd787359	-0.06065688
203	0xbd2ce0b6	-0.04220649
204	0xbd6cd778	-0.057822675
205	0x3c0cdd61	0.008597703
206	0xbd683dbd	-0.056699503
207	0xbd02cfca	-0.031936444
208	0x3ca79eae	0.020461407
209	0xbda9682e	-0.08271824
210	0xbc7d5a8e	-0.015463484
211	0x3c8d5cb7	0.017256124
212	0x3bdc2c94	0.0067191813
213	0x3d4722ed	0.048617292
214	0xbd920c74	-0.071312815
215	0xbdafd813	-0.08586135
216	0x3d998084	0.074952155
217	0xbdbc70c6	-0.09201197
218	0xb939cba7	-0.00017718841
219	0xbc5f4be8	-0.013628937
220	0x3be10e15	0.006868134
221	0x3d0f1d86	0.034940265
222	0x3db029d0	0.08601725
223	0x3d77f63c	0.06053756
224	0xbcfbe7bd	-0.03075015
225	0x3cc862f2	0.024461243
226	0x3b3cdcdd	0.0028818168
227	0x3d28726c	0.041124746
228	0xbc49d243	-0.012318197
229	0xbc9ef5c2	-0.019404296
230	0xbd5571a1	-0.052110318
231	0x3cc54612	0.024081264
232	0xbbc8db06	-0.0061296253
233	0xbd8b27b6	-0.06794684
234	0xbd472b41	-0.048625235
235	0x3d03eea1	0.032209996
236	0x3a87d2ac	0.0010362468
237	0x3b3026ef	0.0026878675
238	0x3bc0c456	0.00588278
239	0xbb0fa5b6	-0.002191884
240	0xbc33dced	-0.010977966
241	0xbc6824bf	-0.014168917
242	0xbc2af9f1	-0.010435567
243	0xbba7866b	-0.0051124594
244	0xbc99ff1d	-0.018798405
245	0xbce15b98	-0.027509496
246	0xbc91df34	-0.017806627
247	0xbccdf464	-0.025140949
248	0xbab04b50	-0.0013450179
249	0xbcdfb61d	-0.027308518
250	0xbbb13387	-0.005407754
251	0xbbcabe97	-0.006187271
252	0x3bbe9742	0.005816371
253	0xbc3999af	-0.011328145
254	0x3bfcff47	0.007720861
255	0xbca05ec2	-0.019576434

fc1.bias f4 [28]
0	0x3c8d1565	0.017222116
1	0x3d0bc2f7	0.03412148
2	0x3cdab07f	0.026695488
3	0xbce69495	-0.028147021
4	0x3b93e1ca	0.004513
5	0xbc5162a1	-0.012779863
6	0x3b644160	0.0034829006
7	0xba8bda10	-0.0010669846
8	0x3c2798e6	0.010229325
9	0xbd3ac9f4	-0.045602754
10	0x3acb1898	0.0015495
11	0x3b88a118	0.0041695945
12	0xbb30d7da	-0.0026984126
13	0xbd3f4625	-0.046697754
14	0xbc2c20cf	-0.010505869
15	0x3c3e947f	0.011632084
16	0xbd2f8c31	-0.042858306
17	0xbc34fa48	-0.011046
18	0xbc0e75ee	-0.008695109
19	0x3d0b3af2	0.03399176
20	0xbc187595	-0.0093053775
21	0x3c1d962a	0.009618321
22	0xbbb1e834	-0.005429292
23	0x3c85e735	0.0163456
24	0x3cb6a21e	0.0222941
25	0x3a00ab3b	0.0004908328
26	0x3c0009a8	0.007814802
27	0x3c5a2196	0.013313672

fc2.weight f4 [3, 28]
0	0xbf043e0b	-0.5165717
1	0x3e7882ee	0.24268696
2	0xbea87696	-0.32902974
3	0xbe790f1f	-0.24322174
4	0xbebcdc95	-0.3688704
5	0x3e8e750a	0.2782367
6	0xbeb1c7b5	-0.34722677
7	0x3e1542e0	0.14576292
8	0x3e663e84	0.22484785
9	0x3e21c016	0.15795931
10	0x3e4ad75d	0.19808717
11	0x3e62cbe9	0.22148098
12	0xbe9e43a7	-0.3091099
13	0x3da0f7a8	0.07859737
14	0xbda5d92b	-0.08098062
15	0x3d8a229e	0.06744884
16	0xbe57ea9a	-0.21085587
17	0x3d66ff0e	0.056395583
18	0xbea5cbdd	-0.32382098
19	0x3eabdfaa	0.3356908
20	0xbe61e718	-0.22060812
21	0x3e2bedfc	0.16790003
22	0xbcee6fa3	-0.029105967
23	0x3e901ab9	0.28145388
24	0x3e92262e	0.28544754
25	0x3d2c1868	0.042015463
26	0xbc476965	-0.012171124
27	0xbe1e478b	-0.15456979
28	0x3e04707a	0.12933531
29	0x3d92f5d1	0.07175792
30	0x3e8f0d5b	0.27939877
31	0xbe18f947	-0.14938842
32	0x3c26e42d	0.010186237
33	0xbeb046cd	-0.34429017
34	0x3c99a160	0.018753707
35	0xbd4cd979	-0.050012086
36	0xbd6efc7c	-0.058346257
37	0x3f0fa1f8	0.5610652
38	0xbd708a38	-0.058725566
39	0xbdd83fb0	-0.105590224
40	0x3e072d97	0.13200985
41	0xbee8f1b0	-0.45496893
42	0x3e127b41	0.1430483
43	0xbe615720	-0.22005892
44	0xbeb95f0f	-0.36205336
45	0xbf017f0c	-0.50584483
46	0x3e016e11	0.12639643
47	0xbe3ba6d9	-0.18325366
48	0x3dd77fb9	0.10522408
49	0x3e434a03	0.19071202
50	0x3e797b8c	0.24363536
51	0x3e2d7d94	0.16942436
52	0xbddc06e9	-0.107435055
53	0x3d1dfbf8	0.038570374
54	0x3e3f3501	0.18672563
55	0x3e90de4b	0.28294596
56	0x3e708aae	0.23490402
57	0xbe7926f8	-0.24331272
58	0x3d8449f9	0.06459422
59	0x3e9d3dd3	0.3071123
60	0x3e99fded	0.30076542
61	0x3ce7b817	0.028286023
62	0x3ea9449a	0.3306015
63	0x3db519b0	0.0884279
64	0xbc83fc07	-0.016111387
65	0xbf2492de	-0.642866
66	0x3dc7330f	0.097265355
67	0xbc8899b4	-0.016674854
68	0x3dcd149c	0.100136966
69	0x3eb55efa	0.35424024
70	0xbd03aa73	-0.032144975
71	0x3e450876	0.19241509
72	0x3f0ea272	0.5571662
73	0x3ec45576	0.38346452
74	0x3e54d9c4	0.20786196
75	0xbe6ee9af	-0.2333133
76	0x3e5b235b	0.21400206
77	0xbe5febf9	-0.2186736
78	0x3b20c786	0.0024532988
79	0xbf030985	-0.511864
80	0xbe109174	-0.14117986
81	0x3d33225c	0.04373394
82	0xbdf73cdd	-0.120721556
83	0xbdca5b67	-0.09880715

fc2.bias f4 [3]
0	0x3e039823	0.12851004
1	0x3c1d12b6	0.009586981
2	0xbd0b6bb8	-0.034038275
