ball_detection/candidate_generation_fcn/weights.pt (torch_old, 22369 bytes, 9 tensors)

ops.0.weight f4 [6, 3, 5, 5]
0.099162206 -0.040240403 0.053924702 0.09378627 -0.014080787 0.13814715 0.054945644 0.06409649
-0.035850387 0.0005859104 0.027998425 -0.023819968 -0.119068034 0.01983535 0.06764412 0.04785731
-0.076426476 0.030968614 -0.0016389817 -0.03870782 0.20068495 0.079665214 0.033087857 0.04527992
-0.07394899 0.09377895 -0.14834018 -0.14798059 -0.018374313 -0.13457428 -0.02111611 0.015870484
0.011751826 -0.1837267 0.021847598 0.14687014 -0.15850501 -0.030248323 -0.093642615 0.035265964
0.05330502 -0.05902536 -0.14495218 -0.15024032 -0.16051297 0.060222093 -0.06648392 -0.19028847
-0.05151705 -0.20006081 -0.05847179 -0.03968988 0.17017971 0.14960803 0.0012834262 -0.12779681
-0.107425496 0.092466705 -0.022970863 0.084952936 -0.08065915 -0.08559232 0.041799456 -0.07906022
0.003616135 0.12548488 -0.0054654097 -0.14852309 -0.016922131 -0.17346777 0.10868563 -0.0763563
-0.15375133 -0.20434332 -0.16126357 0.018172296 -0.08532529 -0.07570229 0.05994908 -0.1313549
0.0434386 -0.02683775 0.0412569 -0.03789953 0.057644628 0.086104244 -0.013434338 0.15247759
0.008308658 -0.11794786 -0.041919917 -0.031160343 0.09331816 0.09092671 -0.10731772 0.07128971
0.07148469 0.09338655 -0.002704492 -0.09263961 0.0905279 -0.03876769 0.030844623 0.085215524
-0.023736041 0.05582611 0.118798226 -0.061545454 -0.027823023 -0.056643058 0.022161603 0.19111861
0.024397762 0.013884376 0.08240747 0.06526016 0.042821407 0.03876034 0.097319566 0.09359049
0.0039805053 0.04826375 0.11869448 0.035956927 -0.03379751 -0.05447268 0.0895493 0.0505273
-0.05376925 0.020378636 -0.0058585647 -0.15191466 0.023446482 -0.03096676 0.09084202 -0.20462294
-0.13093776 -0.17378955 -0.05581111 0.09522524 -0.2269632 -0.18414457 -0.16844119 -0.10906997
0.097634025 -0.12655061 -0.10281541 -0.13194934 0.06628155 0.10866631 0.06335859 -0.018471938
-0.090365104 0.040668402 0.096843 0.02959943 -0.08985208 0.028383628 -0.026574492 -0.08266274
0.016731892 0.1533741 -0.03895858 0.079779305 -0.012913017 -0.060076877 -0.035340667 -0.02413186
0.013597454 -0.13138074 0.043494854 -0.030372296 -0.021121172 -0.17465237 0.01296877 -0.09156224
-0.017643003 -0.08997599 -0.055052336 0.085084125 0.041464675 -0.0778948 0.085662805 -0.13141708
-0.0076989233 0.1437849 0.115481816 0.12189543 0.030106679 -0.12672591 0.14709246 0.012401435
-0.04918344 -0.095048524 -0.016985822 0.0074214814 -0.04642204 0.06334802 -0.06994975 0.045127787
0.077823505 -0.032853436 0.10459736 -0.15067269 -0.003960626 0.14367123 0.084366456 -0.0025567329
-0.019567087 0.008045042 0.17757653 0.15720768 0.176135 0.1329207 0.037166603 0.15627068
-0.06952897 -0.07569545 -0.112157874 -0.040082395 0.075024486 0.039065897 -0.083764106 -0.0486176
0.012743886 0.020920333 0.090121254 -0.023389246 0.080279425 -0.025687657 0.042014714 -0.0061731734
0.0007690417 -0.034211118 0.043708816 0.14956428 0.17480321 0.18798637 0.0802569 -0.046564132
-0.055821322 0.21747425 0.087068975 0.14537972 0.019653937 -0.19088846 -0.008406965 0.10883692
0.159138 0.09674106 -0.17328013 0.072880685 -0.12097273 -0.069420256 -0.05336636 -0.097840555
00000000: 8e15 cb3d 1fd3 24bd 26e0 5c3d 0413 c03d
00000010: 1ab3 66bc 7276 0d3e af0e 613d 0545 833d
00000020: dbd7 12bd c897 193a f45c e53c 1822 c3bc
00000030: f1d9 f3bd be7d a23c 0089 8a3d 0706 443d
00000040: 7c85 9cbd e4b1 fd3c 1ad3 d6ba 178c 1ebd
00000050: 5b80 4d3e 8427 a33d 2287 073d 7077 393d
00000060: 9172 97bd 2e0f c03d 7de6 17be 3988 17be
00000070: ba85 96bc d7cd 09be b1fb acbc d102 823c
00000080: bb8a 403c da22 3cbe bcf9 b23c 2065 163e
00000090: 234f 22be 55cb f7bc b3c7 bfbd 0b73 103d
000000a0: 5d56 5a3d 93c4 71bd 586e 14be 99d8 19be
000000b0: 835d 24be 71ab 763d b928 88bd fbda 42be
000000c0: 8b03 53bd bedc 4cbe 1e80 6fbd db91 22bd
000000d0: 9743 2e3e d932 193e a338 a83a 2bdd 02be
000000e0: e601 dcbd 2f5f bd3d 642d bcbc cefb ad3d
000000f0: a030 a5bd 074b afbd e835 2b3d 53ea a1bd
00000100: aefc 6c3b 1c7f 003e 2e17 b3bb 7016 18be
00000110: 48a0 8abc 89a1 31be 9296 de3d b160 9cbd
00000120: fd70 1dbe 603f 51be 4722 25be 11de 943c
00000130: 07bf aebd cd09 9bbd 2b8d 753d e681 06be
00000140: acec 313d d7da dbbc fffc 283d 8a3c 1bbd
00000150: c61c 6c3d 6c57 b03d b31b 5cbc 1623 1c3e
00000160: 0a21 083c a68e f1bd 38b4 2bbd fa43 ffbc
00000170: 971d bf3d c837 ba3d 65c9 dbbd 5700 923d
00000180: 9166 923d 7341 bf3d d93d 31bb d6b9 bdbd
00000190: b166 b93d dfca 1ebd ddad fc3c 7a85 ae3d
000001a0: 1672 c2bc eba9 643d 7c4c f33d 1617 7cbd
000001b0: 1ced e3bc 8d02 68bd 408c b53c 99b4 433e
000001c0: d1dd c73c 4b7b 633c 3fc5 a83d 1ea7 853d
000001d0: 8065 2f3d 2ac3 1e3d 7b4f c73d 5fac bf3d
000001e0: e66e 823b 36b0 453d 1716 f33d 9247 133d
000001f0: 426f 0abd bf1e 5fbd a065 b73d b7f5 4e3d
00000200: 253d 5cbd 19f1 a63c 34f9 bfbb 848f 1bbe
00000210: d612 c03c 01ae fdbc 620b ba3d ad88 51be
00000220: 8c14 06be e3f5 31be 319a 64bd 7305 c33d
00000230: 0b69 68be 6590 3cbe d97b 2cbe 1460 dfbd
00000240: 59f4 c73d 7c96 01be e390 d2bd ba1d 07be
00000250: 9fbe 873d 718c de3d 26c2 813d 7652 97bc
00000260: 5711 b9bd e993 263d 9f55 c63d 817a f23c
00000270: 5e04 b8bd c884 e83c c0b2 d9bc 154b a9bd
00000280: 5211 893c 1a0e 1d3e 0893 1fbd 5563 a33d
00000290: 1e91 53bc 2c13 76bd 60c1 10bd 2eb0 c5bc
000002a0: dbc7 5e3c ac88 06be a927 323d 52cf f8bc
000002b0: 4f06 adbc 12d8 32be f77a 543c fc84 bbbd
000002c0: 0f88 90bc 5545 b8bd 8f7e 61bd 9640 ae3d
000002d0: ddd6 293d 4f87 9fbd fb6f af3d 3392 06be
000002e0: 4047 fcbb 593c 133e bb81 ec3d 50a4 f93d
000002f0: 48a2 f63c 70c4 01be 689f 163e 632f 4b3c
00000300: 9374 49bd cda8 c2bd da25 8bbc e62f f33b
00000310: 0925 3ebd 9bbc 813d d141 8fbd ead7 383d
00000320: ee61 9f3d 5391 06bd 2437 d63d f149 1abe
00000330: 24c8 81bb 8d1e 133e 52c8 ac3d dc8e 27bb
00000340: 284b a0bc 5acf 033c 9fd6 353e 0dfb 203e
00000350: bc5c 343e 5d1c 083e 023c 183d 6c05 203e
00000360: 3465 8ebd 3706 9bbd 07b3 e5bd 702d 24bd
00000370: 70a6 993d 9003 203d 848c abbd 4023 47bd
00000380: bbcb 503c 1e61 ab3c 7e91 b83d ce9a bfbc
00000390: 8a69 a43d ec6e d2bc 9f17 2c3d 5548 cabb
000003a0: 8499 493a f520 0cbd 0408 333d 6127 193e
000003b0: 9dff 323e 807f 403e bb5d a43d 08ba 3ebd
000003c0: e6a4 64bd 92b1 5e3e 3851 b23d 6cde 143e
000003d0: 4b01 a13c 4478 43be 5ebd 09bc e4e5 de3d
000003e0: 12f5 223e 2d20 c63d 5970 31be 7842 953d
000003f0: 8dc0 f7bd 352c 8ebd af96 5abd a160 c8bd

ops.0.bias f4 [6]
0.2412811 0.00786094 -0.32225344 -0.1796837 -0.00748337 0.12199319
00000000: 6512 773e 2ccb 003c 67fe a4be 01ff 37be
00000010: 0f37 f5bb 91d7 f93d

ops.2.weight f4 [6, 6, 5, 5]
-0.03862983 0.021284046 0.10269405 0.011111563 0.026274998 0.10605968 0.10168979 0.08208674
0.061950237 0.10248496 -0.0033026203 0.122190095 0.07408116 0.058943722 0.13035546 0.08279402
0.06924319 0.074258395 -0.03265646 -0.030660959 0.056253124 0.06809514 0.008593791 0.03549418
0.02424964 -0.02554924 0.011985375 0.09712669 0.015159063 -0.006736056 -0.069018096 -0.057010736
-0.014032112 -0.010209196 0.045968406 -0.09057514 -0.09208287 -0.17306636 -0.19991499 -0.16549705
-0.038861584 -0.15072952 -0.15950967 -0.08040811 -0.05935548 -0.05851274 -0.027868317 -0.0554166
-0.14110647 -0.14936703 -0.16728579 -0.16624929 0.012428179 -0.1513736 -0.12889326 -0.11687636
0.0023049647 0.1454844 0.034028452 0.081037186 -0.29330912 -0.23096815 -0.012002348 -0.006016952
-0.022404565 -0.08691285 -0.051387485 0.2760624 0.12589069 0.13298781 -0.21977082 0.017115215
0.060258407 -0.016163975 -0.068349525 -0.019930927 -0.09950888 -0.1483252 0.087066025 -0.05424349
0.114837915 0.0031669622 -0.18356858 -0.039690074 -0.05010577 0.11632235 0.07097658 -0.14714158
-0.042946726 -0.119215585 0.026244083 0.14922789 0.049125616 0.1670723 -0.17494966 -0.13853014
-0.02263889 -0.08774295 0.17264728 -0.043340027 0.055766772 0.1848219 0.14018403 0.19227186
0.17138892 -0.030735016 0.09522996 0.08355424 0.031863313 0.11324991 0.032632492 -0.096123904
-0.14045739 -0.05847165 0.015501691 -0.014877406 0.038389467 -0.18436709 -0.031997517 -0.052706797
0.04739184 0.039289724 -0.11347761 -0.10539544 -0.04104371 0.07296978 0.04337632 -0.06444405
-0.010152956 -0.09532428 -0.13672934 -0.098456696 -0.12979592 -0.053431455 -0.046955027 -0.1603253
-0.18665747 -0.13476752 0.048835263 0.0832109 0.17035809 -0.08291934 -0.05840362 0.20504177
0.160624 0.30791047 -0.05419899 -0.23934485 -0.03625236 -0.09921287 -0.10336177 0.01730065
-0.08837471 -0.00717841 -0.009178467 -0.01477644 -0.033220258 -0.07020484 -0.0919308 -0.05930651
-0.06431338 -0.008183709 -0.0387116 -0.038794313 0.084327295 -0.0007326886 0.02659401 0.024165228
0.08117043 0.077106744 0.1053833 0.16403894 0.16277932 0.12359452 0.093884945 -0.18329775
-0.2932843 -0.27299535 -0.2319291 -0.22145927 -0.19119594 -0.3339982 -0.23033188 -0.21293485
-0.17693253 -0.21529976 -0.30119947 -0.19187222 -0.29075322 -0.05628599 -0.37631422 -0.29226658
-0.23740695 -0.13662077 -0.09944647 -0.36586753 -0.27973402 -0.15527816 -0.0502647 -0.16874865
0.13043515 0.26931998 -0.047796726 0.014082794 -0.2626487 0.32632917 0.4392606 0.23970787
0.24242918 -0.13042124 0.16211571 0.39125675 0.14540894 0.24334916 0.087798126 -0.06347287
0.099282034 -0.05733894 0.013060004 -0.12050148 -0.059213478 -0.021893045 -0.10911207 -0.13439833
-0.08604547 0.04874672 -0.06567294 -0.038389567 -0.066531375 -0.027389534 0.119751394 -0.053563878
0.0034026948 -0.009342632 -0.13056609 0.0690114 -0.15464272 -0.12777545 0.000178008 -0.11295508
0.061416563 -0.051133186 -0.010927024 0.020506792 0.11035995 -0.06385959 -0.050239876 -0.13153397
-0.0075919554 -0.03546596 -0.20776728 -0.13835385 -0.07460966 0.02610006 -0.017481534 -0.027057268
00000000: 503a 1ebd e15b ae3c 4251 d23d 460d 363c
00000010: aa3e d73c d135 d93d bd42 d03d 181d a83d
00000020: 88bf 7d3d a2e3 d13d c670 58bb cd3e fa3d
00000030: ddb7 973d f96e 713d e77b 053e e98f a93d
00000040: 60cf 8d3d c914 983d c8c2 05bd b12c fbbc
00000050: ad69 663d 7775 8b3d f9cc 0c3c 5862 113d
00000060: 2ea7 c63c a44c d1bc 4e5e 443c 5cea c63d
00000070: b85d 783c 22ba dcbb 5c59 8dbd 1784 69bd
00000080: f2e6 65bc 7944 27bc 5e49 3c3d 767f b9bd
00000090: f295 bcbd 4f38 31be 84b6 4cbe 0f78 29be
000000a0: 532d 1fbd d758 1abe 8156 23be 02ad a4bd
000000b0: bb1e 73bd 0eab 6fbd 194c e4bc 84fc 62bd
000000c0: 377e 10be acf3 18be f74c 2bbe 413d 2abe
000000d0: 909f 4b3c ae01 1bbe 98fc 03be df5c efbd
000000e0: e40e 173b ddf9 143e 6b61 0b3d d3f6 a53d
000000f0: 9d2c 96be ea82 6cbe 7fa5 44bc da29 c5bb
00000100: c789 b7bc 5dff b1bd af7b 52bd 0d58 8d3e
00000110: 7de9 003e f52d 083e 9a0b 61be 3535 8c3c
00000120: 85d1 763d 506a 84bc d6fa 8bbd 2f46 a3bc
00000130: 50cb cbbd 90e2 17be ac4f b23d 6c2e 5ebd
00000140: 2430 eb3d cf8c 4f3b 67f9 3bbe 0f92 22bd
00000150: b53b 4dbd 6a3a ee3d 2b5c 913d 48ac 16be
00000160: e8e8 2fbd 4d27 f4bd d5fd d63c 32cf 183e
00000170: f137 493d 0015 2b3e 0126 33be d8da 0dbe
00000180: 3275 b9bc 93b2 b3bd 73ca 303e 5085 31bd
00000190: b36b 643d f441 3d3e 678c 0f3e eae2 443e
000001a0: 9480 2f3e 00c8 fbbc ed07 c33d 7c1e ab3d
000001b0: 1b83 023d 92ef e73d a6a9 053d 9cdc c4bd
000001c0: 10d4 0fbe f87f 6fbd cefa 7d3c 5dc0 73bc
000001d0: 463e 1d3d baca 3cbe d40f 03bd 15e3 57bd
000001e0: f21d 423d 43ee 203d f366 e8bd 90d9 d7bd
000001f0: 731d 28bd 2e71 953d 5eab 313d 3efb 83bd
00000200: 9558 26bc 6039 c3bd c702 0cbe aaa3 c9bd
00000210: 39e9 04be f1da 5abd ea53 40bd 512c 24be
00000220: 2323 3fbe 7f00 0abe 7c07 483d 7a6a aa3d
00000230: 5a72 2e3e 9dd1 a9bd a238 6fbd 78f6 513e
00000240: 9e7a 243e 71a6 9d3e c3ff 5dbd d116 75be
00000250: 5b7d 14bd 1e30 cbbd 56af d3bd 18ba 8d3c
00000260: cdfd b4bd de38 ebbb 4861 16bc e218 72bc
00000270: f711 08bd 8ec7 8fbd 3746 bcbd 62eb 72bd
00000280: bcb6 83bd f714 06bc 0e90 1ebd c9e6 1ebd
00000290: cab3 ac3d e611 40ba aedb d93c 28f6 c53c
000002a0: af3c a63d 24ea 9d3d 33d3 d73d d3f9 273e
000002b0: 9faf 263e 201f fd3d c046 c03d 68b2 3bbe
000002c0: 5c29 96be 0cc6 8bbe d27e 6dbe 38c6 62be
000002d0: dec8 43be d001 abbe 1fdc 6bbe 980b 5abe
000002e0: cd2d 35be 8a77 5cbe d136 9abe 277a 44be
000002f0: 9bdd 94be 238c 66bd 42ac c0be f7a3 95be
00000300: cf1a 73be 51e6 0bbe 97aa cbbd fd52 bbbe
00000310: 4c39 8fbe 3d01 1fbe 5ce2 4dbd 72cc 2cbe
00000320: cb90 053e 4fe4 893e 80c6 43bd 85bb 663c
00000330: e479 86be 9e14 a73e c4e6 e03e fb75 753e
00000340: 5b3f 783e 258d 05be a901 263e ce52 c83e
00000350: 15e6 143e 8630 793e 81cf b33d 10fe 81bd
00000360: 6154 cb3d 3ddc 6abd a1f9 553c 7bc9 f6bd
00000370: d589 72bd 0b59 b3bc 2676 dfbd b79f 09be
00000380: 9b38 b0bd a4aa 473d 897f 86bd 613e 1dbd
00000390: 9a41 88bd 0460 e0bc 3840 f53d cc65 5bbd
000003a0: bfff 5e3b d711 19bc 1eb3 05be d955 8d3d
000003b0: a95a 1ebe 91d7 02be a9a7 3a39 fe54 e7bd
000003c0: ef8f 7b3d 0871 51bd 4307 33bc dcfd a73c
000003d0: 6604 e23d d1c8 82bd 54c8 4dbd d7b0 06be
000003e0: f0c5 f8bb c144 11bd f2c0 54be a2ac 0dbe
000003f0: f3cc 98bd cbcf d53c 6f35 8fbc 34a7 ddbc

ops.2.bias f4 [6]
0.21333937 -0.060676325 -0.1328893 0.044861287 0.010645224 0.13228613
00000000: a375 5a3e bd87 78bd 2214 08be 78c0 373d
00000010: 4e69 2e3c 0476 073e

ops.5.weight f4 [6, 6, 7, 7]
-0.27075213 -0.27103275 -0.12844045 0.0603094 0.0655253 -0.26230544 -0.58976537 0.0006437909
0.018078353 0.15697312 0.22407497 0.29157636 -0.10255897 -0.3895454 0.10034178 0.14445993
0.26755682 0.28600156 0.2814935 -0.0035831397 -0.16955589 0.34071606 0.2960012 0.47811007
0.4111666 0.36336964 0.08530763 0.07660467 0.18016127 0.18769713 0.3857352 0.28168502
0.30742887 0.03078487 -0.031467445 -0.034753963 0.1432938 0.38771972 0.27859193 0.19299719
0.08633327 -0.056224503 -0.080442585 0.12872957 0.48891383 0.5300821 0.52968675 0.29692483
0.18091214 0.011158279 -0.08994185 -0.028280703 0.097705275 0.09906367 0.063329786 0.0027275514
0.094575725 -0.049227197 -0.034995854 0.12484571 -0.037039623 0.040015116 0.00814635 0.12494221
0.025168948 0.0006247929 0.10058663 0.0024235796 0.014197023 0.06734288 0.27070138 0.12765686
0.10555862 0.08338934 -0.037524775 0.0044998215 0.14975758 0.2929103 0.10251966 -0.01331505
0.008488659 -0.09234828 -0.13583203 0.05078826 0.06926663 0.004144701 0.0022849152 -0.032595277
-0.089569025 -0.006358764 0.100885905 -0.022408003 -0.040861603 -0.016360974 0.046102185 0.013864121
0.07638288 0.20809734 -0.06490234 -0.03896632 0.05142801 0.11179716 0.024186287 0.12208032
0.038945142 0.034987405 -0.115163706 0.032224257 0.1464653 0.02660662 0.055745147 0.118621014
0.12244835 -0.023027182 -0.115109995 0.08021695 -0.077761956 -0.02464859 0.10640442 0.14647971
-0.02778359 -0.042048633 0.0327008 -0.10568037 -0.037896752 0.0065207453 0.0783988 -0.021378294
-0.16839944 -0.05815898 -0.15970883 -0.08368435 -0.069587596 -0.058253486 -0.15918687 -0.07266712
-0.12986438 -0.14225742 -0.07571471 -0.012253 0.028720455 -0.04718352 -0.056141686 0.10003012
0.012813454 -0.006300918 0.15311642 -0.18189599 -0.19513522 -0.019512445 0.09844459 0.036375456
-0.095523775 -0.17134143 -0.13596396 -0.09034859 0.052962754 0.13758245 0.05180985 -0.10378486
-0.086484715 0.01816236 0.029622488 -0.003971844 0.1390023 0.059422046 0.08836279 0.039996564
0.11639043 0.010053619 0.067891784 0.13029729 0.032228675 0.17861438 0.16531618 0.005846967
-0.024496572 -0.038117144 0.11039479 -0.03564659 0.044696737 0.043132007 -0.052338373 -0.11212896
-0.023747008 0.036396455 0.027995478 -0.0288074 -0.09643746 -0.04699572 0.003430083 0.03897397
0.031337526 -0.05651646 -0.0031378844 0.012281799 0.1587294 0.13742995 0.15552625 0.009137382
-0.031798024 0.10161379 0.1184351 0.0912766 0.044648986 0.07914151 -0.11060224 -0.008069702
0.19486558 0.24901481 -0.035336394 0.044185363 -0.05413346 -0.11129907 -0.062332615 0.16911663
0.24287058 -0.10208823 -0.11590915 -0.12415073 -0.17934676 -0.014287931 -0.0076603885 0.16592653
-0.011363888 0.0013628829 -0.09584921 -0.09297802 -0.07642214 0.045152355 0.1050886 0.092352584
0.11781583 -0.036389697 -0.06616323 0.01764448 0.0598487 0.035531458 0.08032322 0.1790662
0.01907846 -0.053982668 0.027544603 0.006464377 -0.057838164 0.26676574 0.14100851 -0.07110913
-0.13079669 -0.1884511 -0.011645125 0.061365277 -0.061500844 -0.043791447 -0.25863716 -0.38097844
00000000: 06a0 8abe cec4 8abe e585 03be fd06 773d
00000010: 2132 863d e64c 86be ddfa 16bf 13c4 283a
00000020: 0e19 943c 90bd 203e e973 653e 7f49 953e
00000030: 700a d2bd 7f72 c7be fe7f cd3d 4eed 133e
00000040: 35fd 883e cc6e 923e eb1f 903e 1cd3 6abb
00000050: 0fa0 2dbe 5672 ae3e 788d 973e d8ca f43e
00000060: 6e84 d23e 960b ba3e c4b5 ae3d e9e2 9c3d
00000070: 327c 383e ad33 403e 167f c53e 0539 903e
00000080: 5167 9d3e 8d30 fc3c 02e4 00bd 2c5a 0ebd
00000090: 9cbb 123e 3383 c63e 9aa3 8e3e 0ea1 453e
000000a0: 7fcf b03d aa4b 66bd 15bf a4bd afd1 033e
000000b0: ea52 fa3e 76b3 073f 8d99 073f 8806 983e
000000c0: 0841 393e 37d1 363c 6f33 b8bd efac e7bc
000000d0: b419 c83d e5e1 ca3d 0cb3 813d b8c0 323b
000000e0: ebb0 c13d 75a2 49bd d057 0fbd 1caf ff3d
000000f0: dcb6 17bd e4e6 233d 4578 053c b4e1 ff3d
00000100: 1c2f ce3c 24c9 233a 5d00 ce3d ebd4 1e3b
00000110: a19a 683c 10eb 893d 5f99 8a3e 7bb8 023e
00000120: 1e2f d83d 08c8 aa3d 94b3 19bd 3d73 933b
00000130: 0d5a 193e 57f8 953e d4f5 d13d 5e27 5abc
00000140: 0414 0b3c 1821 bdbd 8d17 0bbe 5a07 503d
00000150: aadb 8d3d 46d0 873b 84be 153b a082 05bd
00000160: f76f b7bd 2e5d d0bb 459d ce3d fd90 b7bc
00000170: 7f5e 27bd 7307 86bc a5d5 3c3d 5726 633c
00000180: a16e 9c3d 7817 553e 85eb 84bd 269b 1fbd
00000190: 2da6 523d e9f5 e43d 5222 c63c 3f05 fa3d
000001a0: f184 1f3d f44e 0f3d f3da ebbd 95fd 033d
000001b0: 00fb 153e 20f6 d93c 0655 643d 93ef f23d
000001c0: 33c6 fa3d 80a3 bcbc cabe ebbd c948 a43d
000001d0: a941 9fbd d7eb c9bc 90ea d93d c7fe 153e
000001e0: 699a e3bc 303b 2cbd 46f1 053d f36e d8bd
000001f0: a039 1bbd faab d53b 8d8f a03d 8821 afbc
00000200: e770 2cbe 1c38 6ebd b68a 23be b362 abbd
00000210: f183 8ebd 359b 6ebd e201 23be 80d2 94bd
00000220: 2bfb 04be eeab 11be 5010 9bbd cfc0 48bc
00000230: 2947 eb3c 8243 41bd d3f4 65bd 97dc cc3d
00000240: 85ef 513c ee77 cebb 8dca 1c3e f142 3abe
00000250: 87d1 47be 90d8 9fbc 519d c93d 6efe 143d
00000260: f8a1 c3bd 2174 2fbe 233a 0bbe ae08 b9bd
00000270: 79ef 583d 6ae2 0c3e 9136 543d 288d d4bd
00000280: e61e b1bd 3bc9 943c dcaa f23c 3e26 82bb
00000290: 9e56 0e3e 8864 733d 8df7 b43d 70d3 233d
000002a0: 1b5e ee3d efb7 243c d90a 8b3d a76c 053e
000002b0: 3702 043d b0e6 363e a548 293e ea97 bf3b
000002c0: 09ad c8bc b920 1cbd aa16 e23d 2902 12bd
000002d0: ed13 373d 30ab 303d c360 56bd dea3 e5bd
000002e0: 1689 c2bc 7314 153d c656 e53c 7ffd ebbc
000002f0: 0181 c5bd 967e 40bd 3ecb 603b 2ba3 1f3d
00000300: c75b 003d ce7d 67bd f7a4 4dbb 9939 493c
00000310: f689 223e 70ba 0c3e 4642 1f3e f5b4 153c
00000320: a53e 02bd e41a d03d 1a8e f23d 3aef ba3d
00000330: dbe1 363d f214 a23d 6d83 e2bd c936 04bc
00000340: d88a 473e bdfd 7e3e e5bc 10bd b6fb 343d
00000350: 0cbb 5dbd c4f0 e3bd 7c50 7fbd e92c 2d3e
00000360: 11b3 783e a213 d1bd c761 edbd bd42 febd
00000370: ada6 37be ed17 6abc ff03 fbbb a5e8 293e
00000380: 9a2f 3abc c3a2 b23a 974c c4bd 436b bebd
00000390: 3683 9cbd adf1 383d b138 d73d 5a23 bd3d
000003a0: 6d49 f13d 5d0d 15bd 9680 87bd 288b 903c
000003b0: e923 753d 6f89 113d 8080 a43d 215d 373e
000003c0: 6e4a 9c3c ee1c 5dbd 38a5 e13c 20d3 d33b
000003d0: b6e7 6cbd 8595 883e 8964 103e aaa1 91bd
000003e0: 91ef 05be 53f9 40be 32cb 3ebc 285a 7b3d
000003f0: 4fe8 7bbd a95e 33bd 176c 84be 9b0f c3be

ops.5.bias f4 [6]
0.15366769 -0.11565956 0.114047304 0.19295119 0.06994282 0.15609492
00000000: 105b 1d3e ebde ecbd a291 e93d ff94 453e
00000010: 2e3e 8f3d 59d7 1f3e

ops.7.weight f4 [6, 6, 7, 7]
-0.08181378 -0.09885597 -0.15834382 -0.18067436 -0.07272109 0.04648507 0.052735515 -0.04980535
-0.13483666 -0.20303376 -0.1706729 -0.110807106 0.015450314 0.0065681636 0.10934543 -0.013101094
-0.13294348 -0.20899786 -0.10153983 0.06735197 0.10302235 0.15051126 0.09713995 0.0047810837
-0.022851452 0.025219025 0.09654266 0.23078564 -0.058550958 0.07339636 0.011345899 0.06973758
0.06344781 0.20438372 0.1706272 0.028972983 0.09003798 0.12231626 0.13086519 0.17923799
0.11313591 0.021332514 0.13017394 0.15407762 0.23505817 0.21070036 0.20409675 0.14203122
0.0212159 0.17736027 0.003201764 -0.07230701 -0.11800197 -0.04192597 0.12956288 0.1784193
0.14964537 0.10990507 0.056702223 -0.104981594 -0.07268461 -0.020827195 0.1194896 0.2100283
0.21607947 0.06836353 -0.058969323 -0.05417786 -0.09775428 0.06578409 0.1959107 0.1791998
0.05843446 -0.02593899 -0.10297898 -0.06449468 0.06415879 0.21568272 0.2197712 0.1401723
0.010167351 0.05991967 0.11575089 0.13982816 0.20548844 0.17857853 -0.02525377 0.032962643
0.06562013 0.13575916 0.07663823 0.2607981 0.081984006 -0.08207486 0.11289377 0.1932093
0.19680402 0.1328511 -0.40263042 -0.28678963 -0.16652238 -0.16282341 -0.37270683 -0.27557355
-0.15707241 -0.22781567 -0.12510265 -0.0720702 0.033949066 -0.16485083 -0.051008828 -0.07200076
-0.12525322 0.014959339 0.04525222 0.12198129 0.015603088 -0.01741199 -0.0024227775 0.04947564
0.17772846 0.20699276 0.21464728 0.04715551 -0.013643512 0.031525597 0.0453819 0.2173888
0.15177579 0.2087366 0.12685558 0.06568164 0.056308895 0.0424366 0.100901976 0.04636495
0.122918524 -0.03494021 -0.012705574 0.0021429553 -0.12188025 -0.109579 -0.16810948 -0.17651471
-0.2586321 -0.2375916 -0.10543149 0.2413024 0.18162772 0.13648725 0.3464776 0.33676004
0.25287694 0.20020047 0.25520205 0.26801762 0.25022888 0.28463212 0.20796494 0.14361389
0.00029997926 0.19145599 0.1374498 0.171225 0.21764842 0.067381784 -0.052189246 0.019458055
0.21091972 0.07911527 0.007833246 -0.026349075 0.034597754 -0.036477648 -0.08520497 0.14545554
-0.11651119 -0.04294753 -0.0025072375 0.09547464 0.025088094 0.026225729 0.120588504 -0.11744435
-0.11488486 -0.024729183 0.07142945 0.10546673 0.10901655 0.036344852 0.0006407806 0.023870781
0.023860523 -0.026669694 0.073450916 0.1297413 -0.03373049 0.042623606 0.01910579 0.019863999
-0.0033441468 0.022258893 0.17458047 -0.15685526 -0.06479654 0.10570474 0.09387288 -0.024797443
0.03835382 0.19722094 -0.1948055 -0.06684501 0.051030204 0.09769431 -0.08829853 0.08477611
0.19675118 -0.16869767 0.00052742433 0.07419799 0.07247546 -0.03288071 0.012371568 0.18385258
-0.14152353 -0.09160046 -0.021071468 0.12017334 0.041687317 0.0068813846 0.08258746 -0.05919212
-0.03635856 0.042280946 0.09389544 0.016301513 0.025927661 0.03923202 0.0442801 0.18461175
0.296226 0.24279791 0.08363783 -0.0071842815 0.05578331 0.33477426 0.14815474 0.15822193
0.13988513 0.14464486 0.07680263 -0.2269788 0.21312112 0.106438 0.099401556 0.084620886
00000000: fc8d a7bd 0075 cabd e224 22be b302 39be
00000010: cbee 94bd 2167 3e3d 3201 583d b200 4cbd
00000020: 9f12 0abe 15e8 4fbe e0c4 2ebe d6ee e2bd
00000030: 5023 7d3c c039 d73b 7ff0 df3d f9a5 56bc
00000040: 5622 08be 8903 56be 1df4 cfbd d4ef 893d
00000050: 62fd d23d a01f 1a3e 4ff1 c63d a3aa 9c3b
00000060: f832 bbbc 2198 ce3c 28b8 c53d 1253 6c3e
00000070: 21d3 6fbd d550 963d 26e4 393c 94d2 8e3d
00000080: edf0 813d f749 513e e6b8 2e3e c058 ed3c
00000090: d565 b83d f380 fa3d 8601 063e 2a8a 373e
000000a0: cdb3 e73d 86c1 ae3c 514c 053e 86c6 1d3e
000000b0: 17b3 703e d6c1 573e bdfe 503e a270 113e
000000c0: f8cc ad3c ee9d 353e b0d4 513b b315 94bd
000000d0: 04ab f1bd 91ba 2bbd 22ac 043e 8db3 363e
000000e0: a33c 193e e915 e13d 9740 683d 9700 d7bd
000000f0: abdb 94bd cb9d aabc f7b6 f43d a911 573e
00000100: f043 5d3e 2e02 8c3d d189 71bd 9be9 5dbd
00000110: 6533 c8bd cfb9 863d d19c 483e 2780 373e
00000120: f958 6f3d 017e d4bc a5e6 d2bd c915 84bd
00000130: af65 833d eedb 5c3e b40b 613e 5489 0f3e
00000140: f694 263c 546e 753d cd0e ed3d 1d2f 0f3e
00000150: 906b 523e 4add 363e ffe0 cebc d603 073d
00000160: d963 863d 7304 0b3e 81f4 9c3d 5487 853e
00000170: 3be7 a73d dd16 a8bd d934 e73d a9d8 453e
00000180: fe86 493e 1e0a 083e 9325 cebe 17d6 92be
00000190: d884 2abe 2ebb 26be 6ed3 bebe fa17 8dbe
000001a0: 97d7 20be 8348 69be e91a 00be 8b99 93bd
000001b0: 2d0e 0b3d a8ce 28be a2ee 50bd 2275 93bd
000001c0: 6142 00be 0418 753c 645a 393d 54d1 f93d
000001d0: 18a4 7f3c 97a3 8ebc 76c7 1ebb f8a6 4a3d
000001e0: 73fe 353e e9f5 533e 7fcc 5b3e 2326 413d
000001f0: 0989 5fbc fc20 013d 5fe2 393d 2b9b 5e3e
00000200: 1d6b 1b3e 0cbf 553e 6ee6 013e 1884 863d
00000210: 28a4 663d 00d2 2d3d b2a5 ce3d 2ce9 3d3d
00000220: b5bc fb3d 771d 0fbd 0a2b 50bc d370 0c3b
00000230: 5a9c f9bd f46a e0bd e424 2cbe 46c0 34be
00000240: 6d6b 84be 364b 73be 77ec d7bd fa17 773e
00000250: 9efc 393e 50c3 0b3e 8365 b13e d06b ac3e
00000260: 1679 813e 5a01 4d3e d8a9 823e 9b39 893e
00000270: 001e 803e 4dbb 913e c3f4 543e 850f 133e
00000280: 8946 9d39 0a0d 443e a4bf 0c3e 9b55 2f3e
00000290: 3adf 5e3e 76ff 893d 64c4 55bd 8066 9f3c
000002a0: 57fb 573e 3007 a23d 0457 003c 04da d7bc
000002b0: 60b6 0d3d 9669 15bd f17f aebd 4cf2 143e
000002c0: 6b9d eebd c0e9 2fbd 7750 24bb 3588 c33d
000002d0: 8c85 cd3c 57d7 d63c 1bf7 f63d aa86 f0bd
000002e0: c148 ebbd db94 cabc 9a49 923d f1fe d73d
000002f0: 1244 df3d 57de 143d 0ffa 273a a88c c33c
00000300: 2577 c33c 677a dabc 6f6d 963d e7da 043e
00000310: fb28 0abd 1796 2e3d bf83 9c3c d3b9 a23c
00000320: 7929 5bbb 4858 b63c 39c5 323e aa9e 20be
00000330: 0cb4 84bd ba7b d83d 6d40 c03d 0224 cbbc
00000340: e518 1d3d 49f4 493e 187b 47be 09e6 88bd
00000350: 0c05 513d f413 c83d dcd5 b4bd 199f ad3d
00000360: 2479 493e 15bf 2cbe d942 0a3a 1ef5 973d
00000370: 046e 943d ecad 06bd 1eb2 4a3c da43 3c3e
00000380: 8beb 10be 0699 bbbd 129e acbc 711d f63d
00000390: 52c0 2a3d 3d7d e13b 9d23 a93d 7073 72bd
000003a0: b7ec 14bd c92e 2d3d 414c c03d c08a 853c
000003b0: 3f66 d43c c1b1 203d 0d5f 353d dd0a 3d3e
000003c0: efaa 973e 04a0 783e 504a ab3d 1f6a ebbb
000003d0: 0a7d 643d 8867 ab3e e0b5 173e ee04 223e
000003e0: 0c3e 0f3e c81d 143e b34a 9d3d 216d 68be
000003f0: 6c3c 5a3e 2bfc d93d 0b93 cb3d b74d ad3d

ops.7.bias f4 [6]
0.05372752 -0.10866543 -0.008905008 0.061351936 0.110433504 0.18888035
00000000: 6311 5c3d fb8b debd 50e6 11bc 2b4c 7b3d
00000010: f62a e23d da69 413e

ops.9.weight f4 [1, 6, 5, 5]
-0.0062042135 -0.042380735 -0.07643723 -0.07531363 -0.06399527 -0.016049823 -0.18578961 -0.29854792
-0.14912304 -0.0042822417 -0.16043818 -0.35347056 -0.41435394 -0.2816869 -0.026206478 -0.36774883
-0.42971924 -0.4992954 -0.25465482 -0.038815916 -0.53521234 -0.52070296 -0.5379688 -0.30115715
0.012272381 -0.03718923 -0.35639673 -0.6327245 -0.20069289 0.062487043 -0.131107 -0.300674
-0.5683319 -0.40038756 -0.08210291 -0.15547578 -0.21944705 -0.30438486 -0.31618604 -0.1384133
0.013545046 -0.08425919 -0.16514476 -0.17096294 -0.107001804 0.063800655 0.038291123 -0.097792245
-0.20191488 -0.19135588 0.6430705 0.3246755 0.3192076 0.15581739 0.044541795 0.5083765
0.3967161 0.3839329 0.27502984 0.09195103 0.24100871 0.4582236 0.5723559 0.3412944
0.100808725 0.28370434 0.3417013 0.43022245 0.21013722 0.13868757 0.10728204 0.17447953
0.21103987 0.14967307 -0.016207268 -0.42570624 -0.45625842 -0.5473246 -0.42059767 -0.357809
-0.39281285 -0.32720608 -0.4254615 -0.18498404 -0.2774561 -0.10728624 -0.16172162 -0.22508654
-0.09754541 -0.1510366 -0.0701713 -0.015189718 -0.026596244 -0.089685574 -0.11361391 0.16500495
0.30054516 0.13293116 0.05746906 -0.0155726215 -0.17888187 -0.36183247 -0.4691985 -0.4776797
-0.21022023 -0.38813737 -0.30751863 -0.351626 -0.24348679 -0.09277904 -0.46808404 -0.39486662
-0.3073504 -0.08327989 0.031341355 -0.27263245 -0.26094475 -0.23540273 -0.04449531 -0.074630424
-0.5547856 -0.38846993 -0.42407662 -0.352023 -0.1419441 -0.12812427 0.20165735 0.18562979
0.31870508 0.31376368 -0.19785073 0.10285637 0.11981125 0.27099591 0.3687797 -0.17510599
0.13474043 0.3323386 0.4232906 0.57402873 -0.07030183 0.16890934 0.30953044 0.40929705
0.53979635 -0.02024402 0.24918447 0.43884733 0.5566254 0.6266208
00000000: b74c cbbb 6c97 2dbd 1f8b 9cbd 083e 9abd
00000010: f40f 83bd eb7a 83bc a23f 3ebe 46db 98be
00000020: b6b3 18be 0c52 8cbb e849 24be 18fa b4be
00000030: 3326 d4be 4439 90be f8ae d6bc 9349 bcbe
00000040: 2904 dcbe a6a3 ffbe 1e62 82be 70fd 1ebd
00000050: ad03 09bf ca4c 05bf 53b8 09bf 4531 9abe
00000060: 1912 493c bc53 18bd a279 b6be 3cfa 21bf
00000070: 7082 4dbe 6af2 7f3d ea40 06be f1f1 99be
00000080: 337e 11bf 99ff ccbe 9225 a8bd 0b35 1fbe
00000090: bab6 60be 55d8 9bbe 23e3 a1be 37bc 0dbe
000000a0: 0aec 5d3c 1590 acbd b51b 29be e910 2fbe
000000b0: c323 dbbd eba9 823d 27d7 1c3d 4d47 c8bd
000000c0: c6c2 4ebe ccf2 43be 45a0 243f de3b a63e
000000d0: 2e6f a33e 988e 1f3e 7571 363d f624 023f
000000e0: 5f1e cb3e da92 c43e b6d0 8c3e d250 bc3d
000000f0: fdca 763e 499c ea3e eb85 123f 24be ae3e
00000100: ce74 ce3d b241 913e 79f3 ae3e 1e46 dc3e
00000110: 362e 573e 1d04 0e3e b0b6 db3d c3aa 323e
00000120: d61a 583e e643 193e 1bc5 84bc 2bf6 d9be
00000130: b49a e9be 771d 0cbf 9458 d7be be32 b7be
00000140: c41e c9be 8e87 a7be 17d6 d9be 756c 3dbe
00000150: ba0e 8ebe e3b8 dbbd 5a9a 25be 167d 66be
00000160: e3c5 c7bd 57a9 1abe f8b5 8fbd 4cde 78bc
00000170: 5ee0 d9bc 12ad b7bd 69ae e8bd 0ff7 283e
00000180: 0ee1 993e 1b1f 083e ad64 6b3d 4f24 7fbc
00000190: cf2c 37be 1b42 b9be c93a f0be 6f92 f4be
000001a0: f943 57be f1b9 c6be 1573 9dbe 5308 b4be
000001b0: 9a54 79be f002 bebd b6a8 efbe f52b cabe
000001c0: 085d 9dbe a68e aabd cb5f 003d 7b96 8bbe
000001d0: 8d9a 85be 6a0d 71be b740 36bd d6d7 98bd
000001e0: 6e06 0ebf 88e5 c6be 9220 d9be 5c3c b4be
000001f0: cb59 11be 0233 03be 447f 4e3e bc15 3e3e
00000200: 502d a33e a2a5 a03e 6299 4abe 5ca6 d23d
00000210: 9a5f f53d fabf 8a3e b1d0 bc3e fc4e 33be
00000220: 65f9 093e 4928 aa3e 8cb9 d83e 8cf3 123f
00000230: 68fa 8fbd 92f6 2c3e c67a 9e3e 628f d13e
00000240: 1830 0a3f c9d6 a5bc 372a 7f3e 99b0 e03e
00000250: 017f 0e3f 396a 203f
