ball_detection/candidate_generation_fcn/weights.pt (torch_old, 17519 bytes, 7 tensors)

ops.0.weight f4 [5, 3, 7, 7]
00000000: dad7 66bd 2f54 89bd c440 433d 06ee 633c
00000010: d722 b73d 56b1 7b3d 0e16 213e a6f2 5abc
00000020: a380 0fbe 6b5c 47bd 7cbb 8dbd 6d29 41bd
00000030: a365 7e3c e2d4 09bc 698c dd3d e25d 143e
00000040: 34a3 063e 405e febb 47b4 c9bd e0d6 bebd
00000050: b5b8 f7bc d067 503e 4817 923e 9e46 353e
00000060: eb27 753e 55a3 16bd 0b91 b5bd e0bf 63bd
00000070: 2072 8e3d c82a c53d 73fe 213e 97fd 2f3d
00000080: 076c 99bd 3150 283c f554 d1bd bb43 303b
00000090: 76bf fb3d 6fea d03d b19c b13c d477 8b3d
000000a0: 862a a5bd 355b cebd ce21 e93d aebf c8bb
000000b0: ac0c 0e3d f805 1a3d 221b edbd 1aec 8dbd
000000c0: b167 fabd a78a 103c a44b 063e 5195 8d3d
000000d0: 87ea 353b 86a6 a23d f434 1b3e 8665 f63d
000000e0: 7c2b c2bd 65d5 1ebe 6ef2 8cbc f77f 06be
000000f0: 7c78 b8bd 7b42 14be eb4b 97bd de5b 29be
00000100: 45d5 82bd b146 dcba f29c 7cbd 9371 5bbd
00000110: c0a2 0dbe b322 30be 618a 64bd fe0e f63d
00000120: dd6b 973e 57d7 513e cd09 323e f50a ad3c
00000130: f1c4 37bd 989a 23be 1267 a03d 4e24 233e
00000140: 51bd 6c3e 75fa 003d 9222 0cbd 8bb1 92bd
00000150: f99d 85bc 57b2 6e3c 027c 363e 8963 1d3e
00000160: ca0e b33d 66c0 ec3c d86e 3cbe 8cea 6a3d
00000170: a12d dc3d 80af 7e3d a6fe b83d d2a2 ddbd
00000180: b3eb 34be cf04 bbbe 04ab b53c 53f0 963b
00000190: 71de 76bc f422 b1bd d751 00be aeec a93b
000001a0: 5181 293d 0bf3 79be f658 1dbe e50b 0bbe
000001b0: f3ef 35be a64e 18be a709 71be 1850 17be
000001c0: 768a 9dbe 4041 4dbe f9cc dbbd 5f7e 07be
000001d0: ffce 44be 86d0 f2bd 5812 2bbe cae8 1bbe
000001e0: af6e 19bd ee4e 5b3e 0624 593e 3227 2e3e
000001f0: 8a74 303e 8b76 6d3d 398d 9ebe 767f 3fbc
00000200: df50 e93d bcd6 943e d185 3a3e ecdb 913e
00000210: 0b87 623e 9e61 47be a66f 82bc 0df4 e73d
00000220: 6c22 943e 6719 913e 23ab 3d3e f8cd 343d
00000230: 222e d9bd c747 873d d535 0f3e 5315 213e
00000240: 3ec8 0e3e 068a 33bd 2854 23be dbbb b7bd
00000250: b264 03be 4df7 22be 34ee c73d 9494 083d
00000260: 6796 4ebd 2658 bdbd 3863 5ebd f134 ffbd
00000270: b336 91bd 3a71 073d 88b9 963c e11c 87bb
00000280: 68fb 9aba 51a6 11be 2eb8 b6bd de62 973c
00000290: a31f 813d 4797 0d3e 2d1c 88bc 1747 2bbc
000002a0: 6c24 873c 07e9 96bc 2db0 1a3e 801b 3b3e
000002b0: d6ab 1a3e d217 f73d 2d12 4a3b f53b d3bc
000002c0: 13eb 0e3e 1e24 233e e70b 663e 96c7 533e
000002d0: 69d1 163d 7a66 9dbc cd45 b9bc 559c a63d
000002e0: 9b3a 583d c14e 733e 50cf 99bc 204f 7cbd
000002f0: 1592 3ebe 2880 69bd 85f3 abbd c21e ecbd
00000300: caa7 6ebd d947 aabd ea50 59be f551 a7be
00000310: b0ee f2bd 4bff 6cbc 4b3b a5bc a795 583d
00000320: e24e 9abc 2bb9 673d ad08 3bbb 1140 f33c
00000330: c38e 8dbb 89f6 413b 0f98 0b3e 5976 333e
00000340: 23ef 1f3e 98f6 f4bc 2719 c0bd cbaa c83c
00000350: 938d f93c f226 663e 290c 193e 3997 543e
00000360: f409 6a3d ceb9 483d 0f67 26bd ef1a 903d
00000370: aef3 563e 3c80 973e e3f7 1d3e 7641 213d
00000380: 8f7a a6bc 722b 96bb 25e3 393e f39d af3e
00000390: 16e7 873e e887 753e 75bc f0bc 3701 04bd
000003a0: 611b 8b3d 1579 333e 4cb4 863e 9726 193e
000003b0: 7a5b 083b ea39 04bd a05b 22bc 5cb3 87bd
000003c0: dc00 17bd 2407 253e 2fdd 423d c497 96bd
000003d0: 4ff4 88be 074e 7b3e 4638 fd3c ec2b 09bd
000003e0: 39e7 73be 684b 6cbe 17d8 04be d9c2 afbb
000003f0: fd40 2b3e 8441 fe3c ba2b edbd a94d 58be
-0.056358196 -0.0670551 0.047669187 0.01391173 0.08942192 0.061448418 0.1573107 -0.013363516
-0.14013915 -0.04867212 -0.069205254 -0.047158647 0.015527162 -0.008412572 0.10817797 0.14488938
0.13148195 -0.0077627003 -0.09848838 -0.09318328 -0.030239442 0.20352101 0.28533387 0.1770272
0.23941009 -0.03677686 -0.088655554 -0.055602908 0.06955361 0.096273005 0.15819721 0.04296645
-0.07491308 0.010273025 -0.102212824 0.002689584 0.12292378 0.10200965 0.021681162 0.06809965
-0.08064751 -0.1007599 0.11383401 -0.0061263656 0.034680054 0.03760335 -0.11577441 -0.069297984
-0.12226809 0.00882212 0.13114792 0.069132455 0.0027758197 0.07941918 0.15156919 0.12031083
-0.0948095 -0.15511091 -0.017205443 -0.13134752 -0.090073556 -0.14478485 -0.07387527 -0.16538951
-0.06388334 -0.0016805736 -0.061673112 -0.05357511 -0.13831615 -0.17200737 -0.05579603 0.12014578
0.2957448 0.20492302 0.17386551 0.021123389 -0.044865552 -0.15976942 0.07832159 0.15931818
0.23119093 0.031488854 -0.034212656 -0.0716277 -0.016310679 0.014568887 0.17820743 0.15370001
0.08743055 0.028900336 -0.18401659 0.057352588 0.107508905 0.06217909 0.09032945 -0.10822071
-0.17668037 -0.36527106 0.022176273 0.0046062856 -0.015067683 -0.08649245 -0.1253122 0.005185685
0.04138309 -0.2440912 -0.15365967 -0.13578756 -0.17767315 -0.14873752 -0.23538838 -0.14776647
-0.307697 -0.20044422 -0.10732455 -0.132318 -0.19219588 -0.11856179 -0.16706216 -0.1522552
-0.03745907 0.21416828 0.21205148 0.1700714 0.17231956 0.05797438 -0.3096712 -0.011688104
0.11392378 0.2907008 0.1821511 0.284881 0.22121827 -0.19470832 -0.015922379 0.11325846
0.28932512 0.28339693 0.18522315 0.04414174 -0.10604502 0.06605487 0.13985379 0.15730791
0.13943574 -0.0438328 -0.15950072 -0.089713775 -0.12831381 -0.1591465 0.097622305 0.03334482
-0.050436404 -0.092453286 -0.05429384 -0.1246127 -0.07090511 0.033066966 0.018399015 -0.0041233157
-0.0011824192 -0.14223601 -0.08921848 0.01847976 0.06304862 0.13827239 -0.016614998 -0.010453961
0.01649686 -0.018421663 0.15106268 0.18272209 0.15104613 0.1206509 0.0030833588 -0.025785426
0.13956861 0.15931746 0.22465478 0.20681605 0.036820803 -0.019213904 -0.022616291 0.08135287
0.052790266 0.23760511 -0.018775612 -0.061598897 -0.18610413 -0.057006985 -0.08396057 -0.11529304
-0.058265485 -0.08314485 -0.21222273 -0.32679716 -0.11861932 -0.014465163 -0.020169875 0.052877095
-0.018836442 0.056573074 -0.0028539107 0.029693635 -0.004319997 0.002959641 0.13632225 0.17525615
0.15618567 -0.029902741 -0.093797974 0.024495503 0.030463016 0.22475794 0.14946045 0.20760812
0.0571384 0.049005322 -0.040625628 0.07036387 0.20991394 0.29590023 0.15426593 0.03936907
-0.020322112 -0.004582816 0.18153055 0.34300193 0.26543492 0.23977625 -0.029386738 -0.03222772
0.067923315 0.17526658 0.2630943 0.14956127 0.0020806477 -0.032281794 -0.00990954 -0.06626007
-0.036866054 0.16116005 0.04757422 -0.07353166 -0.26748893 0.24541484 0.030910622 -0.033489153
-0.23818673 -0.2307564 -0.12973057 -0.005363804 0.1672401 0.0310371 -0.11580606 -0.21123375

ops.0.bias f4 [5]
00000000: 79d3 ed3d 7fe3 023e 6527 18be 75ea 7f3e
00000010: 2880 bebe
0.11612601 0.12782095 -0.14858778 0.24991782 -0.3720715

ops.2.weight f4 [6, 5, 7, 7]
00000000: 5f4f 08be 23c0 d73a e02a c43d 7536 bd3d
00000010: 1edc f63d 4fdc 403d 2368 3bbb ea3e aebc
00000020: c681 4cbc 4e8e 6c3d 8dbf bd3d 066a 323d
00000030: 913d a03c f1fe acbd b671 a03d 9b37 843d
00000040: eec7 b3b9 e112 5b3d e90f b83d e804 ef3d
00000050: 054d c03d de21 923d 04ff d1bd 6c2c 6bbd
00000060: 2392 a5bd fecc f1bd 36f4 09be 4654 33be
00000070: 5635 41bd e0ec 10be 0acf 8fbd 1638 8bbd
00000080: 166d 153d 90a3 01be 75cd 1bbe c532 2a3d
00000090: c304 91bd 7630 24bd 590b 8bbd c3ff 463d
000000a0: 7018 83bd e68c 11be 01f8 b1bd f2b0 fbbd
000000b0: f0f9 dabd 60eb 50bd 6eee 4e3c 83ae c2bd
000000c0: f1d4 3dbe 9693 86be d716 d2bc 0a91 73bc
000000d0: 5d6a d73d 2680 c43d a5a1 14bb 2453 f7bd
000000e0: e2b8 ecbd 2989 05bb f661 ef3d cf34 ae3d
000000f0: 277f 09b8 449d a0bd 1f2a 55be b878 39be
00000100: 867d 2abe ccb1 4abe 58ab 8abe 1a69 91be
00000110: aaad 58be 3988 8cbe cae5 97be 951f 6fbe
00000120: d09d 6abe 0e4e 7ebe 4537 63be 0a8c 55be
00000130: 7f37 18be 0941 81be 70fe 3ebe 066d 0bbe
00000140: 665b 10be fef5 3bbd 979e 82bc 938e 9a3d
00000150: 1577 7bbd 0688 acbd 9333 9dbd 6c59 97bc
00000160: b2e7 abbc b538 113e 12f8 a43d bbee e43d
00000170: 94b2 cb3d 8151 eb3d 8c95 b03d 1f27 833e
00000180: 78de 9c3e f324 5b3e b1d5 0ebe 0f74 73bd
00000190: 8dff 27bc 2f58 69bd fafe 143d 0b1f b83d
000001a0: 13c9 3dbb 719c fcbd 5dd1 283d cdd0 45bd
000001b0: 2ca9 50bd d416 ae3d 0800 bd3c 6b5e c13d
000001c0: ae14 f5bc 685a ebb7 161a e8bb 8ec9 813b
000001d0: 1df9 02bd cf27 a03d 3feb 06bd eef0 04bd
000001e0: 5c18 f4bd 2204 e4bd 92cf d1bd d615 cabd
000001f0: fba1 85bc 3e6e e0bd a353 82bd c255 163c
00000200: 60e0 fabd c58b b5bd 1a35 f7bd cf33 583c
00000210: bcec d4bc 3a66 e5bc b53f f63c 7e79 49bd
00000220: 5b09 7dbc babd 53bb c971 dc3a 58b5 9e3b
00000230: da29 b93d 4fe1 55bc e402 1dbd bd3f 8dbd
00000240: 6cad 103c 204a b23c b742 d93d 3d5b d5be
00000250: 0b63 ffbd 94a2 1f3e deb0 653e cdc9 b43e
00000260: 0cdb 313e d00a 0d3e dc96 79be aa97 21be
00000270: 3267 0e3e 3bfb 223e db13 d53c 26bd 0cbc
00000280: ce4f 583d b62c 893d a650 fe3d 1311 a03e
00000290: 76db 303e 7687 df3d 33a9 f23d 502c 433e
000002a0: 4567 b73d 9804 bb3d e926 403e 24f9 3c3e
000002b0: 0133 173e 54f1 153e 854e 4b3e c3d0 9cbc
000002c0: 3077 0abe 6c9b 513d 8cbf 713d c50d 673d
000002d0: 26d5 5f3d 64c7 053e 504c 1a3b 2730 bfbd
000002e0: 79fe f4bc 90d5 823d 04d8 9d3d a312 9f3d
000002f0: 8121 b33d 66e2 85be 400e aabe a8cd 1ebe
00000300: 49f7 b43a 5fd7 403d 6132 9dbd 7074 22bc
00000310: 3148 083e f8fa 323e 0132 c73b 6cbe 1a3c
00000320: af5a 5ebe 7f11 5cbe d4f4 8abd 2cc1 4c3d
00000330: b7cb cebc d9f3 38be c39a 3bbe cc05 97be
00000340: 0bb3 94be 5fad 2abd f580 143d 3edd a2bd
00000350: 5b14 45be b406 80bc fae0 5ebe c389 34be
00000360: 6b38 ed3c a22f 453d f184 97bd 0053 38bd
00000370: f171 213d aba3 a6bd 3140 f9bc 84e8 8dbd
00000380: 3508 4a3e 2c2b 2e3c ac93 82bd 536a 6f3c
00000390: fac7 4abe 6324 01be f8a3 91bd de86 9e3e
000003a0: 2428 be3d b00a a9bd 286e 93bd cb78 26be
000003b0: 7022 5f3d f96d ee3d 27a6 ef3e 5623 9c3e
000003c0: 7b77 9b3d 5fe5 803d c7a9 003e 8562 9b3e
000003d0: 9902 a53e d56a d6bc 01d8 56bd ee9e b03b
000003e0: 9360 5ebd 8c66 0cbe bc87 50be 696b 1fbe
000003f0: 7739 cabd a5b1 1fbe 3ada 0bbe 4243 11be
-0.13311528 0.001646046 0.0957849 0.092389025 0.12053703 0.047085103 -0.0028596006 -0.021270234
-0.012482112 0.0577529 0.09265051 0.043558143 0.019560607 -0.08447064 0.07834189 0.064559184
-0.000342905 0.0534848 0.089874096 0.11670858 0.0938969 0.07135366 -0.102537185 -0.05741541
-0.08084514 -0.11806677 -0.13472065 -0.17512617 -0.047170006 -0.1415286 -0.070219114 -0.06797807
0.036480986 -0.1266005 -0.15215094 0.041552324 -0.07080986 -0.04008528 -0.06789274 0.048583757
-0.064011455 -0.14213905 -0.08689881 -0.12289609 -0.10692203 -0.05100572 0.012630088 -0.09505942
-0.18538262 -0.26284474 -0.025645657 -0.014866123 0.10518334 0.09594755 -0.0022679355 -0.12076405
-0.11558701 -0.0020375943 0.116886064 0.08506166 -3.2781765e-05 -0.07842496 -0.20816849 -0.18112457
-0.16649446 -0.19794387 -0.2708385 -0.284005 -0.21159998 -0.2744768 -0.29667503 -0.23351891
-0.22911763 -0.24834463 -0.22189052 -0.20854202 -0.1486492 -0.2524493 -0.18651748 -0.13615808
-0.14097366 -0.045888893 -0.015944762 0.07546725 -0.061392862 -0.08424382 -0.076758526 -0.018475257
-0.020984504 0.14181788 0.08055128 0.11178347 0.099461704 0.11490155 0.08622274 0.25615785
0.3063848 0.21400814 -0.13948704 -0.059436854 -0.010253799 -0.056968864 0.036375977 0.08990296
-0.002895896 -0.12334526 0.04121529 -0.04829483 -0.050942585 0.08500448 0.023071304 0.09441837
-0.029917087 -2.8056282e-05 -0.007083188 0.003960795 -0.031975854 0.07820093 -0.032939192 -0.03245633
-0.11918709 -0.11133601 -0.10244669 -0.09867446 -0.01631259 -0.10958527 -0.06363609 0.00917572
-0.122498274 -0.088645495 -0.12070675 0.013195946 -0.02599179 -0.028002847 0.030059675 -0.04918813
-0.015444125 -0.003230913 0.0016818579 0.004843395 0.09041186 -0.013054206 -0.038332835 -0.06896923
0.0088304095 0.021763861 0.10608428 -0.41671172 -0.12470063 0.15589362 0.2243075 0.35310212
0.17368716 0.13773656 -0.24373955 -0.15780511 0.13906553 0.1591615 0.026010444 -0.008590018
0.052810483 0.06697981 0.12417726 0.31263027 0.17271218 0.10914509 0.118486784 0.19059873
0.08955244 0.091317356 0.18764843 0.18454415 0.1476555 0.1464284 0.19854172 -0.019142514
-0.13522029 0.051173612 0.059020564 0.056409616 0.054646634 0.13064343 0.002354402 -0.09335356
-0.029906498 0.0638839 0.07707217 0.077672265 0.08746625 -0.2614929 -0.33213997 -0.15508139
0.0013806607 0.047080394 -0.07675625 -0.009915456 0.13308789 0.1747855 0.006078959 0.009444814
-0.2171428 -0.21491049 -0.067849785 0.04998891 -0.025243623 -0.1806177 -0.18320756 -0.2949661
-0.2904285 -0.041669246 0.036255796 -0.07952355 -0.19246046 -0.015628196 -0.21765509 -0.17630677
0.028957566 0.04814113 -0.073984034 -0.04500103 0.039415304 -0.08136686 -0.030426117 -0.069291145
0.19729693 0.01063041 -0.063758224 0.014612752 -0.19802848 -0.12611537 -0.07111353 0.3096227
0.09285 -0.082539916 -0.07198745 -0.16257016 0.0544762 0.11642069 0.46806452 0.3049571
0.075911485 0.06293749 0.12564765 0.30348602 0.32228544 -0.026173988 -0.05245209 0.0053900396
-0.05429132 -0.13710994 -0.20364279 -0.15568317 -0.09874242 -0.1559511 -0.13657466 -0.14185813

ops.2.bias f4 [6]
00000000: 1f52 ec3e 3692 e4be 7a3b 92be 4e35 28be
00000010: f1ef 77be 57cf 053c
0.46156403 -0.446428 -0.28561002 -0.16426584 -0.24212624 0.008167109

ops.5.weight f4 [5, 6, 7, 7]
00000000: 5a04 93bd c96f 7abd 37de 43bc ba0a bfbd
00000010: 504f 53be 9d9a db3c 0791 293e acad 513d
00000020: 18f2 39bd fa13 82bd db22 4bbe 5bd7 7ebe
00000030: f7eb 4ebe 1f1b 8abc 2e79 c23e c358 403e
00000040: a2d2 493e 4db7 3abd f147 81be 9fe9 5bbe
00000050: 4946 0fbd d4df 473f 24f7 063f fc25 063f
00000060: 540f 143d cd58 3fbe a7bb dfbd 02fd 1ebe
00000070: e103 053f fdcb c63e f843 043f 67fd 473e
00000080: 412d 64bd 8b69 8cbd e9fa f8bd df92 ae3e
00000090: fd95 893e 56f1 b03e 729d 893e 96d7 69bd
000000a0: a3b5 44be 7d9e 55be 7c04 6d3e d635 0f3e
000000b0: b9d4 513e 2137 a03e 85fc db3d 1b0f abbc
000000c0: 61b7 07be 8372 9f3d 94b3 cabd 22a9 88be
000000d0: 1a5b dfbe 1d60 0dbe b2d6 95bc e1d8 08be
000000e0: 42e0 1b3e f064 233d ac45 42bb 0c35 87be
000000f0: f2df 32bd 475c 663d 674d dbbd 6132 043d
00000100: ad2c c03d cb45 ce3d 6213 1bbe 7cda 823c
00000110: c05b 3e3e 180a f5bc d0aa 62be 5966 9fbe
00000120: 0a3e d1be 6479 11bf dce5 dcbe a02b 763d
00000130: bc60 59bd 5793 ffbd 45c1 cebe 8a0b d4be
00000140: 2577 03bf b48d b4be f9ae 6e3e 5849 213e
00000150: de96 293d 9bb0 83be 44d6 12be b416 9ebe
00000160: d594 28be 2786 8d3e 627b 393e cb7f cbbd
00000170: fc84 2cbe bbd9 3ebd 2404 8abe 66c9 10be
00000180: 1ae4 fc3d ac49 973d e6d4 763e 9426 c43c
00000190: 10e7 05be 8411 17be 8122 8cbe d13d 4dbe
000001a0: 0b2e 43bd 2a47 a73e 569e e43b 23aa 16be
000001b0: ef6d 01be 1bb7 32be 2c9e 80be 66d3 0dbe
000001c0: 1b89 ba3e d4a8 163d 541f 66bd 8779 e6bc
000001d0: 0202 4abe 87a2 6cbe 9568 03be de40 b83e
000001e0: ee40 4dbc f4b7 403d 767b 973d 3255 07be
000001f0: 143c 43be ed14 20be abb1 cd3e b656 7cbc
00000200: 5ce5 283d 6468 37bd 5b3b 55be a6c0 fcbd
00000210: 241c 7dbe d965 ed3e d879 623d 0cc7 de3d
00000220: 01ad b43c 7c99 b6bd 169e 70bd 2174 a5be
00000230: 313d 1d3f 58b4 9c3e e4e9 493e 1e6c 323e
00000240: e568 c83d 2742 5f3d 3ca6 14be 7713 513e
00000250: 0752 ec3d 27ad f43c 86b3 95bd 31a1 8fbd
00000260: 2081 83bc a27e 9b3d ab72 023e 894b 25bd
00000270: 775c 83bc cb09 7cbe 6d86 bfbd a075 9bbc
00000280: 0f0d 24bd 622c 003e 4bd5 253c be8e b4bc
00000290: 0375 55be a50a 10be 580b 6e3c bf74 ff3d
000002a0: ae12 9d3e 1bb8 093d 3b1c aabd d5fc 2ebe
000002b0: 843f 49be fcc6 e03c f31c 1f3e 015a c63e
000002c0: 639a 993d df25 d2bd 2c78 11be 48b3 5dbd
000002d0: b77d 803d 3c9a c23e 7042 5d3e 04ed 23bd
000002e0: 3cb7 02bc 0350 95bc 1f83 b43d fd74 103d
000002f0: 4344 4c3e 8f01 833e 074b 033d f40f b5bc
00000300: 4ee8 0fbe 0a77 7e3d ad01 a93d d7fb 463e
00000310: 28b7 423e 6b54 e33d 0396 093e dbb8 22be
00000320: 356f f53c 3802 473e f9c2 f63d 2d40 0f3e
00000330: f224 3b3e 188d 743e 246f 85bb dd32 a93d
00000340: 88c1 083e 0a36 233d 49fa 77bc 6409 983d
00000350: 7709 023e eec4 1bbd 85ca ec3d 0ede d53d
00000360: 9b0e fc3c 45d9 34be 63ea 7bbe 3877 3cbe
00000370: 9bf0 91be 36c2 01bd d1a5 0d3e 3678 a73d
00000380: 39c7 f6bd fa5f 2dbe 7849 13be 2c7f 3bbe
00000390: 3c41 5c3c 453d 883e 61af 9b3e 8f53 e6bd
000003a0: 6bd9 cebd afe4 dbbc 2d88 86be e36a 37bc
000003b0: cd67 0d3e 20db 3a3e 0706 113d 74d0 6c3d
000003c0: 2de5 073e 9af3 8bbe 1112 8fbd 1032 0c3e
000003d0: 9163 463e 3e3e 663d a903 bd3d 230e 1d3e
000003e0: 8920 07bd 8031 0b3d 019a 613c 0367 0a3d
000003f0: 7d22 8dbb 6d25 d7bb 48f6 1f3d 4805 11be
-0.07178564 -0.061141763 -0.011954836 -0.09328218 -0.20635724 0.026807124 0.1655923 0.051191017
-0.045396894 -0.063514665 -0.19837515 -0.24886839 -0.20207201 -0.016858635 0.37983078 0.1878386
0.19709256 -0.045584965 -0.252502 -0.21475838 -0.03497914 0.7807591 0.52720857 0.5240171
0.03614743 -0.18686219 -0.10924464 -0.15526202 0.51959044 0.38827506 0.5166621 0.19530259
-0.05570722 -0.06856068 -0.12157232 0.3409643 0.26872244 0.34559125 0.26877934 -0.057090364
-0.19209914 -0.2086124 0.23146242 0.1398538 0.20491304 0.3129206 0.10741524 -0.020881226
-0.13253547 0.07785513 -0.09897533 -0.26691538 -0.43624192 -0.13806196 -0.018290851 -0.13363983
0.15222266 0.039891183 -0.0029643578 -0.2640766 -0.043670602 0.056240346 -0.10708123 0.032274608
0.09383521 0.10071906 -0.15144113 0.015973322 0.18589687 -0.02991204 -0.22135472 -0.31132773
-0.40867645 -0.5682585 -0.4314412 0.060100198 -0.05307077 -0.12479275 -0.40381828 -0.41415054
-0.51353675 -0.3526436 0.23308934 0.15750635 0.041403644 -0.25720677 -0.14339548 -0.30876696
-0.16463025 0.27641413 0.18113473 -0.09936484 -0.16847605 -0.046594363 -0.26956284 -0.14139327
0.123481944 0.07387099 0.24104652 0.023944177 -0.13076425 -0.14752775 -0.27370074 -0.20043112
-0.047651332 0.3267148 0.006976883 -0.1471334 -0.12639593 -0.17452662 -0.25120676 -0.13850173
0.36432728 0.0367821 -0.05618222 -0.02813412 -0.19727328 -0.23108874 -0.12832864 0.3598699
-0.0125276875 0.04705043 0.07396595 -0.13216093 -0.19065887 -0.15632983 0.40174612 -0.015401533
0.04123436 -0.04477729 -0.20823424 -0.12341432 -0.24717766 0.46366766 0.05529198 0.10877809
0.022055151 -0.089159936 -0.058744512 -0.32315162 0.61421496 0.3060634 0.19718128 0.17424056
0.09785632 0.054506447 -0.14516538 0.20417581 0.11539083 0.029867722 -0.07309632 -0.07013167
-0.016052783 0.07592513 0.12739055 -0.04035524 -0.016035302 -0.2461311 -0.093518116 -0.018976986
-0.040051516 0.1251693 0.010121654 -0.022040721 -0.20845418 -0.1406656 0.014529072 0.124734394
0.30678314 0.033622842 -0.08306166 -0.17088635 -0.19653136 0.027438633 0.15538387 0.38740543
0.0750015 -0.102611296 -0.14205998 -0.054126054 0.06273978 0.38008296 0.21607375 -0.040020958
-0.007978257 -0.01822663 0.08814072 0.03526782 0.19947915 0.25587127 0.032053974 -0.022102334
-0.14053461 0.062125243 0.08252273 0.19432007 0.19015181 0.11100086 0.13436131 -0.1589083
0.029960254 0.1943444 0.12048907 0.13989325 0.18275812 0.23881948 -0.004072087 0.082616545
0.13355076 0.039846458 -0.015135356 0.07423666 0.12698923 -0.038029604 0.11562065 0.10442744
0.030768683 -0.17661007 -0.2460113 -0.18404853 -0.2850388 -0.031679355 0.13832785 0.08177225
-0.120497175 -0.16931143 -0.14383495 -0.18310231 0.013443287 0.26609245 0.3040724 -0.11246406
-0.10100063 -0.026842443 -0.2627577 -0.011194917 0.13809128 0.18247652 0.03540614 0.057815984
0.13271017 -0.2733429 -0.06985868 0.13690972 0.19373919 0.056211703 0.09229214 0.15337424
-0.032990012 0.033982754 0.013769628 0.033789646 -0.00430709 -0.006565741 0.03905323 -0.14162171

ops.5.bias f4 [5]
00000000: a743 c03e 460d 213f 912f 1f3f fac0 7a3e
00000010: a070 2bbe
0.37551615 0.6291088 0.62181956 0.24487677 -0.16742182

ops.7.weight f4 [1, 5, 7, 7]
00000000: aef0 f6be 5258 14be aef6 0dbd f5f1 5abd
00000010: cc4b 1cbc 977c f23c 3a0d b1bd ef50 33bf
00000020: 65b9 363c afb5 d4bc 8cd6 8abd 6329 873d
00000030: 1905 0b3d c905 3ebd a682 5bbf 6f45 073e
00000040: fd92 8b3d 17c5 7fbd 66b1 ee3b b4b2 063d
00000050: aaa2 abbd be52 97bf 77a0 17be 138c 8b3d
00000060: f6e5 4f3b 8fb6 e13c 0821 bfbc 6919 87bd
00000070: 8865 08bf 8e0c b8be 84d2 93bc 8577 92bd
00000080: e207 07bd ff69 2ebe 90b0 05be 0627 30be
00000090: b74b 78be cf14 41be fa59 06bd 67e6 043e
000000a0: 3604 b33c 7865 92bd 780f 41bd f854 60be
000000b0: c8a7 01bf 3f78 0ebf 6b68 a4be 1e07 b0be
000000c0: 2acd 87be 5b96 de3e ff13 663e 1b5c ed3d
000000d0: 86c4 e43d 1815 2f3e a365 80bd dd5c 23be
000000e0: 08b3 6b3e 57b9 98ba 702f 2dbd e546 2b3d
000000f0: eb24 703b 7dfd 50be d160 c4be 8712 2f3e
00000100: dd13 a03c 4d83 c1bd a2a4 8bbc 2ac0 c63b
00000110: de6b 62be 4257 e9be 1a39 7a3e 6b30 503c
00000120: 412c 17bd 4a68 873c 9713 f0bd fdf6 fabe
00000130: 5c25 11bf 5065 093e 7027 d8bd 580e 8bbc
00000140: 44bb 41bd 707e dfbd 87e4 43be c012 95be
00000150: 0941 e1bc 218c 9abd 9f57 e7bc ead7 7ebe
00000160: 03b8 fabd bda9 e7bc 9375 17be d228 31be
00000170: 141b 90be c417 8fbe 0072 d2be c854 85be
00000180: 801e c5bd 47c2 08bd 934d c5be 2b5a ecbe
00000190: 2c82 e0be a9e0 1fbf e4ce cfbe f578 eabe
000001a0: e152 c0be e94b 82be 4b06 fcbd d45c 30be
000001b0: 870c d4be e8f5 d6be d8b4 10bf 13a1 ddbe
000001c0: ca87 b4be 7119 46be b902 96bd 89e3 19be
000001d0: 01f6 abbd ec16 d4be 22b3 cfbe 87e4 a3be
000001e0: 2343 21be e84d 85bd bce7 9dbc 3e5b 2ebe
000001f0: ddaf d6be 7aa4 25bf 4de0 923c ce52 19bd
00000200: a3c3 e0bb 91a4 bebd 66bc 18be c5f0 03be
00000210: 0bcb 41be 7f65 8b3d 68ae 313b c998 143e
00000220: 3443 a6bd 5b09 49be 6823 3dbe 3e0f dabd
00000230: 73bc 803e b136 5f3e bce6 0c3e fdaf f0bb
00000240: 2ca0 cabb f079 ab3d 9072 043e 80a9 5b3c
00000250: f5f2 74be 21de 40be 40df 05bd e7d4 71bd
00000260: ab97 1f3e b01a ce3e 9640 b0be f8f8 cabe
00000270: 3d38 eebe 3d5d 07bf 00a7 c8be c565 05be
00000280: 8f04 663e 5d3b 8fbe 902e bdbe 6903 edbe
00000290: c152 15bf d3b7 09bf 3a3a a5be 7c0a 7b3d
000002a0: 3530 83bd 1303 6ebd 6e23 0abe 6134 ecbe
000002b0: b186 d8be 10b1 18be 28d7 8cbd 7a52 7c3a
000002c0: b774 41be 4bbf 33be b470 a3be 2f08 72be
000002d0: 8366 a53d 9ed6 e43d 4d2c fb3c 8a56 043d
000002e0: a502 933d bb55 b5bd 2bac f0bb af26 b43e
000002f0: 663b ba3e 5555 be3e d74a 543e 93c3 8a3e
00000300: 07ed 1b3d a63b 0c3e b0f5 383e 2c34 dc3e
00000310: c0b7 333e 4922 17be 6bcc c4be 05df b5be
00000320: 5803 1dbe c4f4 903c af56 52bc 7ded 493d
00000330: e964 7fbe b021 f2bd c83b b83c 0ad2 853d
00000340: 562a b43d e943 853e 11f2 56be d680 50be
00000350: e30c cf3d 7454 a73d 4fee 9c3d 771d 943e
00000360: 5ea5 e73e 8e8d b0be b579 4c3d f7e0 6a3e
00000370: 78dc 673e 0f3f 543e 73c4 b03e 8251 f83e
00000380: a86a c7bd 32b9 0d3e c09d 963c c801 173e
00000390: 1735 893e 2f71 4f3e b3a9 c13e a481 c8bc
000003a0: 82d1 77bd e091 5ebd ba15 1c3e 9b13 0b3e
000003b0: 1b63 193e 0642 ec3e 5d26 86bd 7112 91bd
000003c0: 0e1e b3bd d43f 443e 5d71 133e c9cd 903e
000003d0: 5c94 0e3f
-0.482305 -0.14486817 -0.03465908 -0.053453404 -0.009539556 0.029600425 -0.08645101 -0.7004537
0.0111526 -0.02596554 -0.06779203 0.06599691 0.03394041 -0.046392236 -0.8574623 0.1321008
0.06815145 -0.06244382 0.007284331 0.03288527 -0.08380635 -1.1822126 -0.14807306 0.068138264
0.003172276 0.027552871 -0.02333118 -0.065966435 -0.53279924 -0.35947078 -0.018044718 -0.07151703
-0.032966502 -0.17032622 -0.13055634 -0.17202386 -0.24247633 -0.18855594 -0.032800652 0.12978517
0.021852594 -0.0714826 -0.047133893 -0.21907413 -0.5064664 -0.5565223 -0.32110915 -0.3438043
-0.26523715 0.43474087 0.22468565 0.11589833 0.11170296 0.1709789 -0.06269386 -0.15953393
0.23017514 -0.0011651915 -0.042281568 0.041815657 0.0036643099 -0.20409198 -0.38355115 0.17096911
0.019540722 -0.09448872 -0.017046276 0.006065388 -0.2211146 -0.45574385 0.24435845 0.012706856
-0.03690744 0.016529221 -0.117224865 -0.49016562 -0.5669763 0.13417554 -0.10554397 -0.016974613
-0.04729773 -0.10912788 -0.19130145 -0.29115868 -0.027496831 -0.07546259 -0.028240023 -0.24887052
-0.12242129 -0.02827918 -0.14790945 -0.17300728 -0.2814566 -0.2794782 -0.411026 -0.26041245
-0.09624958 -0.033388402 -0.38535747 -0.46162543 -0.43849313 -0.6245218 -0.40587533 -0.45795408
-0.37563232 -0.2544854 -0.12305888 -0.17222911 -0.41415808 -0.41984487 -0.56525946 -0.43286952
-0.3525985 -0.19345643 -0.07324738 -0.15028204 -0.08396531 -0.41423738 -0.40566355 -0.3201029
-0.15748267 -0.06509 -0.019275539 -0.17026994 -0.41931048 -0.64704096 0.01792922 -0.037432484
-0.006859259 -0.09308732 -0.14915618 -0.12884815 -0.18925111 0.06806468 0.002711201 0.14511408
-0.08118287 -0.19632475 -0.18470538 -0.106474385 0.25143775 0.21798207 0.13759893 -0.007345198
-0.0061836448 0.08372867 0.12934327 0.013407111 -0.23920806 -0.18834735 -0.03268361 -0.05904093
0.155852 0.40254736 -0.34424275 -0.39643073 -0.4652728 -0.52876645 -0.3918991 -0.13027103
0.22462676 -0.27974978 -0.36949587 -0.46291664 -0.583294 -0.5379612 -0.32270986 0.061289296
-0.06405679 -0.0581084 -0.13490078 -0.46133712 -0.4229026 -0.14911294 -0.06876975 0.0009625327
-0.1889218 -0.17553441 -0.31921923 -0.23635934 0.08076193 0.111737475 0.030660773 0.032309093
0.07178239 -0.088542424 -0.007344743 0.35185763 0.36373442 0.37174478 0.20731674 0.27102336
0.038067844 0.13694629 0.18062472 0.43008554 0.17550564 -0.14759172 -0.3843721 -0.35521713
-0.15333307 0.017694838 -0.01283805 0.049298752 -0.24940838 -0.11822832 0.022489443 0.065342024
0.087971374 0.26028374 -0.20990779 -0.20361647 0.1010988 0.08170405 0.07662641 0.2892873
0.45243353 -0.34482998 0.049920756 0.2293738 0.22642696 0.2072718 0.3452488 0.48499686
-0.0973714 0.13840178 0.018385768 0.14746773 0.26798317 0.2025802 0.37824783 -0.02447588
-0.060502537 -0.054338336 0.15242663 0.13581698 0.14979212 0.46144122 -0.06550286 -0.070835955
-0.08745967 0.19164973 0.14398713 0.28282002 0.5569513
